runs/sex_prediction/model_best.ckpt (torch, 192502 bytes, 34 tensors)

input_encoder.0.weight f8 [16, 3]
000000 be e9 f4 78 16 6b d9 bf fb 99 b8 2b d2 6d e4 3f
       -0.3971611195771877 0.6384058813026167
000010 59 55 8d 54 09 ae de 3f 46 a1 a9 29 91 3b e0 3f
       0.47937234169997606 0.5072713674281111
000020 2e 7c da 94 98 2d d9 bf 14 e1 f4 78 62 9a a3 3f
       -0.39340796028585856 0.038287236466603286
000030 8a 90 de a8 33 bb c6 3f 10 93 32 f0 41 61 e7 3f
       0.17758794541908102 0.7306222621305967
000040 9b 9c 9b 6a 29 ed e0 3f b2 d9 81 b7 d9 e5 d9 3f
       0.5289504129585966 0.4046539585173391
000050 0b c4 8c 91 a2 cf cd bf 45 ae 5a bc b4 52 b5 bf
       -0.23289901835372037 -0.08329324339381923
000060 e8 a5 c8 f4 51 ba d5 3f 14 f6 95 59 ab f1 c7 3f
       0.33949707894006886 0.18706266283327067
000070 2d 94 0b 86 31 4e e4 bf 1b ce ea ad 34 7f df 3f
       -0.6345450990744489 0.49213902458288467
000080 6c 36 9f 62 be 80 e6 bf 84 f3 eb ee 0c ba c2 3f
       -0.7032157827577072 0.14630281129930378
000090 ed c1 6e 81 91 92 cb bf 62 ab 14 aa a7 48 e5 3f
       -0.21541041202500769 0.6651190111054854
0000a0 28 56 75 33 23 7a df 3f b3 22 61 bb da ca d2 bf
       0.49182968163708773 -0.29363125132344264
0000b0 4f 76 74 b9 a4 78 99 3f 39 9d c3 73 28 ed c7 3f
       0.024874280757208485 0.18692498829407514
0000c0 33 fd 40 c0 c7 9d dd 3f 86 05 81 25 68 fe e1 3f
       0.46275514387885436 0.5623055202960792
0000d0 df fe 88 57 84 97 d2 3f d0 b7 e7 f6 ac 31 c6 bf
       0.29049786136964245 -0.17339098030009703
0000e0 c8 0c b6 a9 e7 fb c9 3f c8 1a d5 7a 37 b5 8b 3f
       0.20300002848316567 0.013529237209366399
0000f0 4e 1f 8c ca c3 91 9c bf 0a e9 21 e4 2d d3 da 3f
       -0.02789979861975605 0.41913935926972157
000100 66 f2 e7 08 78 77 c6 bf 4d 6e ff a8 36 08 e1 bf
       -0.1755209010588203 -0.5322526264894322
000110 a1 65 2f 96 bb f1 c5 bf 53 2e ae 70 16 6d e0 3f
       -0.1714395984006787 0.5133163643635704
000120 2c 9d 58 3f 67 61 e1 3f 3d 2b fa 48 25 36 e9 3f
       0.5431400525311907 0.7878595757805226
000130 ce 02 5a 9a 14 77 e6 bf 45 fd b4 ef 96 6e c7 3f
       -0.7020361914329329 0.18306242660944796
000140 47 c6 04 34 5c bb cc bf ed c7 63 52 13 59 cf 3f
       -0.22446777858708541 0.24490586779535253
000150 cb 3a f9 2e 08 c4 ba 3f d0 84 01 49 97 b2 dc bf
       0.10455371043029087 -0.44840032701001764
000160 19 1b 20 7b 8a 45 e3 3f e5 f2 23 86 95 1d d9 3f
       0.6022388844292862 0.39243066882754213
000170 9a 6d 0f a2 51 e6 e3 bf d7 73 cf cf 01 32 d6 3f
       -0.6218650975455831 0.34680218976955984

input_encoder.0.bias f8 [16]
000000 80 0e e3 fe 6b c7 a1 3f 3f da 0e 0e 85 c7 cb bf
       0.03472459303295938 -0.21702635942865986
000010 bd 6d fb 36 23 24 c7 bf 74 16 49 1d fa 86 a6 bf
       -0.18079033074068987 -0.0439985428570652
000020 65 62 80 d4 9b 2f d1 3f 3a a9 ab 9a 1c 51 bc bf
       0.2685308051309561 -0.11061266685616014
000030 3c 90 7d 50 0f b8 a8 3f 4b 70 38 44 e2 e8 cd 3f
       0.04827926499891119 0.2336695511920673
000040 ec 6c fc a6 82 91 d3 bf 62 ab 83 32 7b 30 dc bf
       -0.3057562475893991 -0.44045906003036894
000050 ee 76 cc 37 44 3f b1 bf b8 71 f8 39 2a 51 c7 3f
       -0.06737161981842707 0.1821644576128969
000060 8e 90 f7 61 67 9a dc bf dc 6b e8 b2 52 8a d6 3f
       -0.4469240624150722 0.35219256850694847
000070 b8 42 d6 97 6b 41 e4 bf 2a c3 53 d3 be b9 c2 bf
       -0.6329858747067965 -0.14629350012503411

gnn.conv_layers.0.c f8 [1]
000000 00 00 00 c0 65 8d 89 bf
       -0.0124767255038023

gnn.conv_layers.0.bias f8 [32]
000000 e8 ce 9d 19 29 06 d6 3f 70 2e 67 a0 e8 67 e5 3f
       0.3441260099564105 0.6689341671821705
000010 0f 77 a4 f4 4f 74 eb 3f bb ab bd ff b0 d2 e4 bf
       0.8579482820675554 -0.6507191653193937
000020 09 21 76 dd 18 2a dc bf 59 4e 1e 51 40 c8 d9 3f
       -0.4400694048604384 0.4028473655864438
000030 d7 9f c7 71 fc b3 c1 3f 0f 48 11 d5 3a fe b8 3f
       0.13830524020818188 0.09762923909991648
000040 fe 46 4c 77 2d a7 e7 3f 92 44 d6 a1 dc 0e e4 bf
       0.7391574220693824 -0.6268141899946775
000050 b9 d8 d6 c2 0b b1 b9 bf d9 2f e8 f9 80 f5 d4 3f
       -0.10035775667970172 0.3274843636033871
000060 f2 dc cb a0 59 3b e3 3f 01 f5 ad 58 2f 7b e4 3f
       0.600994886451103 0.6400372249624128
000070 bd 3c c8 bb 42 32 f3 3f a7 17 75 ab 4d 93 d7 3f
       1.1997706732980042 0.3683656858814807
000080 2d 77 b0 00 ee f2 d3 bf 9e 87 b8 cb 1e 94 d3 bf
       -0.31170225207630403 -0.30591554541217103
000090 3e 92 b7 60 90 7b a5 bf 07 7f ef 7c d5 ec c0 bf
       -0.04195834332111702 -0.132227598193815
0000a0 b5 53 b8 88 91 0e be bf f8 8c 7f 3e 23 cd c6 bf
       -0.11740979755297938 -0.1781353049437724
0000b0 3b 5b 71 8b 14 9a a2 bf 51 71 97 cd 5f cc c1 bf
       -0.036331789037538496 -0.13904950655604378
0000c0 89 02 f1 b0 70 52 c8 3f 21 21 96 c4 fc ed ce 3f
       0.1900158752414607 0.24163779829928791
0000d0 b2 06 4a 13 57 99 7a bf 73 9e 56 49 fd 83 e2 3f
       -0.006493892801360411 0.578611987341857
0000e0 b8 bc 58 e0 1c fc da 3f 1d 41 84 dc d2 77 da bf
       0.42163774403429555 -0.41356345686746626
0000f0 5d 25 1a b7 00 17 e9 3f 7a f0 dd 6c 6d cd df 3f
       0.7840579582417991 0.4969132960466208

gnn.conv_layers.0.linear.weight f8 [32, 16]
000000 6e 47 2b d3 42 c0 c3 bf 8f 23 37 f8 25 85 f3 3f
       -0.15430484114636606 1.2200069137490777
000010 c8 17 9e d3 95 a9 c9 3f 0d 7b 67 89 df 7b f2 3f
       0.200487831429369 1.1552424781181714
000020 fc 71 9a 25 aa 79 e8 3f d5 30 c5 a4 2f 06 f1 3f
       0.7648516401710022 1.0640102802599831
000030 57 68 30 55 d7 93 bc 3f 45 c7 32 3b ff 7b 66 bf
       0.11163087682544535 -0.0027446732506967463
000040 49 59 a6 ca c7 a4 86 3f 0a ae 56 89 fa c4 c2 bf
       0.011056481239205456 -0.14663631158815377
000050 0e d7 a3 a0 55 66 d6 3f fb 0e 2b b3 8b 07 b0 3f
       0.34999600112438223 0.06261513828490799
000060 65 09 cc 3b eb 85 e5 3f d3 1c 4a da 0b 35 d8 3f
       0.6725975196753039 0.37823768918356143
000070 28 cd 90 09 c8 28 b0 3f 1f bd a3 78 a2 37 dc 3f
       0.06312227471862697 0.4408956697579515
000080 ad 72 88 ce 1a 81 f5 3f df fd f3 e7 e6 5b cc bf
       1.344019705552607 -0.22155462575754734
000090 ea 09 ec b8 54 f4 e5 3f d8 86 52 ec 0d ae d0 3f
       0.6860755550154043 0.26062343672138644
0000a0 fe 06 46 bf ec cb df 3f c3 c6 96 f1 cf 24 e4 bf
       0.4968215816407876 -0.6294936865362718
0000b0 58 4a 86 4f b1 9b e0 3f 7a 5d 44 1e fa 31 d7 3f
       0.51900544674056 0.36242535548941357
0000c0 37 a6 d1 66 0f b3 c1 3f c8 21 6a 41 88 25 f5 3f
       0.13827698250251938 1.321663146520324
0000d0 9a 37 82 af f0 22 ee 3f 7c a2 7e c3 47 d2 e2 3f
       0.9417651584533246 0.5881689852004253
0000e0 ec fb ff e0 c2 f7 c3 3f af 5a 18 42 6d db c6 bf
       0.15599857317280852 -0.1785713741998811
0000f0 94 a6 eb f1 c9 74 c0 3f 46 73 86 6c dc 57 e0 bf
       0.12856411278271607 -0.5107252235062354
000100 33 a0 89 4b 24 c7 f1 3f e8 54 e5 7f fa d4 a5 3f
       1.1111185980498817 0.04264052211025576
000110 0a 31 2e d6 3e 5b e5 3f 30 78 68 db 65 8e b0 3f
       0.6673883612834584 0.06467281920092272
000120 8d 4b 86 94 7a 39 e7 3f 59 a2 a4 14 23 4c 9d 3f
       0.7257664585944085 0.02861075223441598
000130 d8 73 d6 c6 a3 d6 d3 3f a6 bd 43 49 00 3e d3 3f
       0.30997557084793703 0.3006592479204876
000140 8f 43 25 56 d9 ba a2 3f d4 22 ec c9 e0 dc d5 3f
       0.03658179451543397 0.3416063281916142
000150 a1 e7 d6 bc db 04 e0 3f 33 44 1d 99 d8 ea e7 3f
       0.5005930603285728 0.7474177351488208
000160 2f ca a6 bb 23 ac f2 3f fe 9a 06 d3 38 d8 af bf
       1.1670262651574708 -0.06219651771544042
000170 73 a4 37 94 60 d4 d0 bf b2 6e 41 2c 21 54 e1 3f
       -0.2629624793467606 0.5415197243086907
000180 f2 21 9f 45 98 4f e4 3f 59 5d 60 e3 5c 0d e3 3f
       0.6347161636159042 0.5953812066026486
000190 19 13 b9 27 3e f2 e0 3f 67 fc 7e fc 10 94 ec 3f
       0.5295706535185644 0.8930745059550532
0001a0 29 04 91 d2 1b 89 c7 3f 26 79 e3 15 db 1d d8 3f
       0.18387172490659623 0.3768222535853901
0001b0 ed 7b 79 6d 92 5b d2 3f 31 75 a8 a3 81 98 a7 bf
       0.286839110287416 -0.0460854065206412
0001c0 f3 09 9e 61 c5 20 f2 3f bb 9c 5d ac 0e 67 c2 3f
       1.1330007374932591 0.14377005974094978
0001d0 b8 a5 be 4f 07 3c e2 3f ff 1a 43 93 09 8a e3 3f
       0.5698277051462162 0.6106002689565172
0001e0 b0 7a 55 b2 00 fb e7 3f 8b 2f ae a9 fb bb c5 bf
       0.74938998061028 -0.16979928765465177
0001f0 83 f8 3e 79 bf fe ea 3f 90 50 81 db e1 d5 e7 3f
       0.8435971611104524 0.7448586737832716
000200 cb 73 b6 92 0c 75 c4 bf 77 8e 4f 0c c4 67 f4 3f
       -0.1598220554705264 1.2753334504021987
000210 a3 f5 8e 04 ce 1d b4 bf b5 30 d9 da cf 4c e9 3f
       -0.07857978450097973 0.7906264566786577
000220 c1 58 38 4d b6 c7 e4 3f f8 f9 96 18 6e dc ff 3f
       0.6493789203839456 1.9913159332787682
000230 10 fe 16 33 18 63 88 3f d1 dc 14 a1 ed 2d ae bf
       0.011907757815492054 -0.058944154656666144
000240 89 dc 4c 7d fc ac 9c bf b3 9e 37 76 39 ef e3 3f
       -0.028003640315742238 0.6229522046023334
000250 30 0f 7b 61 19 58 c0 3f 21 d0 bd 57 48 24 d8 3f
       0.12768857250022725 0.377214513478295
000260 13 70 02 8b 59 3a ce 3f 30 46 d2 ee 9c 3a de 3f
       0.23615569388937327 0.4723274547805856
000270 ce fc f1 83 0e b3 f0 3f f3 ce 30 bb 98 11 f4 3f
       1.0437150148498406 1.2542960464606352
000280 f5 cc 62 c6 c6 36 e2 3f c7 3c 2b 1d 1f 05 e1 3f
       0.5691865801549328 0.5318751878457072
000290 82 fa bb 7f 4a 87 9a bf 59 13 71 0a 3a 18 e3 3f
       -0.02590671925190203 0.5967073635043604
0002a0 d1 b5 59 5a 50 51 ec 3f 49 8f a5 79 d5 5c bc bf
       0.8849260105759474 -0.11079153270617072
0002b0 e4 0e cc bc 1b 82 eb 3f 70 33 95 45 6d 36 af 3f
       0.8596323668902781 0.06096211885833369
0002c0 fb e4 d9 22 7c be e3 3f 0a 9a b7 46 a7 f9 81 3f
       0.6170025520979431 0.00877695736467123
0002d0 f1 17 ad b7 28 49 e6 3f cd e4 1e 1a 3b 55 c2 3f
       0.6964305484223116 0.14322603965209738
0002e0 81 62 2e bf 36 56 f1 3f c1 82 14 88 76 06 d6 3f
       1.0835483043685203 0.34414447106432183
0002f0 c1 a1 d7 f0 56 fd c5 bf 74 e4 29 25 06 17 cc bf
       -0.17179381141546737 -0.21945263685828176
000300 f1 03 f4 7d 46 8c f2 3f f4 6a 20 aa 0a b7 e2 3f
       1.159246913914327 0.5848439524446278
000310 78 ff b6 a9 31 1c f4 3f 29 b9 5f dd d6 83 51 3f
       1.2568832997785346 0.0010690305984968984
000320 94 61 50 f3 18 b4 a0 bf 79 d1 1f 02 55 be c8 3f
       -0.03262403459683863 0.19330847362256146
000330 62 fc dd dd 2e 44 ed 3f e5 44 93 2f 09 73 d9 3f
       0.9145731290190151 0.39764623304388486
000340 c5 d7 f8 81 99 1b e6 3f b7 6d a3 0c 0e d6 dc 3f
       0.6908690966144994 0.450564873068028
000350 e6 b4 6c 84 f5 18 b7 3f 57 a2 3d da d0 c1 ed 3f
       0.09022459490798304 0.9299091589464962
000360 ea 31 62 9e 5d 84 db 3f 2f c0 ab f9 ae 54 d4 3f
       0.4299539610590545 0.3176686704819102
000370 3e a3 ec 57 8a 20 c0 3f e4 eb 0a 21 f5 d4 e3 3f
       0.1259930543249314 0.6197457929005137
000380 e1 90 6e 0f 8d f4 e4 3f 33 0b 5c 82 f7 4c c6 3f
       0.6548524190334569 0.174223841335413
000390 1e b2 6d 12 31 59 e9 3f 3a 36 1f 67 63 d5 d9 3f
       0.7921376571590064 0.4036491877603542
0003a0 d9 3a b8 43 cd 21 82 3f 88 f3 66 a6 6f 5b e8 3f
       0.008853534344806334 0.7611616373102246
0003b0 15 c5 83 f8 89 2c ef 3f f1 29 28 d4 36 e4 e3 3f
       0.9741868833354227 0.621608175629545
0003c0 b4 46 35 82 04 ae e8 3f 39 90 d6 d1 d2 e7 d5 3f
       0.7712423842551375 0.3422743844223564
0003d0 b1 18 e3 55 27 d5 eb 3f 03 c9 0e 0d 4f 3c eb 3f
       0.8697697331888518 0.8511119132074615
0003e0 12 ae 24 1e 70 4f cd 3f 42 6a bc 87 e5 9d ed 3f
       0.22898675414886377 0.9255244875997237
0003f0 94 f0 3e 62 3c b4 df 3f 1e 22 1c f9 1b 56 e1 3f
       0.4953757247383319 0.5417613854816101
000400 6e 96 4c 4e b3 12 c4 3f ed 3f 17 95 23 4e e2 3f
       0.15682069132997206 0.5720384513788282
000410 8f e5 5a 44 e6 56 dc 3f 60 38 18 c3 d7 b6 b3 bf
       0.44280392337130875 -0.07700871003200538
000420 f0 c7 43 0d db d0 e2 3f a5 3f 6e 32 7b 8d 71 bf
       0.5879950770452052 -0.0042853176481826615
000430 df 0b 23 d1 65 a2 d7 3f 95 df ec ae 7f 66 e4 3f
       0.3692869703629053 0.6375120560178283
000440 f0 1a b6 1f c7 f7 ef 3f 30 f8 3a 8c 39 8c e4 3f
       0.9989963168489719 0.6421172846673979
000450 5e 48 c1 18 c6 fc ee 3f aa 4f fc 51 6d df cd 3f
       0.9683561786171244 0.23338095191195168
000460 73 e6 4d e4 67 b0 f4 3f d8 61 ce 28 3a 9e c5 3f
       1.2930678289543749 0.16889121048440248
000470 20 e5 bc d8 68 52 e3 bf ce c8 3a 24 c3 ba d3 3f
       -0.6038097603951975 0.30827406442689387
000480 21 b5 e3 74 81 18 f3 3f ed db db 03 0a 56 dc 3f
       1.1934828344340718 0.44275141121710143
000490 62 3c ab dd d8 a4 de 3f 73 72 5f b0 48 76 de 3f
       0.4788114704833274 0.47596947883520285
0004a0 af 63 66 12 fa 54 aa 3f 6f f4 e0 7d d9 74 c7 3f
       0.05142957186325902 0.18325346609518386
0004b0 2a 80 f7 0e 0a 3d ed 3f 9c 51 98 93 8b 79 d2 3f
       0.9137010853119183 0.2886685315472961
0004c0 b0 f9 60 41 73 30 e4 3f b8 72 84 55 ee 0d eb 3f
       0.6309143330507165 0.8454505605946769
0004d0 b0 a8 32 28 b9 16 e9 3f e1 0a b1 1e e1 bd d1 3f
       0.7840238366236658 0.27721431729530194
0004e0 0c 49 14 e3 85 47 ef 3f 7d 68 0d 2e 48 36 e5 3f
       0.9774808344975852 0.6628762149296247
0004f0 2c 54 3a e6 0c 88 dc 3f af 38 c5 f3 9a 86 b7 bf
       0.4458038566893403 -0.09189766360688865
000500 f5 c9 3e ed 25 7d db 3f e6 b4 90 90 34 3d d7 3f
       0.4295134369705516 0.3631106769342537
000510 64 e0 75 da 85 73 d8 3f b4 73 05 f2 e2 19 bf 3f
       0.3820509560969241 0.12148874672625604
000520 8c 66 dd 75 8f 02 e1 3f e1 3b df 54 31 64 d8 3f
       0.5315625478790067 0.38111527717859245
000530 38 30 b3 19 4d 77 d6 3f cc b7 bf 16 da 01 f3 3f
       0.3510315657592886 1.1879521263722266
000540 b1 d7 d6 95 a5 9c da 3f 94 02 78 e0 03 a9 be 3f
       0.415810962989208 0.11976646642870953
000550 3c 00 cd 7d d7 19 d5 3f 65 81 df cf 3b 19 f0 3f
       0.32970225606186765 1.006160556797192
000560 f7 ed eb 7a da 45 e9 bf 83 18 5b a1 04 05 f0 3f
       -0.7897770310223099 1.0012251189196213
000570 63 4e 85 43 7b 47 ec 3f eb 4f 4c 64 53 1d ef 3f
       0.8837257689251142 0.97232980336639
000580 db f2 8f f1 5b b3 ed 3f 8d 7c 03 1b 88 1e c8 bf
       0.9281444280637418 -0.18843175238632562
000590 9d 29 63 e2 23 e6 f1 3f df 84 36 81 0c 63 e7 3f
       1.1186865657096867 0.7308409236613008
0005a0 94 aa 3f 1a 65 7b e3 3f 9a 2b 89 a2 17 87 d7 3f
       0.6088128578824858 0.36762038109434914
0005b0 c3 35 72 ad 28 7a ee 3f 05 4a e4 85 e7 fc be 3f
       0.9524119746799261 0.12104651469079648
0005c0 66 f1 6b c8 e1 32 eb 3f e1 fc 59 35 72 c9 ea 3f
       0.849961177300014 0.8370905916234755
0005d0 ee ca 94 7f 8f ca ec 3f 94 a0 da 41 90 1b d3 3f
       0.8997266284771663 0.2985573428254693
0005e0 4d f3 02 6f 2a 8b d6 3f 3c e9 f0 98 2a 28 e5 3f
       0.3522440036866115 0.661153124535566
0005f0 99 ce e1 53 f2 b7 e4 3f aa ac ac e0 9e 5d e2 3f
       0.6474544180222949 0.5739282978223816
000600 20 03 96 2a e7 ed d3 3f 95 d3 0f 38 1d c3 eb 3f
       0.3113954463843118 0.8675676436383691
000610 cb 98 01 6b a1 6b f4 3f 66 5f 34 cd bf ed cf 3f
       1.2762769870692405 0.2494430305457584
000620 81 c4 33 67 38 57 c2 3f b4 08 f0 8a dd 78 d2 3f
       0.14328675307436714 0.28862703865173533
000630 97 e6 be 29 67 c2 d4 3f f2 64 e8 ea 93 3d d3 3f
       0.3243654163048659 0.300633410837306
000640 e4 22 6a 30 7a e6 f2 3f 33 46 17 71 12 40 be 3f
       1.1812688723750222 0.11816516171463647
000650 cd 5b 7c 6f 72 24 d1 3f a0 b3 cb 25 8e a1 b5 3f
       0.2678495491722373 0.08449638769862
000660 dd a1 2b c8 e1 16 c8 3f 92 a7 3e 9f c3 4b e7 3f
       0.18819830202052304 0.7279985532998003
000670 8c 31 f8 35 a9 6f c8 3f 23 28 8b 1b a4 b6 e9 3f
       0.19090762267331873 0.8035450494728632
000680 31 e8 3a 6e c1 96 f1 3f 0b bd c8 a5 88 9b df 3f
       1.0993055635322089 0.49386802854401485
000690 7b f9 85 8d 83 85 f2 3f f2 e8 3a 88 ec 8a dd 3f
       1.1575961616759674 0.46160424522135124
0006a0 f7 0a 16 00 83 69 d3 3f 29 53 74 7a 4b 9b 95 bf
       0.30331492432030366 -0.021100215291045252
0006b0 1d 4f c4 a9 0b eb f6 3f 98 0b 18 98 56 72 f2 3f
       1.4323841697232134 1.1529146138352413
0006c0 e1 2c 16 66 3d 48 d6 3f fd f6 ab 36 5d ce d5 3f
       0.3481591698589011 0.34072046603237977
0006d0 52 dd 7c d3 a2 2d df 3f be 88 8a ee fe 2d ef 3f
       0.4871604028043822 0.9743647250181977
0006e0 63 b6 f8 e7 45 28 e0 3f a6 a3 40 13 cb b1 d1 3f
       0.5049161463445667 0.27647663955809276
0006f0 80 b2 1d d1 78 93 e0 3f 0b 72 40 c3 23 9c da 3f
       0.5180019459053966 0.4157800108676219
000700 f2 0f d4 c3 ba eb d3 3f 82 3a fa 67 86 fd d1 3f
       0.31126278995384304 0.28109893945740094
000710 b8 ce 2b f7 93 4e d4 3f b7 65 e2 f9 c5 7f bf bf
       0.3172960199146746 -0.12304341650669569
000720 16 a2 0a ad e3 07 b8 3f 65 7f 98 bb dd d4 c0 3f
       0.09387038206717366 0.13149615917154303
000730 27 f6 8b ed 11 31 ee 3f 4c 65 c6 9b 05 3c e7 3f
       0.943489994009444 0.7260768930893078
000740 07 ed ff bc c6 a8 d4 3f c2 bf f8 07 a2 9b b4 3f
       0.3228012891483591 0.08049977011319157
000750 5a 29 6b e9 ae a0 c8 3f ab e8 9b 76 30 c3 f4 3f
       0.19240366361038747 1.2976536400952152
000760 48 be c9 37 1b 8c d8 bf 02 12 60 28 6d e9 c3 3f
       -0.38355141113331515 0.15556110831688846
000770 3f b1 44 75 d6 5e f0 3f 55 ca 1c 91 d0 f9 c9 3f
       1.0231537419122814 0.20293624005860758
000780 6e 81 fb 04 3c 18 dd 3f ac f0 6e 97 a0 b7 94 bf
       0.4546041535050084 -0.020231732599982052
000790 7f 74 ac 12 f5 0e eb 3f ff 81 1f f7 40 c0 ce 3f
       0.8455758442611482 0.24024211947018156
0007a0 fb a4 3c be 3f ad f3 3f f5 b3 41 1e d7 06 e4 3f
       1.2297971182945833 0.6258349982214201
0007b0 79 f9 4e 8b 0a 9f d0 3f b8 db bd 8f b8 00 c5 3f
       0.25970710377068645 0.16408450144419162
0007c0 95 02 62 79 1b 9e d9 3f 1a e5 21 48 8c 52 e0 3f
       0.4002751050357259 0.5100766571842172
0007d0 cb 6f 24 75 a7 02 e7 3f 63 f3 8c 57 03 94 b2 bf
       0.7190739906250142 -0.07257099997964427
0007e0 42 d3 db 10 c5 26 ee 3f 88 b8 02 6d 45 2d df 3f
       0.9422326401969274 0.48713813443726695
0007f0 91 8d 7f fd 57 53 e0 bf 86 57 0c 14 64 db de 3f
       -0.5101737929475566 0.4821405597480112

gnn.conv_layers.0.u.weight f8 [1, 16]
000000 00 00 00 80 c6 65 c8 3f 00 00 00 40 38 59 e2 3f
       0.19060593843460083 0.5733910799026489
000010 00 00 00 80 58 95 ea 3f 00 00 00 80 91 a1 e0 3f
       0.830730676651001 0.5197227001190186
000020 00 00 00 40 58 a8 ec 3f 00 00 00 00 58 ef 83 3f
       0.8955498933792114 0.009733855724334717
000030 00 00 00 00 c0 02 d1 3f 00 00 00 00 6c 55 c1 3f
       0.2657928466796875 0.13541936874389648
000040 00 00 00 40 2a c4 e9 3f 00 00 00 00 12 87 ce 3f
       0.8051959276199341 0.23849701881408691
000050 00 00 00 00 86 a8 d3 3f 00 00 00 60 42 80 e1 3f
       0.3071608543395996 0.5469066500663757
000060 00 00 00 c0 88 e0 de 3f 00 00 00 a0 71 e7 ef 3f
       0.48245447874069214 0.9970024228096008
000070 00 00 00 00 10 cd b7 3f 00 00 00 60 eb 0b e6 3f
       0.0929727554321289 0.6889550089836121

gnn.conv_layers.1.c f8 [1]
000000 00 00 00 c0 13 95 9f 3f
       0.030842121690511703

gnn.conv_layers.1.bias f8 [64]
000000 cb 76 94 5b 8e cd f0 3f e1 c1 49 17 e4 4b e3 bf
       1.050184591039783 -0.603014035687064
000010 aa 0e 46 57 c7 1b cd 3f 6b b6 60 80 b6 b9 ed 3f
       0.22741023789796105 0.9289200312975486
000020 a8 e4 a0 60 eb ce d9 3f a7 89 26 51 37 02 ba 3f
       0.40325436054588204 0.10159631472791962
000030 25 e5 f4 4d 1e 0a b1 bf d7 43 18 29 f3 4e d7 bf
       -0.06656064418065862 -0.3641937161747228
000040 13 99 e5 3a 9f 00 d8 3f a8 28 c2 56 68 b1 e9 3f
       0.37503796340605894 0.8029061979771273
000050 18 bd 84 a8 e7 b6 e2 3f a0 c0 e0 8a e5 1f de 3f
       0.5848272601487308 0.4706968170385242
000060 15 fe 64 4a a5 a8 ed 3f a9 3e 1e d9 31 9f db 3f
       0.9268366292016618 0.4315914745611545
000070 0e f9 31 83 58 b6 e3 3f 4c 47 c0 3d 9e 71 de 3f
       0.6160090029150369 0.4756847003019302
000080 66 0e c9 08 39 b5 f3 bf f7 93 5f 2b 53 e9 d1 bf
       -1.231743845289111 -0.27986602054289683
000090 61 23 25 c0 fb b7 e0 3f 78 82 01 b0 67 61 f2 3f
       0.5224589112122936 1.1487805247526506
0000a0 38 c7 2a 86 db be 93 3f 43 45 ba 4a 63 42 ee 3f
       0.0192827511443234 0.9456039866946998
0000b0 c5 3d 80 06 5e 0a d6 3f 83 71 ff d1 34 8b 83 bf
       0.3443827689634101 -0.009542858751893096
0000c0 9f 02 18 94 3b cc d3 3f 6e 58 3e 83 6b d7 ec bf
       0.3093403764942568 -0.901296383223565
0000d0 b3 ab 3b dc 13 75 ea 3f 14 46 9f 84 c9 bf f3 3f
       0.8267916966846002 1.234323041968655
0000e0 c5 ea a2 45 b2 c3 c4 3f d9 89 36 0e c8 5f a6 3f
       0.16222217941488828 0.04369950459956202
0000f0 64 5c d7 e7 6c b6 d3 3f b6 21 da 07 38 10 f6 3f
       0.3080093635630361 1.3789596850129846
000100 01 b9 35 87 20 2d c0 bf a8 62 25 9d d6 bc bf 3f
       -0.12637716867488538 0.12397519432614479
000110 35 b0 47 2f e5 ce e4 3f 17 54 6b 74 90 d1 f4 bf
       0.6502557681501516 -1.301163153422072
000120 37 97 e6 4b 31 ae c3 3f a6 dd 3c 3a 42 32 bf 3f
       0.15375343519297655 0.12186063691921464
000130 33 7b ba df 3c 26 b1 3f 7e c1 16 21 ba 8e c9 bf
       0.06698971235389876 -0.19966818442982154
000140 7f 14 47 75 1e 7e bb bf ac 2c 3c 91 0c 85 f0 bf
       -0.10739317286705051 -1.0324826882595444
000150 9e 20 4d d5 0f d6 dc 3f 22 7f bf b7 59 44 f5 bf
       0.4505652983684828 -1.3291871240289272
000160 1c eb 53 ce d6 32 c7 bf a8 8c cf bd ba b3 f0 3f
       -0.18123898577308573 1.0438792623979598
000170 2c 73 b9 ed 31 dd d6 3f 8b 7d fc 12 c5 76 e8 3f
       0.35725067343973893 0.7644982691598882
000180 02 82 8e 92 19 83 99 3f 92 65 21 c3 bf 7b f0 3f
       0.024914168901547747 1.0302121755870286
000190 c8 d4 bf 95 a6 3d c5 3f 2f c1 3f 78 50 5c ea 3f
       0.16594393074016112 0.8237688397039501
0001a0 ee ac 4b 4e 1f a9 e6 3f 16 88 20 4d 80 90 e0 3f
       0.7081448106013377 0.5176393038166249
0001b0 ec eb 07 be 5f 84 c4 3f dd de 29 37 75 ea af 3f
       0.16028973368506116 0.06233564661391509
0001c0 12 77 85 12 f6 f6 d1 3f 66 66 90 1a a8 70 e6 3f
       0.2806983166573086 0.7012520331220002
0001d0 e0 df a2 f0 ae 86 b1 3f e6 53 9d be 7c ae d0 3f
       0.0684613549700539 0.2606498586149527
0001e0 46 a9 cb ee 57 b0 fb 3f 2a 78 97 4f 58 1e dd 3f
       1.7305526092482792 0.45497710964798677
0001f0 78 fc e0 db cf a6 e7 3f a0 d5 8c 6d 04 94 dc 3f
       0.7391127867230258 0.44653425882582987

gnn.conv_layers.1.linear.weight f8 [64, 32]
000000 36 e6 d8 66 62 6a c0 3f 00 e8 8c e7 a6 63 c2 3f
       0.12824659368361474 0.14366613680050477
000010 b6 9d 9a f1 99 c9 f1 3f bb 1a 5d 49 58 09 c9 3f
       1.1117190778403319 0.1955976827832354
000020 29 86 8e 2f 53 4a e0 3f bc 3b bb 80 04 cd d8 3f
       0.5090728691904519 0.38751328059600687
000030 ac 41 54 f5 48 04 d6 3f 56 96 25 b5 e5 88 d4 bf
       0.34401153524324957 -0.3208555478107419
000040 81 7c 1b 8c 62 27 f6 3f f7 4f dd 73 7f c5 e1 3f
       1.3846154663986285 0.5553586256960433
000050 86 df 4d 8e cf 80 bb bf cc 1e 5c 31 05 d0 e4 bf
       -0.10743424629424511 -0.6503931011256667
000060 ec d6 c4 9e 8e d5 cf 3f 06 38 5e ed 70 b8 dc 3f
       0.24870474579227364 0.4487573926970757
000070 94 a3 04 e2 57 06 df 3f 6b 1d 6c d1 59 5b c4 bf
       0.4847621638496602 -0.15903780675601395
000080 25 7c 1e 83 3f 1c ed 3f f9 fc a4 03 4f a9 bf 3f
       0.9096982537192885 0.12367719496704756
000090 2d 84 71 ca 08 7d 9a 3f 15 ff 73 01 13 18 e2 3f
       0.0258675931512508 0.565438750112636
0000a0 6e 77 f5 fb 62 35 d0 3f c9 7a fb 7a 54 52 f1 3f
       0.2532584629569702 1.0826000980375048
0000b0 19 69 75 ca 14 7d e7 bf 5b f8 95 95 97 d2 e5 3f
       -0.7340187029142583 0.6819570466611923
0000c0 0f 56 9c 8e 8f fd d1 bf 1b 0a 0b 8e 25 a8 d6 3f
       -0.2811011212046148 0.3540128600253937
0000d0 bb 37 79 ad 41 5f b6 3f e5 df 07 49 98 b9 c8 3f
       0.0873909996527961 0.19316390577273448
0000e0 e2 0f af db 18 f3 e8 3f cc 08 5c e7 70 bb dc 3f
       0.7796749392223286 0.4489404925699432
0000f0 50 b5 a6 a5 bb 1a ef 3f 3d cb 48 18 2e 00 6a 3f
       0.9720133052229958 0.0031739139833687744
000100 1a 0b 6b 9e 74 03 f6 3f 50 d3 e8 c2 a3 e9 b8 bf
       1.3758436382492563 -0.09731505878955926
000110 6c 68 74 60 a3 51 7d 3f 03 26 1f e4 f0 61 c1 bf
       0.00715793437054844 -0.13580142153504945
000120 47 6e 72 6a fa 02 c1 3f 51 7c f5 fc d4 31 dc 3f
       0.1329033870468825 0.4405415029813798
000130 a2 0d 3d 49 0e d3 d4 3f 8f 3d fd 28 1f 93 ea 3f
       0.3253818240375158 0.8304591942377771
000140 c0 f5 ba 85 22 70 b8 3f 1e 02 7d 8e 72 dd ec 3f
       0.09546104206943706 0.9020321639037012
000150 a1 08 a3 6f 69 84 e0 3f 49 76 17 45 20 dd f3 3f
       0.5161635570914492 1.2414858530895734
000160 08 15 a5 b2 73 ae ee 3f fd c3 fa aa a4 ae e7 3f
       0.9587954034001607 0.7400687541431804
000170 67 f8 9a 59 d2 8a e8 3f a6 f4 6a 4b 29 81 d6 3f
       0.7669460058311984 0.3516333805562887
000180 4e ff 74 a6 77 72 af 3f f6 51 51 33 6f 40 f0 3f
       0.061420191831074264 1.0157310490222904
000190 7b 25 57 e3 d3 26 d1 bf 65 ee 8b 00 c3 56 e5 3f
       -0.26799485398495165 0.6668410311389833
0001a0 e6 7d b8 f4 76 1b d1 3f 9d 36 b2 d6 a0 69 b8 bf
       0.2673013105249694 -0.09536175958256839
0001b0 7f a9 2e 6a 4f b2 f3 3f c8 32 ee 83 4e ca cd 3f
       1.2310327670807906 0.2327364105407439
0001c0 07 94 c3 72 a4 c5 f0 3f 37 03 d6 1a 93 dd e1 3f
       1.0482525332420225 0.558297684110676
0001d0 5c d9 63 3b bf 61 d1 3f 97 6b c4 d3 50 ed d2 3f
       0.27159100341613907 0.29573460274121416
0001e0 20 d9 b7 42 f9 53 c0 3f 2b 24 fa e0 85 85 e2 3f
       0.12756267316553593 0.5787991899570718
0001f0 b6 30 06 02 99 07 de 3f 74 3b 4d 9f 54 6f e2 3f
       0.4692137260215178 0.5760901557313063
000200 fc 36 c3 aa 61 86 e3 3f 16 b0 e8 7a 3f ae c3 3f
       0.6101539931493956 0.15375512601292546
000210 e8 84 56 0b 59 d3 e0 3f 74 ef 80 36 22 06 af bf
       0.5257992955631865 -0.060593670991209075
000220 e4 d8 18 2f eb c1 f1 bf 37 83 90 e0 65 5e a7 bf
       -1.1098434295395743 -0.04564207426324745
000230 dc 88 73 13 50 f6 d3 bf 2b 3a d9 36 65 d3 d9 bf
       -0.3119087400392695 -0.4035275493269263
000240 89 59 54 1a 62 97 ce 3f 73 38 f7 a8 46 4a c4 bf
       0.23899484906787574 -0.1585167241123063
000250 2b 84 ce c7 9d 5c ea bf 84 6f ed e8 fd 1c bd bf
       -0.8238057043528263 -0.11372363030153393
000260 55 d4 ca 85 5f 0a de bf 88 ad 3f b3 2f 6e 9a bf
       -0.4693831259313062 -0.025810952487444833
000270 a3 54 54 9d 56 0f d6 3f ac 0a 48 28 4e 0f cd 3f
       0.34468617786598993 0.22702958075395452
000280 b3 e6 60 77 e2 0f c4 bf 99 6d 0d 29 35 42 d8 3f
       -0.15673476056126887 0.37904099473026914
000290 7f a3 7c 5f e9 28 b2 3f 83 a5 19 56 04 b1 e0 3f
       0.07093676167700201 0.5216085130352187
0002a0 2f cf 22 11 89 8b d3 bf 40 32 4b d7 22 f3 e0 3f
       -0.3053915660232062 0.529679699416711
0002b0 8f db 07 5c 34 d7 b1 3f 84 a6 eb 2a 8c cc d4 bf
       0.06969001051753153 -0.3249845904489137
0002c0 43 61 4d af b0 e8 ba bf 79 ab d1 50 78 fd e3 bf
       -0.10511307029571974 -0.624691160058645
0002d0 79 47 33 e4 89 76 fd bf c1 8b ad 4e 9c 08 be bf
       -1.8414400972437461 -0.11731888695571425
0002e0 d0 33 65 2f f1 ed bd bf 7b 2f 8b 12 da 8d c3 3f
       -0.11691195876228666 0.15276647477582714
0002f0 ec bd 8b c9 c9 1b df 3f e7 c5 f4 c6 5f 06 d7 bf
       0.4860710590573649 -0.3597640459948636
000300 9a 30 62 45 16 4e da 3f d0 96 95 48 db ca c9 bf
       0.4110160520147105 -0.20150319141537532
000310 87 0a 29 67 1e 75 e6 3f fe ba 8a d8 1b 5f e0 3f
       0.7017967238283099 0.5116099576315205
000320 a2 92 14 7e 36 af d6 3f e3 56 f1 ad 1d 57 dc 3f
       0.35444414436850924 0.442817134729337
000330 69 d0 9a dc 87 33 d8 3f c3 a8 dd e0 21 99 e0 bf
       0.37814518493110555 -0.5186929122840173
000340 8d 4d 9d 85 2a 4b e0 3f dd c0 da d6 0e 91 e2 3f
       0.5091755494744789 0.580207271230417
000350 ef ff c2 ec 74 7b a6 3f 67 95 a0 a3 86 6b 80 3f
       0.04391065015943229 0.008017589443691532
000360 4f bb c1 ac 2a ee b6 3f 65 7f 2a 58 3e 5f e5 3f
       0.0895716354150242 0.6678764078132927
000370 e9 9b 68 2e a3 ef e5 3f 6c 48 d3 51 69 96 a1 bf
       0.6855026155870948 -0.034350672949259614
000380 c8 25 65 40 2e 92 e0 3f 58 43 9e eb 6a 49 df 3f
       0.5178443200795124 0.48885605821219746
000390 6b 2b de 89 a6 03 d9 3f 96 99 77 62 05 23 e3 3f
       0.3908478113523219 0.5980250285327198
0003a0 b3 ef 2c 4a ef f9 d1 3f c0 44 53 9a 26 21 e3 3f
       0.2808798050280032 0.5977967275777232
0003b0 46 90 d8 0f 18 ad d2 bf b8 67 82 5a 00 81 d5 3f
       -0.29181481883484073 0.3359986194496929
0003c0 e3 a3 8c bf 14 0a 93 bf eb f0 8d 31 a8 71 e5 3f
       -0.018593143645521237 0.6701241462574478
0003d0 04 07 7b e5 b2 83 e0 3f f9 0c 9d 41 55 a6 d7 3f
       0.5160765153925415 0.369527162624038
0003e0 05 eb 6c fd 1c 18 ef 3f 62 a9 01 91 f6 6d df 3f
       0.9716935109821355 0.49108661804952736
0003f0 e9 4e 9f 72 7d 60 e7 3f 7d 9f 90 72 34 82 df 3f
       0.7305285681454424 0.4923220747755222
000400 db a6 49 b5 53 07 c9 bf 2f 79 8f f4 ce 71 e1 3f
       -0.19553610183657252 0.5451426292964124
000410 e1 61 5e 9f fc 12 eb 3f 6e 01 c2 60 ea bb db 3f
       0.8460677254361678 0.43334445427901513
000420 10 5a f3 92 41 94 f5 bf 30 80 cd f2 2b ee df 3f
       -1.3486953487641848 0.49891184531407173
000430 dd 66 cf fa 34 ac e5 3f 87 c7 8b 94 96 73 c3 bf
       0.6772713564525606 -0.1519649720499354
000440 1d 96 73 47 0a f0 e7 3f 79 72 4a 85 bb 23 cf 3f
       0.7480517764603892 0.2432779694398908
000450 95 a9 21 30 42 9a c8 3f 24 13 d7 20 7d 99 e4 3f
       0.19220759725733375 0.6437364236267951
000460 3c 87 89 59 de 64 b0 bf 5d a3 d3 fa 10 a3 ea 3f
       -0.06403913198439865 0.8324055575331887
000470 a9 d0 72 6a bb a1 ec 3f fa 1a d0 80 a5 25 e8 3f
       0.8947426871368594 0.7545955196263485
000480 e2 4c be 7a 4c ab e5 3f 07 56 48 28 33 19 ed 3f
       0.6771604916888487 0.9093261515396883
000490 46 8d 13 c0 fe 88 c7 3f 46 94 00 97 6c 47 94 3f
       0.18386825922707767 0.019803711620756802
0004a0 f2 bc a8 f6 58 f3 e8 3f 34 0e 7d e4 b7 4b c5 3f
       0.7797055070458596 0.1663732400576109
0004b0 25 e6 a3 67 6e ee db 3f 61 03 30 6c 90 10 f2 3f
       0.43642768975368745 1.1290439821315987
0004c0 89 8c 7f b3 28 f1 df 3f 2f 17 d6 9f ba 59 e6 bf
       0.49909417657017535 -0.6984532472422184
0004d0 bd 4f d1 0b 1f bf d8 bf a8 fb 4a a1 b8 b4 ca 3f
       -0.3866651168257212 0.20864017367963794
0004e0 f0 d5 96 ca 84 b6 e4 3f 80 29 e8 03 11 65 f0 3f
       0.6472801167316771 1.0246744301426531
0004f0 66 91 12 82 65 ac d7 3f a5 bc cc d0 00 c1 c3 bf
       0.3698972482909738 -0.154327489808087
000500 c5 36 16 22 cb 85 d4 3f c9 64 ab b5 db f2 d7 3f
       0.320666106498589 0.37419789067423587
000510 58 e3 44 3d c8 93 d9 3f 1f 65 d4 fa dd 74 d3 3f
       0.39964490874586067 0.3040080022343136
000520 01 2f df 0b 16 17 f7 bf 45 21 6f 7f 63 a5 e8 3f
       -1.4431362594359032 0.7701890458056729
000530 c2 88 26 d8 cb e4 ee 3f fd 0b 3b 57 10 91 dc 3f
       0.9654292318048407 0.44635399359339073
000540 c7 ab 44 e2 2c c0 ee 3f e2 0b f4 f9 39 40 f6 3f
       0.960958902292412 1.3906802905846622
000550 89 1e d5 14 71 00 8e 3f af 01 79 85 a3 e4 d6 3f
       0.014649280021912918 0.35770500215951534
000560 55 ec bf b3 1c 50 c4 3f 3f 88 e4 f9 3f e2 e0 3f
       0.15869482781258407 0.5276183968273996
000570 f2 e4 cd b7 16 4b d9 3f ed 5a 4b 4e 44 aa d3 3f
       0.39520805310856055 0.30726726194318027
000580 08 87 45 65 70 d6 e7 3f 0f 89 b8 60 b6 c0 d8 3f
       0.7449266412697577 0.38676223225969947
000590 9a 99 4e 16 a6 ce cf 3f e9 b8 74 72 47 41 a6 bf
       0.24849392022333633 -0.043466789933846624
0005a0 ab e6 d3 3b f5 ef e0 3f 05 d8 ef 83 f9 3f b2 3f
       0.5292917412291066 0.07128867598643758
0005b0 a0 78 9b c0 69 64 da 3f 51 db 82 25 89 1a e1 3f
       0.4123787289553409 0.5344892246856522
0005c0 61 09 a3 77 8a 67 84 bf 80 eb 41 be 1c 3a bb bf
       -0.009963113571193007 -0.10635547299345482
0005d0 94 34 86 bc 0e 3d c4 3f d4 f2 23 e5 a2 c7 ea 3f
       0.1581133289841189 0.8368696666144282
0005e0 28 a1 1c 5d cf bb e2 3f 91 c5 d6 a9 b6 12 f6 3f
       0.5854260271635541 1.3795687326749866
0005f0 c2 0f d5 72 f6 d4 d6 3f 46 5c cd 08 3d 69 aa bf
       0.3567482110413459 -0.05158415539215659
000600 2f d6 b7 56 82 fa c2 bf b3 61 ad 5f a8 6f ea 3f
       -0.14826993212015924 0.8261300915428847
000610 4a 28 de 54 89 a3 b8 3f 3b 67 11 bc 14 eb f0 3f
       0.09624536821334675 1.0573928209691548
000620 98 61 75 4c 1b a9 b8 bf 52 a2 b3 cd 23 91 f1 3f
       -0.09633036247885796 1.097934535524605
000630 1f bd 41 b4 b3 c4 e4 3f 80 e3 e9 d0 17 37 e1 3f
       0.6490114708557576 0.5379752235740938
000640 2a 4c 58 72 eb 24 e2 3f 18 ca 28 8d 73 93 f1 3f
       0.5670068009661737 1.098498870280883
000650 b9 5d ed 06 3d 75 d4 bf cb 02 ef f8 d3 63 e4 3f
       -0.3196556632660435 0.6371860372529111
000660 26 64 6a 43 e9 23 dc 3f f1 51 54 e0 bc df c7 3f
       0.4396918447833421 0.18651543572981624
000670 d2 21 d0 4b c2 79 ec 3f a9 ba 5f aa f0 f6 e3 3f
       0.889863155433938 0.6238940551391653
000680 cd 93 8a 71 a5 5b ee 3f 1d 07 28 1e c6 9a df 3f
       0.9486872880557883 0.4938216490264596
000690 4b c9 66 49 f7 a5 cb 3f a6 96 ad 6d 5d 96 d6 bf
       0.2160023792653852 -0.35292754851102826
0006a0 87 01 bd 52 62 c3 f0 3f 0c 6f 7b 76 04 0b e2 3f
       1.047701190182211 0.5638449014763594
0006b0 3e ac 07 88 34 b2 e0 3f 4c 6b 35 14 0b c0 dc 3f
       0.521753564532794 0.44922139142515927
0006c0 e2 a1 90 f6 c2 2a c4 bf 08 1d a9 8d d2 ea 98 3f
       -0.15755497969918425 0.024333276649739083
0006d0 4d 9f dc 39 b7 39 dc bf 0d 2c be f2 8c dc ef 3f
       -0.4410226883942315 0.9956726780959585
0006e0 fa 2b a2 10 e8 92 e8 3f 17 76 b0 d3 e9 25 ee 3f
       0.7679329228279805 0.9421280989224127
0006f0 ce 11 83 18 0c 2d ed 3f e6 33 a4 ca 5c a2 e2 3f
       0.9117489317655385 0.5823196370926069
000700 90 c6 5a 91 0b c9 d3 3f 38 5f 54 89 d9 58 b2 bf
       0.30914582438263327 -0.07166823961995028
000710 84 f8 4c 9c fd ca f0 3f 02 21 d3 84 be 04 ed 3f
       1.0495582681174094 0.9068291277153835
000720 e0 18 1b 55 62 72 e9 3f 5e 90 7c c3 0c af d9 3f
       0.7952129041884994 0.4013091954277622
000730 35 4e 0f 67 df 90 e2 3f e5 22 6a 5f 9d 9d d9 bf
       0.5801846516500918 -0.40024504010993517
000740 47 1c 85 16 78 49 f1 3f 75 32 80 cc b4 d0 da 3f
       1.0804367904363674 0.4189884183004218
000750 d1 d3 e2 2c b5 c9 d5 3f ec 23 80 a5 23 7b 71 3f
       0.34043626197245397 0.0042678253594283615
000760 63 0e 30 31 2b 6d a4 bf b8 b5 d6 7e e1 1c f0 3f
       -0.03989539122997312 1.0070509867322084
000770 67 76 6f 6a 14 9c d9 3f 99 54 31 19 42 72 e9 3f
       0.4001513518722732 0.7951975338024965
000780 fd 7d 81 2c 4e 4b ba 3f 75 13 59 43 fd ed eb 3f
       0.10271156870430072 0.8728014293088636
000790 ad 02 2e 35 f1 94 dd 3f 49 75 a5 6d 48 14 df 3f
       0.462215711530045 0.48561297137878917
0007a0 57 8f b6 a3 f8 80 d8 3f fc 8e 3f b5 33 96 e5 3f
       0.382871780277346 0.6745852031712896
0007b0 55 90 f3 ec 1c a3 db bf 38 86 6b da b7 bb cc 3f
       -0.4318306268671724 0.22447870411910897
0007c0 14 3b c5 37 58 f7 be 3f 1c 20 79 05 77 ad e2 3f
       0.12096167909224348 0.5836749178788554
0007d0 12 cc 2a a3 a8 62 cb 3f c9 82 b8 fa b5 bd 86 bf
       0.21394832579753192 -0.011104032243623678
0007e0 2a 8c 5e 3a ee 3c c1 3f 34 6f b1 03 42 6d eb 3f
       0.13467195367874868 0.8570871421938819
0007f0 25 cd ee 38 8d 74 d8 3f f5 e2 89 50 e9 96 c8 3f
       0.38211374816747173 0.1921054499869325

gnn.conv_layers.1.u.weight f8 [1, 32]
000000 00 00 00 c0 4a af d4 3f 00 00 00 00 fe 5f b1 3f
       0.32319897413253784 0.06787097454071045
000010 00 00 00 c0 70 3a d1 3f 00 00 00 80 01 28 dc 3f
       0.2691919207572937 0.43994176387786865
000020 00 00 00 80 a9 5d ca 3f 00 00 00 40 63 76 e5 3f
       0.20598334074020386 0.6707016229629517
000030 00 00 00 00 c3 2b b0 3f 00 00 00 00 82 83 b1 3f
       0.0631677508354187 0.0684128999710083
000040 00 00 00 00 24 34 96 3f 00 00 00 40 8e bd d8 3f
       0.02168327569961548 0.3865695595741272
000050 00 00 00 80 0c 30 dc 3f 00 00 00 00 d8 80 a6 3f
       0.44043266773223877 0.04395174980163574
000060 00 00 00 00 22 9c e0 3f 00 00 00 00 8c 32 eb 3f
       0.5190591812133789 0.8499202728271484
000070 00 00 00 00 44 af ad 3f 00 00 00 00 d7 60 ca 3f
       0.05797779560089111 0.20608031749725342
000080 00 00 00 00 a0 e9 d9 3f 00 00 00 c0 86 28 e6 3f
       0.40488433837890625 0.6924470663070679
000090 00 00 00 80 f9 02 e6 3f 00 00 00 00 cf af d7 3f
       0.6878631114959717 0.370105504989624
0000a0 00 00 00 60 ee a5 ef 3f 00 00 00 60 ff 96 e5 3f
       0.9890052676200867 0.6746823191642761
0000b0 00 00 00 c0 b2 49 e5 3f 00 00 00 a0 92 8b ef 3f
       0.6652463674545288 0.9857876896858215
0000c0 00 00 00 80 3e 72 c4 3f 00 00 00 40 09 04 d5 3f
       0.15973645448684692 0.3283713459968567
0000d0 00 00 00 80 14 3a ec 3f 00 00 00 80 91 8f d8 3f
       0.8820898532867432 0.3837627172470093
0000e0 00 00 00 20 63 a1 ef 3f 00 00 00 00 44 2a a7 3f
       0.9884505867958069 0.04524433612823486
0000f0 00 00 00 80 51 83 e2 3f 00 00 00 00 83 dd d9 3f
       0.5785300731658936 0.4041450023651123

gnn.conv_layers.2.c f8 [1]
000000 00 00 00 c0 c8 c1 c4 bf
       -0.16216382384300232

gnn.conv_layers.2.bias f8 [128]
000000 81 59 73 cc 51 cd f2 3f 9a 9a 79 bd cd 17 e5 3f
       1.1751268373824078 0.6591557217296498
000010 0f 84 59 4b 35 fb e7 3f 96 3d 51 e8 87 3d fe 3f
       0.7494150611565845 1.89002218960727
000020 45 29 c0 dd 4a 41 d3 3f fd 90 bb 74 83 7c dd bf
       0.3008601346524709 -0.4607247009246434
000030 3e 04 db 44 83 d7 ac bf cf 9d 51 05 42 b6 c0 bf
       -0.05633173194429063 -0.13056206950862623
000040 2f 12 53 3b bd 76 f9 3f 44 f7 04 a1 a7 66 a6 3f
       1.591489059196771 0.04375194397515128
000050 a6 34 37 42 8f e8 c2 bf 1d ef bc 15 22 6e d5 3f
       -0.14772215588746923 0.33484699366430154
000060 71 08 73 fc a4 e1 f9 3f 40 c8 29 e1 09 00 fa 3f
       1.617588983659996 1.6250094218671762
000070 b9 23 e5 09 f9 73 f9 3f f0 32 41 65 65 72 f8 3f
       1.590813673641817 1.5279287295590471
000080 8f 81 fa 33 bd bd da bf a9 8e 4a a5 cb e1 ae 3f
       -0.41783075405148734 0.06031643288340877
000090 76 9f 39 70 82 17 d0 3f e9 9e 52 ec 16 40 da 3f
       0.25143490752679243 0.41016171530144035
0000a0 fe 24 b9 42 d3 09 e3 3f de 70 87 33 c2 41 d1 bf
       0.5949493697345642 -0.2696385863507781
0000b0 20 c8 11 f5 e3 b7 e5 bf 7d 6c 67 23 91 88 c1 bf
       -0.6786975656998528 -0.13698019245825668
0000c0 6c 0a 6c c2 b4 94 f6 3f e3 04 2a a3 13 48 dd bf
       1.4113051981554703 -0.45752421316144715
0000d0 64 58 55 0c f4 81 bb 3f 16 d5 8c 57 e3 08 e1 3f
       0.1074516801939765 0.5323349676097304
0000e0 61 a1 63 de 20 1a b9 3f 91 fd 3e 48 8b 1e 97 3f
       0.09805493764327401 0.02257745388464866
0000f0 b7 39 60 b0 84 58 fc 3f 8d 44 cd 17 08 48 da bf
       1.7716109170611227 -0.41064646076581185
000100 b0 6f da 13 39 a0 c7 3f 5d 64 22 53 48 95 c8 3f
       0.18457711667440213 0.19205574092191827
000110 2a 70 58 db 0a a8 79 3f ea ef 21 dc 5b fb bf bf
       0.006263773354955796 -0.12492918133096934
000120 55 06 12 c8 1b e9 d0 bf ad 6d 18 3b 30 d2 92 3f
       -0.26422781503797427 0.01837993012132493
000130 6e e4 44 4d ad 07 00 40 fe 26 3b dc df 27 d5 bf
       2.0037485157632124 -0.3305587435430509
000140 ab 4f cb 78 e5 ed d2 bf 1b 1f a4 22 dc c3 f0 3f
       -0.29577004238421506 1.0478173592727618
000150 d7 b6 96 40 66 3c a7 bf ae 18 8b ab af e1 fb 3f
       -0.04538268602787603 1.7425991726791312
000160 b4 23 81 4a 38 b4 ac bf a8 e3 31 05 e9 02 cf 3f
       -0.056062468619138356 0.24227631333976984
000170 0c 7c 55 40 96 8e b3 3f ee f3 33 b0 5e df e0 3f
       0.07639445372250026 0.5272668305839241
000180 98 60 06 09 27 31 a4 3f 27 e3 4e c6 20 ab d0 3f
       0.039437503673242336 0.2604448258021414
000190 d5 f9 c6 d1 03 15 e1 bf 37 be a1 12 7c 66 e9 3f
       -0.5338152978145511 0.7937603343870653
0001a0 26 ba be 0a e0 7b f4 3f 55 af cb 33 c7 7a dd 3f
       1.2802429599502232 0.46061878259819383
0001b0 99 2f ae 00 25 5b b1 3f f7 51 b9 7e 76 fb dc bf
       0.06779700533496537 -0.45284807563191926
0001c0 40 2d 7a c2 97 f8 f6 3f 0e b5 68 de 59 5d ff 3f
       1.435691604306001 1.9602907836772974
0001d0 1e 97 46 06 73 69 f9 3f 1d ed 9e 9f d0 89 b4 bf
       1.5882444615503526 -0.08022788903229068
0001e0 b8 2a 17 23 99 b2 cb bf f2 1c b4 ed 2a e9 e9 3f
       -0.21638788426783662 0.80971285273054
0001f0 74 99 24 40 1a 41 e5 3f 5d 6b 72 a8 f7 b7 fb 3f
       0.6641970875541987 1.7324139194449437
000200 06 a1 90 80 51 48 d5 3f a7 77 78 79 69 97 fc 3f
       0.332538962890354 1.78696582269138
000210 84 70 3d 60 87 8d c1 3f 64 e7 ef 46 07 1a bc bf
       0.13713161658495576 -0.10977216226447478
000220 1e de 9f 43 d2 05 c9 3f 74 61 82 65 0b cb fc 3f
       0.19549015333153447 1.7995714154440892
000230 f4 c1 46 01 0b 56 b4 bf f4 43 35 97 73 79 be 3f
       -0.07943791180765186 0.1190407032165835
000240 4d 64 07 0b e1 01 e1 3f ce 55 9d 16 ef ad e3 3f
       0.5314793792159748 0.6149821702662679
000250 37 36 83 03 25 98 eb 3f 6c 7b 36 ee 2b 00 ef 3f
       0.8623223370174803 0.9687709477037578
000260 16 c9 a4 1a b1 f1 c5 bf 9f bb a5 e9 19 9e b9 bf
       -0.17143834877931202 -0.10006868318826755
000270 02 de e0 95 3c 09 bb 3f df 53 c9 83 c1 45 e2 bf
       0.10560969027653047 -0.571015126605399
000280 b5 f9 19 76 40 e5 f0 3f f4 78 fa ff 6d f2 e9 3f
       1.0559696782434973 0.8108434676721843
000290 1b 1a 9c a5 9c bb c0 bf dc 75 11 8e ea de e2 3f
       -0.13072546087660517 0.5897114538926718
0002a0 a6 cd 28 29 f9 14 e7 3f ce b7 1f 84 d5 05 b7 bf
       0.7213102153677269 -0.08993277049714196
0002b0 20 f3 53 85 3f a3 bd bf 9e a5 df 90 60 0c c4 bf
       -0.11577221875263577 -0.15662772249133367
0002c0 5d 76 db 87 6a e6 bb 3f 90 1c 12 64 42 32 c6 bf
       0.10898462120845794 -0.17340879331843384
0002d0 98 52 e3 e2 9f f1 da 3f 9e 66 b0 6c 4c fe fc 3f
       0.42099759251622393 1.8120846028963693
0002e0 be 35 21 13 1f 20 f7 3f 4a e2 e2 c2 e1 93 e2 bf
       1.4453421351675924 -0.5805519873020526
0002f0 b9 23 64 fd f0 63 f8 3f a5 a0 40 de 2b 00 b6 3f
       1.5243997476666051 0.08594011474690662
000300 bb 7e 25 81 bb ee a4 bf 5e 61 2e 5c 6e c9 f2 3f
       -0.040883883967351285 1.174177513201435
000310 ef 14 d1 4c ad 27 e1 3f 3d 20 cd ee b0 41 f1 3f
       0.5360933780981706 1.0785378769087537
000320 bf bd d2 ae 50 e9 c8 bf f8 cb 6d 66 ab cd c3 3f
       -0.19462021385468906 0.15471403600130862
000330 24 20 49 f3 5b fc cf 3f 60 d4 73 5e f2 7e d7 3f
       0.24988889102155654 0.3671232149493502
000340 df a7 98 94 fc 50 be bf 57 5b 7b 25 24 7e f4 3f
       -0.11842325809325825 1.2807961906562093
000350 d0 1a 97 71 88 09 a5 3f 45 2b 6e 36 20 60 e7 3f
       0.04108835589027182 0.7304841101734857
000360 4e 75 2c ea 8b 25 ed 3f 9b 1d 6f 74 b0 2b c6 bf
       0.9108333181099313 -0.17320829091316345
000370 89 98 e2 31 c0 c2 cb 3f 2e 22 5d 07 fd dc c0 3f
       0.21688082156942226 0.13174403056679423
000380 af b3 ca 6d 16 aa c6 3f 4f 9a 87 69 b8 b9 fe 3f
       0.17706566201141302 1.92034188482798
000390 6e aa 6d a4 1a c6 cc 3f 75 35 61 38 30 3f d5 3f
       0.22479565647821026 0.33198171144325467
0003a0 0e 6a 85 ac 71 c8 dc 3f 95 19 49 27 60 bd c7 bf
       0.4497341332222796 -0.18546678465118008
0003b0 b8 56 02 f8 4f dd cd 3f 77 18 ef 6d 26 08 ca 3f
       0.23331641778775292 0.20337372176999555
0003c0 53 e4 d7 e6 ff 26 a6 bf a4 ec e6 46 27 28 d6 3f
       -0.04326629345809665 0.3462007706072632
0003d0 ab 14 ab 9a 3c 88 e9 3f 17 2c c4 f8 49 78 c4 bf
       0.7978804608216213 -0.15992092749397166
0003e0 0e d7 21 d5 4a 97 8c bf 48 f9 2f 30 df 7a 01 40
       -0.013960442189481916 2.184996010269206
0003f0 ac 45 dc 9e 9a 42 d6 bf 2c f0 d5 63 51 12 df 3f
       -0.34781518472399386 0.48549303769664465
