runs/weight_prediction_5k/model_best.ckpt (torch, 132267 bytes, 20 tensors)

input_encoder.0.weight f8 [16, 3]
0	0xbfc8cdb7e0000000	-0.19377802312374115
1	0xbfca79b0c0000000	-0.2068386971950531
2	0xbfd47496e0000000	-0.31961604952812195
3	0xbfb32a61e5e29a7a	-0.07486545431548022
4	0xbfdf79208a8251ed	-0.491768012297398
5	0x3fdc7ad537fa2e53	0.44499712435274325
6	0xbfc4a488057042bf	-0.16127109780838642
7	0x3fd48cc8c5e5e07b	0.3210927898976547
8	0x3fcab3c73f6482ff	0.20861139865248643
9	0xbfa9133260000000	-0.04897458478808403
10	0x3fc08f3400000000	0.12937021255493164
11	0xbfe14f4000000000	-0.540924072265625
12	0xbfdfe1dd8393fb77	-0.49816072320384513
13	0x3fd27ff5bbb18ecb	0.2890600521989028
14	0xbfd6c87363824200	-0.35598454206140673
15	0x3fe0e4bacab3ebb6	0.5279211005248416
16	0xbfd2aff0bcfdd5e4	-0.2919885488148266
17	0x3fa2486e2120f06c	0.03570884851839726
18	0x3fde3545d391cf84	0.47200151120272715
19	0x3fd3b8584d521f81	0.30812652159556114
20	0xbfcdb29038f4bc67	-0.2320118215661495
21	0x3fc618c500000000	0.1726309061050415
22	0x3fc283cde0000000	0.14464734494686127
23	0xbfcda3d240000000	-0.23156192898750305
24	0x3fd2aab07e459268	0.29166805583216737
25	0xbfdae6311ba9544c	-0.42029979420960184
26	0x3fcd58c3fbfed133	0.22927141003095527
27	0xbfd7e97fbd109a5e	-0.37362664664616385
28	0x3fe2122220b03336	0.5647135389750477
29	0x3fd03de17a377e92	0.25377690253478946
30	0x3fcb052a59271911	0.2110951361957594
31	0xbfd3d3267fd0ebdd	-0.30976259691277425
32	0xbf83d8233566e742	-0.009689593379210163
33	0x3fd40eb367cb2d15	0.3133972657785347
34	0xbfb72d330afad301	-0.0905334379011258
35	0x3fc569bb9a6a2d91	0.1672892097452459
36	0xbf98a63d60000000	-0.024071654304862022
37	0x3fc6164c40000000	0.17255547642707825
38	0x3fbcfc2680000000	0.11322250962257385
39	0x3fcd8b8e0f4bb9be	0.2308213782011545
40	0x3fe23e8eff5fad4f	0.5701365459221196
41	0xbfd649814e362e96	-0.3482363952432278
42	0x3fde32af0a67f0a3	0.4718434907552
43	0xbfc3dcee4aace6bc	-0.155179773771854
44	0x3f78d6ee5c9f420b	0.0060643492706309405
45	0xbfd5d46c557533af	-0.3410902819203398
46	0x3fe152e9f3c32dbd	0.5413713227257443
47	0xbfc4b57c44fb42b2	-0.16178849571453707

input_encoder.0.bias f8 [16]
0	0xbfd1e429e0000000	-0.2795509994029999
1	0x3f88bd3f324dafc0	0.012079709742202627
2	0xbf910fb858dd1cfe	-0.016661529945193536
3	0xbfc18e53a0000000	-0.13715596497058868
4	0xbfb49ed6a48a9607	-0.08054868237612577
5	0x3fb9e287e84df5e9	0.10111283704278375
6	0xbfbb2d9be6a26937	-0.10616468792651267
7	0xbfdbb22b00000000	-0.43274950981140137
8	0x3fd000784655499f	0.25002867573234683
9	0x3fb0d80ee3e32ebd	0.06579678596170431
10	0x3fb311fa5e98d1f7	0.07449307260032599
11	0x3fd492177e714c1d	0.321416734198637
12	0xbfe1d30440000000	-0.5570088624954224
13	0xbfc7c531d9552b1a	-0.1857054053492327
14	0x3fd322fe9d001f52	0.2990108998496811
15	0xbf9e702a3f1382f0	-0.029724750614039175

gnn.conv_layers.0.bias f8 [32]
0	0xbe8df6ae91fb4de9	-2.2324622594179003e-07
1	0xbe35983dd636a359	-5.027906399743681e-09
2	0xbe7274f03d5f682f	-6.875690358680486e-08
3	0xbe830834e078339e	-1.4179987338526772e-07
4	0x3e6c1d9edbcd23b2	5.236958198221741e-08
5	0x3e7328c60e5b68f7	7.13738504647555e-08
6	0x3e766dcf1ceb6052	8.355431833516358e-08
7	0xbe71780f577f91c7	-6.507703698106896e-08
8	0x3e86927371a16b5b	1.68175056827444e-07
9	0xbe5f870ac7c366ca	-2.9362280149674413e-08
10	0x3e6457fc42d85631	3.7893080989122605e-08
11	0xbe7048e7ad93b017	-6.066555204340533e-08
12	0xbe53f93616d0ee49	-1.8601754293364522e-08
13	0xbe57902f540fec8f	-2.194496074093851e-08
14	0x3e75195be768c9d1	7.860011828271884e-08
15	0x3e6afbd3cfe44a86	5.0261059302476833e-08
16	0x3e76df119659ddb9	8.520246338484571e-08
17	0xbe7ea90b9ae56d5d	-1.1421864229892442e-07
18	0xbe61e4a4f1c6ba79	-3.332857387586628e-08
19	0xbe902e2074a55a5e	-2.411035110635763e-07
20	0xbe9444200820792d	-3.01988627994775e-07
21	0xbe6970bc9a072989	-4.7386396365476094e-08
22	0xbe676d331122f037	-4.363536922197019e-08
23	0x3e70e58a13cde4fe	6.294488215192193e-08
24	0x3e65ade5d9e2a7d6	4.038082156269923e-08
25	0xbe72eddd3c4a499f	-7.051660506411614e-08
26	0xbe8f7645d94632ae	-2.3441019137946864e-07
27	0xbe77fc3eda4c2b5f	-8.935233226593215e-08
28	0xbe365cc957c7552d	-5.206662986571068e-09
29	0x3e6fc0ff27a0b0a6	5.914623542354563e-08
30	0xbe55a504b0961761	-2.0158107216022527e-08
31	0x3e6b12ddde764a16	5.0428692162326256e-08

gnn.conv_layers.0.lin.weight f8 [32, 16]
0	0x3fc1f2d300000000	0.14022290706634521
1	0xbfdaab49fc959b86	-0.4167046515125822
2	0x3fa186984fcf8f93	0.034230003111388595
3	0x3faddca880000000	0.05832411348819733
4	0xbfa6af230616acf0	-0.04430493783305589
5	0x3fb39d7cae9f3979	0.07662181151611049
6	0x3fb429af4a3690e1	0.07876105844349325
7	0xbfd26dca80000000	-0.28795111179351807
8	0xbfd09457af82dbb6	-0.2590541089988919
9	0x3fbb119f2d83a920	0.10573763714970541
10	0xbfd8d6e24c15aed1	-0.38811547689577447
11	0x3fca4ad88dc086f8	0.20540911599623946
12	0x3fc333f980000000	0.15002363920211792
13	0x3f931aeab2ac59e4	0.018657366900777364
14	0xbfd8fb4132485e76	-0.3903353682557972
15	0x3fc9e674640bd037	0.20234541783395496
16	0xbfd0423320000000	-0.25404050946235657
17	0xbf72c3fc66441034	-0.004581438003018735
18	0x3fd0dfd0969d4163	0.2636605711786812
19	0xbfada842c0000000	-0.05792435258626938
20	0xbfd4a833d99d3316	-0.3227662682664215
21	0x3f9868c960f4d0d8	0.02383722929262508
22	0xbfd81031504120cf	-0.3759883197531168
23	0x3fc10f09a0000000	0.13327141106128693
24	0x3fd13a3c1e6c6c05	0.2691793725113601
25	0xbfad74fadf79b529	-0.057533111362184926
26	0x3fc1277942354e59	0.13401714070151874
27	0xbfbe9aab09e92871	-0.11954754821741333
28	0x3fce08ef20000000	0.23464764654636383
29	0x3f925544192038ca	0.017903389009057226
30	0x3fb8266782de04dd	0.09433600373269564
31	0xbfd0307eb42784d6	-0.2529598960227991
32	0xbfc5027a60000000	-0.16413812339305878
33	0xbfc02003571c4345	-0.12597696069181033
34	0xbfd434e5a908f860	-0.3157285834057628
35	0x3fbe629560000000	0.11869176477193832
36	0xbfd8ee7029f7b08c	-0.3895531091536746
37	0x3fabefc820043d96	0.054563764484664976
38	0xbfc394c911e47807	-0.15297807096152402
39	0xbfcfe7ed60000000	-0.24926535785198212
40	0x3fa9eb0db4d1e3c6	0.05062144119523952
41	0xbfbb859fb1103f7a	-0.10750768730963314
42	0xbfd4f8980926d173	-0.32767296689714626
43	0x3fd10b5a08df8650	0.2663178526546277
44	0x3fbca2cb40000000	0.1118590384721756
45	0x3fa2f9fa5f895b19	0.037063430940795956
46	0xbfdac0427381ea1d	-0.417984593200943
47	0x3f92ca685600fe5b	0.018350248574505162
48	0xbf8babcba0000000	-0.013511267490684986
49	0xbfd40440af9bd836	-0.3127595629624723
50	0x3fd6800a364ce446	0.3515649347569404
51	0x3fc9622640000000	0.19830778241157532
52	0xbfbf4c15157ff8a7	-0.12225467467212302
53	0xbfa41390c94ef291	-0.03921177346589844
54	0xbfb4005e589be8d2	-0.07813062346750435
55	0x3fc7276060000000	0.18088917434215546
56	0xbfb9a529d0c393ab	-0.10017644259239826
57	0xbfd6430b09b9df98	-0.3478419871312268
58	0x3fccda34f6748000	0.22540914567889558
59	0x3fb075fdbb99e0bb	0.06430040197472213
60	0xbfc4b99740000000	-0.16191378235816956
61	0xbf7c2888ba378d02	-0.006874593821950771
62	0xbfc856b281b848bb	-0.19014579137780693
63	0x3f898b898a9f4815	0.012473177473939537
64	0xbfb0a60180000000	-0.06503304839134216
65	0xbfc41acf2d9ce4f3	-0.15706815459433407
66	0x3fbb8ca01fd9b4f2	0.10761452462766721
67	0xbfd16d12e0000000	-0.27228233218193054
68	0xbfbe5c5c25d4da09	-0.11859680102939064
69	0x3fc5bd4edf432903	0.16983972455484073
70	0xbfb1834397f49806	-0.06840918025827145
71	0x3fbfb39ba0000000	0.12383434921503067
72	0x3fc2fb450e12f304	0.14829314410408057
73	0xbfcc5bba22560a15	-0.22154928852621994
74	0x3fc28028c2013257	0.14453610871204844
75	0xbfd26abdcc24a6f6	-0.2877649777970953
76	0xbfbc7368e0000000	-0.11113601177930832
77	0x3fa55ce11a9757cc	0.04172423791503341
78	0xbfd0b4ebe8a3af32	-0.2610425731534064
79	0xbfce2e281f5b2a19	-0.2357835915666591
80	0xbfc9f60600000000	-0.2028205394744873
81	0x3fb2b41684015d45	0.07306042406832088
82	0xbfb353a12476d230	-0.07549483432996662
83	0x3fb5915da0000000	0.0842493548989296
84	0x3fd0f180161b3b7f	0.26474001082254256
85	0x3fad33ec262c5af9	0.05703676191312996
86	0xbfbb7c7be9707a1e	-0.1073682255668946
87	0x3fa5ab47c0000000	0.04232238978147507
88	0xbfcbc66ea1000518	-0.21699316846210404
89	0x3fd4e784aee1761e	0.32663075521654317
90	0x3fd233aa41499631	0.2844033849308714
91	0x3fd37d7c9ab50473	0.3045341025172725
92	0xbfc1a3a400000000	-0.13780641555786133
93	0x3fd3c034f9bcc0ff	0.308606380352117
94	0xbfb401888ef0ed83	-0.07814839830182589
95	0xbfa141a226c6dd10	-0.03370386813497295
96	0x3fd257ca60000000	0.2866083085536957
97	0xbfbd8ce3a0373ac6	-0.11543104802624801
98	0x3fd4c495bd2fd5e2	0.3244985911872772
99	0x3fd59c1f40000000	0.3376539349555969
100	0x3fc855d7bd3dc2ef	0.19011971226020516
101	0x3fcc3e768bebfecf	0.22065622169610896
102	0xbfb0ee96805bb3d9	-0.06614056237931666
103	0x3fbc9f0d20000000	0.11180192977190018
104	0x3f619816ccef875a	0.002147717029843327
105	0x3fcca88d286498c8	0.22389378044426267
106	0x3fce996f0fab7c94	0.23905742898111682
107	0x3fc9c3abe0f5b5a5	0.2012839172779596
108	0x3fd69353c0000000	0.35274213552474976
109	0xbfd0909d867d7cc6	-0.25882661947066443
110	0xbfd50a889d67a625	-0.3287679230839749
111	0x3fb704a97f06cf7d	0.0899148879169029
112	0x3fc6682760000000	0.17505352199077606
113	0x3fd1e7db20d6f217	0.2797763653468634
114	0xbfcad445aa093f89	-0.2096030311827202
115	0xbfb8fd14e0000000	-0.09761171787977219
116	0x3fd4932b52c08397	0.3214824970364644
117	0x3fcd65d5e93179f3	0.22967027555837624
118	0x3fbaf0774046f30b	0.10523171729341756
119	0x3fc5562000000000	0.16669082641601562
120	0x3fd71f80d0f1f664	0.36129780201722483
121	0x3fc05da7a2bdff3e	0.12785811849971113
122	0xbf836fad4e319e24	-0.009490350674425115
123	0x3fd6e721d4c8ef78	0.357857187078245
124	0x3fb7da8860000000	0.09317829459905624
125	0x3fa9afd7ecf42a9b	0.05016970412733209
126	0x3fc6a3eec8d7a7e3	0.17687783056982118
127	0x3fd9a03e92f71976	0.4004055438239428
128	0xbfc7103ce0000000	-0.1801830381155014
129	0xbfcbbc3a7bca39db	-0.21668177647047923
130	0x3fd435c05b5f92ff	0.3157807247464887
131	0x3fb8b97ca0000000	0.09658030420541763
132	0xbfac05dd94acb3d0	-0.05473225059390752
133	0xbf63c3865d43a14a	-0.0024125694563858257
134	0x3fe09e9ce668402d	0.5193619251385876
135	0x3fc0f5ab80000000	0.13249725103378296
136	0xbfb8f79ebea1adfe	-0.0975283828171811
137	0x3f82b98ea700c93c	0.009142984839944128
138	0x3fc21a030c10c0fa	0.1414188202775291
139	0xbfac7cad2de4a91c	-0.05563870606632035
140	0x3fbdfd0940000000	0.11714227497577667
141	0xbf9c315f7e441074	-0.02753209312597034
142	0x3fc090884221a661	0.1294107745082327
143	0x3fd0daa8225388c3	0.26334575035265234
144	0xbf8fd41fc0000000	-0.015541313216090202
145	0x3fc8ed5978d38848	0.1947433319065246
146	0x3fda6479e78344b4	0.4123825798861376
147	0x3f9ecb33c0000000	0.030072029680013657
148	0xbfc5707ffa313dc1	-0.16749572483466404
149	0xbfccd7c9a657accc	-0.22533531782332827
150	0xbfcf420edfb7165e	-0.24420343326180477
151	0x3fc3ee5720000000	0.1557110697031021
152	0x3fcc3870aa8de5d1	0.22047241523595898
153	0xbfaf078833351b29	-0.060604339838894745
154	0xbfc7d52306f40635	-0.18619191970360452
155	0x3fbb7e45ed388bda	0.1073955253746556
156	0x3fb42bc4c0000000	0.07879285514354706
157	0xbfcfa97d7daf8a71	-0.2473599303912866
158	0x3fd775b3ffc1e653	0.3665590283995687
159	0x3f9d395b5d96d621	0.028539111697417966
160	0xbfcbc9b2e0000000	-0.2170928567647934
161	0x3fa932fb88034c7d	0.04921709094346569
162	0x3fa43956b95cce61	0.03949996006704449
163	0x3fc4d934c0000000	0.1628786027431488
164	0xbfc7380cc1443176	-0.18139800488314578
165	0xbfd0da821331b97f	-0.26333667635380914
166	0xbfd0252b26d73e24	-0.2522685889534577
167	0xbfd19ccc20000000	-0.2751951515674591
168	0x3fd44130db808d92	0.31647893367536384
169	0x3fd0464a89adadfb	0.254290232135389
170	0xbfb709f0ab9c48f6	-0.08999542417248904
171	0x3fd0897d552c0ae4	0.25839169805128237
172	0xbf8d9f7480000000	-0.014464292675256729
173	0x3fd77e367d0d536a	0.3670784207545724
174	0x3fcc9d83fe4f6318	0.2235569946049274
175	0x3fd3ff3d99138e9a	0.3124536509405772
176	0xbfc9f00fa0000000	-0.20263858139514923
177	0xbfcda1e5a34c5dae	-0.2315032050471308
178	0xbfb714fb95d2ee28	-0.09016392143069452
179	0xbfbe45dce0000000	-0.11825352162122726
180	0x3fd1a3aa55761647	0.2756143412192142
181	0x3fd41b23d02a048d	0.31415648773697386
182	0x3fba32cb5949eed3	0.10233755998518328
183	0xbfc1786300000000	-0.13648641109466553
184	0xbfd39f8d1f76fdb8	-0.3066132361672902
185	0xbfc9f84f96b3a003	-0.20289034708480366
186	0xbfd0ea34494f5950	-0.26429469260383076
187	0x3fcbcb40b95a480e	0.21714028406546543
188	0xbfc2e360e0000000	-0.14756403863430023
189	0xbfd7bed5d78ede98	-0.3710226635989584
190	0x3fb6bebcdf0e4553	0.08884792752930552
191	0xbfc279373533b63f	-0.14432420823816192
192	0xbfba392440000000	-0.10243441164493561
193	0xbfc0c03f0a760cfd	-0.1308668900565876
194	0x3fcb5b41a8cc1f1f	0.21372242681558704
195	0x3fc85330e0000000	0.1900387853384018
196	0xbfd219400421d5f8	-0.2827911415436968
197	0x3fd835d30c87aee0	0.3782851812709236
198	0x3f7fefde7b5bbbd9	0.007797116346167387
199	0x3fd104e3e0000000	0.26592347025871277
200	0xbfcf0bc92ce288e6	-0.24254717532773568
201	0xbfbf20ca7ce5110b	-0.12159410046757928
202	0xbfa78f47d60aa255	-0.04601501930057298
203	0xbfd2bc8f185c3098	-0.2927587259189379
204	0x3fb8943840000000	0.09601165354251862
205	0xbfcf946ae379db69	-0.24671684367396132
206	0x3fd2a05d7bd65329	0.29103791326024236
207	0x3fd6431c13782607	0.3478460493211916
208	0x3fc06c3060000000	0.12830166518688202
209	0xbfd69636798c8b00	-0.35291826124209535
210	0xbfbcf821c3f52887	-0.11316119226572328
211	0xbfa4db7500000000	-0.04073682427406311
212	0xbfc492d9bcc7aa81	-0.16073152272959493
213	0x3fb11461068d1d00	0.06671720895711886
214	0x3fb247ac08078706	0.07140612789183018
215	0xbf9cbae4c0000000	-0.028056692332029343
216	0xbfd061c0fd51f467	-0.2559664224461983
217	0xbfd3ab365ccea028	-0.30732497275539794
218	0x3f9f265c23ff087f	0.03041976899817955
219	0xbfb54222d7eac80b	-0.0830404069081682
220	0xbfcd679520000000	-0.22972358763217926
221	0x3fbd71da26cf033a	0.11501849601246486
222	0xbf7bd0ee7b7514b6	-0.006791049548444386
223	0xbfd975b2372001b8	-0.39780860312751143
224	0x3fd33f0d00000000	0.3007233142852783
225	0xbfb14fbbc862d6a8	-0.06762288706053232
226	0xbfd078ce61b93d88	-0.25737342398948515
227	0x3fcacc4fa0000000	0.20936007797718048
228	0x3f8be1f6d3cf9d91	0.013614586199721031
229	0x3f8d8058cc554d84	0.014404958472971748
230	0xbfd9861710cc9ea6	-0.39880921021038274
231	0x3f551f6c20000000	0.0012892299564555287
232	0xbf46c189e7947e84	-0.0006944583284713289
233	0xbfba4c81a7d49eb4	-0.10272989604402022
234	0xbfb4915e5b0254c2	-0.08034314844038007
235	0x3fd835765b3fbc2d	0.3782630816558051
236	0xbfc97c1940000000	-0.19909968972206116
237	0x3fb9d1d6a26bd8c0	0.10085813012469469
238	0x3fd86da235abfc65	0.381691505826842
239	0x3fd2b5e20485eb8f	0.2923512500926159
240	0x3fbff9bb00000000	0.1249043345451355
241	0xbfcbbb308751b1d7	-0.216650072168149
242	0x3fd1cac107600827	0.27800012321688644
243	0xbfd1ec3320000000	-0.28004148602485657
244	0x3fb4a407ac04afc5	0.08062789868989657
245	0xbfd5f76c68debc8c	-0.34322653046815144
246	0xbfb53e1826fac4bf	-0.08297873450898673
247	0xbfbeaa4a80000000	-0.11978593468666077
248	0x3fc51747bcd84b39	0.16477295609419132
249	0xbfd464c7abfb3fd2	-0.3186511210924411
250	0x3fc695b721457f19	0.17644394993384863
251	0xbfa5476f5479b1e0	-0.04156062990373122
252	0x3fd3c92480000000	0.3091517686843872
253	0xbfb4b1f90feea0f5	-0.0808406509301028
254	0xbfa5a079bfcd70b4	-0.04223995653475879
255	0xbfd658c967ceb521	-0.34916911256262223

gnn.conv_layers.1.bias f8 [64]
0	0x3e5601d70f063aaa	2.049579078812939e-08
1	0x3e426c85f2c31247	8.579305786959802e-09
2	0x3e6db2d89250ff03	5.5317985116642007e-08
3	0xbe65087bc13cc820	-3.917727311868776e-08
4	0x3e6cede044e1132c	5.388484024306792e-08
5	0x3e807a5d49406594	1.2277056227263381e-07
6	0x3e5924d4f3757b94	2.3417057818326642e-08
7	0x3e837f93fcccd8ea	1.4527404204053733e-07
8	0x3e7733a288c5d349	8.643306354477858e-08
9	0x3e7b2b875d2a8acc	1.0121626496188538e-07
10	0x3e55aedcd2d44fa2	2.0193920470775734e-08
11	0x3e4290d2f64b77fc	8.64533662144894e-09
12	0x3e85bfdaa018a13f	1.6204587898025943e-07
13	0x3e7177b6275aa3a2	6.507196722661742e-08
14	0x3e72091285a01c9a	6.718724546171649e-08
15	0xbe58ecc5d358c113	-2.3213116059722432e-08
16	0x3e6567cfb30f8075	3.987087494167805e-08
17	0x3e522dcc4f8aa5bc	1.693041881920495e-08
18	0x3e4a05667298b7f2	1.2117016351302822e-08
19	0x3e72911c5821f57f	6.916686426553569e-08
20	0x3e842eb9324c5d7b	1.5037144254139774e-07
21	0x3e70542b03988f73	6.082945072004328e-08
22	0x3e5dd9463d413a4c	2.7798794225142076e-08
23	0x3e7908516f03d4b1	9.325330175057637e-08
24	0x3e831688908e6ef4	1.4221684121745982e-07
25	0x3e76a86d556087f7	8.440732321470238e-08
26	0xbe529b26b06d3825	-1.7328242864302787e-08
27	0xbe4675a93062cc00	-1.0458572241187772e-08
28	0x3e80c32553b132e3	1.2488878006963532e-07
29	0x3e90df529df8313e	2.5141767243175417e-07
30	0x3e533104e4791efd	1.7873459405466868e-08
31	0x3e7fdad00b9d085c	1.1866814278192113e-07
32	0x3e577adb20a5924f	2.1867366620063263e-08
33	0x3e820ea1749e4b16	1.345362597408398e-07
34	0x3e8da3acec770b95	2.2083042082289083e-07
35	0x3e8f36791e636185	2.3255337495174135e-07
36	0x3e459cc0bd148bf1	1.00640188704998e-08
37	0x3e82696cd24e85ce	1.3717872451600908e-07
38	0x3e806254b52b844c	1.2207109508554634e-07
39	0x3e3a9bcb78897ed9	6.1952912874403936e-09
40	0xbe70ee7c402506fb	-6.307506342665143e-08
41	0x3e4ca3fe14461f9b	1.3336816658657817e-08
42	0x3e60d2574a82d3bb	3.133275444778186e-08
43	0x3e8550642b4be2f4	1.5880188688318943e-07
44	0x3e913ab81421a3e9	2.5673763926495436e-07
45	0x3e669741319a93df	4.2078715801065906e-08
46	0x3e5a4f3689e4342f	2.4502562306428847e-08
47	0x3e46c1be4dfe23ce	1.059696547158578e-08
48	0xbe49b1f8c91d6628	-1.1965261035163933e-08
49	0x3e81677f7cc4e863	1.2967205832178183e-07
50	0xbe5895d38214e2b5	-2.2896806344351554e-08
51	0x3e91dcbb1b2c8c66	2.661679687090566e-07
52	0xbe531a8100472d86	-1.7791549582370968e-08
53	0x3e8d466e1fba0303	2.1811662508435623e-07
54	0x3e7e2e12df8f2742	1.1242916987601443e-07
55	0xbe2d1b6174d13e6f	-3.3884956286517256e-09
56	0x3e7b18ce276137a2	1.0094380251229998e-07
57	0x3e787ab2cdeb9cca	9.119246467300916e-08
58	0x3e56c646ead79e2b	2.1210424241538806e-08
59	0x3e4b6b70b7879550	1.2768287525322721e-08
60	0x3e430639854fb394	8.858887104760513e-09
61	0xbe5bd7e224c3fbdc	-2.5931088652206936e-08
62	0xbe6a73c772739bff	-4.9271177632492676e-08
63	0xbe6373bfb08bc761	-3.623244110806512e-08

gnn.conv_layers.1.lin.weight f8 [64, 32]
0	0x3f9eb929d07255bd	0.030003217074939793
1	0x3fc6a9abdd9bedce	0.17705295868641574
2	0xbfd19c8eb24412d0	-0.2751805058363006
3	0xbfcdf852de0abdda	-0.23414073793308782
4	0xbfc5de5dfc9b5802	-0.17084860643689131
5	0x3fc40cf772fde642	0.1566457091792462
6	0xbfc23cb5f2ddf438	-0.14247774466267216
7	0x3fbb29cb0276e536	0.10610646066824789
8	0xbfa3858661c81951	-0.03812808936713686
9	0x3faa946f55e120ea	0.05191371844608901
10	0xbfbb510643b614d4	-0.10670508530718631
11	0x3f8f1c690e619739	0.015190907241229833
12	0x3fc299aaff3bebba	0.1453145738849722
13	0xbfb3e34f16dd837c	-0.07768720920786437
14	0x3fa6de5e3010ab96	0.044665282599758147
15	0xbfc5b2464a8edf57	-0.16950300827533724
16	0x3fcd60ca6fd5f433	0.22951631985407203
17	0xbfc30f2e9174e9e4	-0.14890081503274566
18	0xbfc99b48c721c921	-0.2000514004062746
19	0x3f98a9a0d73af299	0.02408458055173188
20	0x3fa71c787d5d5498	0.045139088919918524
21	0x3fc58b7d596efc0d	0.16831938616630318
22	0xbfc8c4bc240c3571	-0.1935038734449495
23	0x3f9e0606586d1d36	0.02931985773764475
24	0x3fa1d78825148ba8	0.03484750225677341
25	0x3f9755010b02199c	0.022785202309501082
26	0xbfcc387d6291f7d0	-0.22047393143651428
27	0xbfc6f2e316a5dff9	-0.17928732496125102
28	0x3fc08db07040fbff	0.12932401162285598
29	0x3fc2f2c266d46135	0.1480334283921906
30	0x3fb6eeacdda86f4a	0.0895793954045391
31	0x3fc75265ca062ceb	0.18220207561930776
32	0xbfa14eb24a29147b	-0.03380353122023735
33	0xbfc1db0b77229307	-0.13949721638814358
34	0x3fc07f9855a65446	0.12889389211764718
35	0xbfcb4c5d2bae7c29	-0.21326794274224994
36	0x3fa1f60b544d1d19	0.03508029369418803
37	0xbfbae3567cc40084	-0.10503140016590079
38	0xbfcd33e52cc84242	-0.22814621626504744
39	0x3fad9241aaba1b75	0.05775647362775419
40	0x3fc688bb440075eb	0.1760477144279514
41	0xbfc7778685a9bf2f	-0.18333512808339367
42	0x3eed922138238c94	1.4100465481842088e-05
43	0xbfc4a29750f89253	-0.16121188596402422
44	0xbfd0eca2154d27c0	-0.26444294052327777
45	0xbfc338d227e601e7	-0.15017153690497695
46	0xbfb8243a468feda3	-0.09430278990469403
47	0x3fc034b1f17a9fff	0.12660812655417428
48	0x3fc6d947f20fc326	0.1785058910313861
49	0x3fbed4db617ad148	0.12043543939473011
50	0x3fb6b76830367c9e	0.08873606850692048
51	0x3fa1a8440d40fcb8	0.034486891382124296
52	0x3fc859aca182c6b3	0.19023664366027546
53	0x3fc00023705a1a00	0.12500422464309224
54	0xbfbb9e262c00ac94	-0.1078819138935379
55	0xbfcbfd34d3407ff5	-0.21866474452053777
56	0xbfae8f27277e740e	-0.05968592030624374
57	0x3fc75b22689d5bac	0.1824687014402263
58	0xbfd301eb13e83aed	-0.29699208206231625
59	0xbfc6daf2e9e0ba4c	-0.17855678958717858
60	0xbfb60e87078b78d2	-0.08615917143058319
61	0x3fa050dd4d0b165b	0.031866946844769393
62	0xbf9b12fd4244e979	-0.02643962590193769
63	0xbfc6573450d52c8d	-0.17453626582059592
64	0x3fac0976960ce239	0.05475969869298009
65	0xbfb4a5f77aa703ad	-0.08065745109980922
66	0xbf9fba6e1c3699a9	-0.030984611961366735
67	0x3fc0c69c563235d2	0.13106111725612252
68	0xbfcd95a5b760b744	-0.23112937406534162
69	0xbf8a5bfac75b602d	-0.012870749672785642
70	0xbfc8c2bdfc572624	-0.19344305821714258
71	0xbfc1b7c62cd76186	-0.13842084111707836
72	0xbfb75825b5d4b25a	-0.0911887711451497
73	0xbfbff60ef06ebca7	-0.12484830255447098
74	0xbfc6fcfb8ca4b96c	-0.17959541671138923
75	0x3f9b73127739569d	0.02680615284619724
76	0x3fb0af08a7c14479	0.06517080398158893
77	0xbfd05e0269a6ef76	-0.25573787992083596
78	0xbfb8bdb29a053fb2	-0.09664455662027541
79	0xbfd8aff34d85ce8e	-0.3857391602570964
80	0x3fb8cc0fcdfa1116	0.09686373499613796
81	0x3f905edec9ff824b	0.01598690135858964
82	0x3facf71ac1d8709f	0.056572757876183426
83	0x3fb3dda7616b5b95	0.07760091904070372
84	0xbfc86ee15eb8ed9e	-0.19088379979244235
85	0xbfa69c88664a8adf	-0.04416300057098054
86	0xbfc1b66a44b98bc2	-0.138379367405916
87	0x3fb41ff0d2ee89b7	0.07861237668706776
88	0xbfc54f7ae76e89dc	-0.16648803997402595
89	0xbfd201e1637956bd	-0.2813647719789108
90	0xbfcd64bcbe0bbae9	-0.2296367576559171
91	0x3fc89078aef0ca7c	0.19190891782780628
92	0x3fc458508be577de	0.15894514876248328
93	0xbfbc43f7e012a72e	-0.11041211338547605
94	0x3fbb7986cfcbd8e0	0.10732309888030356
95	0x3fc4836f558c07e7	0.16026107480143922
96	0x3fbef74d70740dc3	0.12096103663866757
97	0x3fcc824a245dd63f	0.22272612357817143
98	0x3fa2bd63ea931360	0.03660118330439022
99	0xbf926841ac607a81	-0.017975832124756955
100	0x3fb93e62d718d0fb	0.0986081862582217
101	0xbf968b16188de9fd	-0.022014947174719513
102	0xbfbbd2d4099153a0	-0.108685734115467
103	0x3fc3bed4d44ce26a	0.15426121107317964
104	0x3fbd278ace210917	0.11388461620757472
105	0xbfd025a3592e7167	-0.25229724606631126
106	0xbfb3495b45dda0d5	-0.07533808189112119
107	0x3fcb30eb13b5e834	0.21243036711149588
108	0x3fc254a79f5d1615	0.14320845872332258
109	0xbfb761847d7a58e4	-0.09133174956727746
110	0x3fbeed80f0e2ccdc	0.12081151848797184
111	0xbfa0723bee876ea7	-0.03212153708201742
112	0x3fbe522f285339fe	0.11844153151034928
113	0xbfb7f675ea03ad01	-0.09360444033852745
114	0x3fc18f4835576aa4	0.1371851215797807
115	0x3fb337ae75d5c701	0.0750683820422431
116	0xbfd28d14c607aa20	-0.2898609098325853
117	0xbfb653cb2f72409c	-0.08721609028202909
118	0xbfc7befb91870137	-0.1855158291418861
119	0x3fb26f23f889cb4f	0.07200836961582734
120	0x3fb7b12296780c4f	0.0925466172557645
121	0xbf91ddd00c5b490b	-0.017447710756479256
122	0xbfb1ec8a190a99a8	-0.07001555549013594
123	0x3f8e467825cf115e	0.01478284707435112
124	0x3f9ab2ed1d195de7	0.026073174382274102
125	0xbfc632fe102b0cb4	-0.1734311655946833
126	0xbfd4f8adc127a26c	-0.3276781450536308
127	0x3fa583915432f8f7	0.04201940682240662
128	0x3fc1babba3487105	0.13851113770295612
129	0xbfc9f4e79eb59f10	-0.20278640031323691
130	0xbfc3c72022bb66a8	-0.15451432891750483
131	0x3fa265efe2832aad	0.03593396797221735
132	0xbfcde120c72a6b7b	-0.23343286251914805
133	0xbfc789cec7ad54a6	-0.18389305829865527
134	0x3fc335ac7fa35dec	0.15007549507457385
135	0xbfc89af1dd718f04	-0.19222853958773822
136	0x3faf26d83ebf0e69	0.06084323659845554
137	0xbfd3842df208cc39	-0.30494259487312864
138	0xbfd13dda47242563	-0.2694001860368955
139	0xbfc866995d8f75e9	-0.19063107555750428
140	0xbfcf06d377bf3de5	-0.24239581439040517
141	0xbfc3ec3eff983fa4	-0.155647158434019
142	0xbfb184d5ca54bd43	-0.06843315305444712
143	0xbf9ae0fdb408786b	-0.02624889766058695
144	0x3f886bccee025290	0.011924363149128397
145	0xbf967f2796274cc6	-0.021969431438105834
146	0x3faf442cdf019ee1	0.0610670110916638
147	0xbfc0dcd045ede2a8	-0.13173869528306636
148	0x3faa2ed8afc3733e	0.05113865991163501
149	0x3fc1509e07074145	0.13527274459057473
150	0x3fbeb5fc59461929	0.1199643819764772
151	0xbfd2146f9cd0f3ad	-0.28249731363376435
152	0xbfb24d7d3a6c1498	-0.07149489094088535
153	0x3fbf903beb422174	0.1232945870743885
154	0x3fc0a3630acd3e40	0.12998617198398854
155	0xbfc9cd2e9a413302	-0.20157415897337932
156	0x3fbf5ef46946bbe1	0.12254264421674989
157	0xbfbe66c24b5d28dd	-0.11875547733248788
158	0x3fa5cf5314f16295	0.042597385698802594
159	0x3fb4cb506e93b7cd	0.08122732829698905
160	0x3fc1814d263d9a39	0.1367584645006035
161	0xbfc19ed183a43c53	-0.13765925338563764
162	0x3fb992e1de73db01	0.0998974960419723
163	0x3f7c4631a37d4a0b	0.0069028796204571126
164	0xbfd25761fa117d85	-0.2865834180901959
165	0x3f9d669c1de2ee12	0.028711737941860056
166	0x3fa9d95980befdb5	0.05048637100798762
167	0xbfcbcab63d409051	-0.21712377539472752
168	0x3fbfb5e2120e7f20	0.12386906567416789
169	0x3fc7e280ac29929d	0.18659981161467423
170	0xbfb6d99e5bcebe79	-0.08925809613605819
171	0x3fbbc2726586c610	0.10843577364610035
172	0x3fc12ea2ed209687	0.13423573091965954
173	0x3fc61f0ae706f3b4	0.17282234459517343
174	0xbfb551338ae93310	-0.08327028409366855
175	0xbfd489ddc2dcb5c8	-0.3209146883917495
176	0x3fb071ec5e08d09b	0.06423833175432707
177	0x3fa9e45eab7451c1	0.05057044833134539
178	0xbfa06567f95dd24c	-0.03202366751694238
179	0xbf39b6b09c2afc6c	-0.0003923588921387947
180	0xbfa909beca004b9d	-0.04890247550806424
181	0xbfaa182201b46c05	-0.05096536894617291
182	0xbfbee59e5d7fde8c	-0.12069120199873334
183	0x3fc1be0d98ef9393	0.13861246078081688
184	0xbfc7c8128391a624	-0.18579322265877452
185	0x3fc5229cd4619854	0.16511879320313716
186	0xbfc83c9aa3f10e69	-0.1893494892593595
187	0x3fc216500b47e07c	0.14130592871493153
188	0xbfc4ef8ddf79f04e	-0.16356061374597392
189	0xbfd0a6aea19ab178	-0.2601734712759689
190	0xbfc7ea26170b6f85	-0.18683315396526382
191	0xbfc0fc413789de6d	-0.13269820415347358
192	0xbfc97372ea7976f7	-0.19883572052906803
193	0x3fac7f31b1bc1ee0	0.05565791411032506
194	0xbfb108949f36abda	-0.06653717886972235
195	0x3faf6614851a99e1	0.06132568478396983
196	0x3fb7128ae7a4be59	0.09012668757781607
197	0x3fbdd0f2bbcec9f7	0.11646954617643944
198	0xbfaa00e1bd2a9777	-0.0507879775444015
199	0xbf9706b3ddcaea69	-0.02248650590147819
200	0xbf68d6024055ae1a	-0.003031734845242229
201	0xbfd22b9f285ce2dc	-0.28391245786364805
202	0xbfd1744e1030df3c	-0.27272368985312645
203	0x3fb893e3f1be146e	0.09600662853161321
204	0xbfd1ab6dd5b6d00b	-0.2760881983806491
205	0xbfc985f13d438901	-0.19940009585759103
206	0xbfc21eb81f1dc67c	-0.14156247634268826
207	0xbfc508422912e813	-0.16431452756461393
208	0x3fd1087c2ced327c	0.2661428869949203
209	0xbfbe633e19e01fb2	-0.11870182162976908
210	0x3fb1831a583da746	0.06840672163312175
211	0xbfc7dda19b02b6de	-0.18645114964367954
212	0xbfc41ef2a1e61b79	-0.1571944513818513
213	0xbfa7511737d9d541	-0.04554054791234786
214	0xbfaf044ee2f856bb	-0.06057974358206538
215	0x3fa86c9d9de373e5	0.047703671954628914
216	0xbf9fc0ef8fa84abe	-0.031009429114486002
217	0xbfc2b342bfc4d11a	-0.1460956035967989
218	0xbfc475faf0b2f78e	-0.15985047104726074
219	0x3fc38c61b3706fe4	0.1527216077964787
220	0xbfc5195f47ef4bae	-0.16483679783285993
221	0x3fc77ebc6db91844	0.18355517728395132
222	0xbfb4f0ae020f7525	-0.0817974810629108
223	0xbfb5c0b7439b6bb2	-0.08497186089100131
224	0x3fbd756b8f7688e2	0.11507293941989219
225	0x3fc899016eb07b76	0.19216936020617553
226	0xbf877f94a88da1fb	-0.011473809617840827
227	0xbfc6d5ecb94c91ac	-0.1784034638195754
228	0xbfb78dab0d8b29f8	-0.09200543480543633
229	0x3fc864518f765a4a	0.1905614805698
230	0xbfbe38e7c0b0e349	-0.11805580572480524
231	0x3fc0399d2a7327eb	0.12675823757882596
232	0x3fd2b61ff4283872	0.29236601680248164
233	0xbfa79ae3d3d88262	-0.046103591547084447
234	0xbfd186741d7f35de	-0.27383139496381925
235	0x3fa1da08fac88d60	0.03486660062142266
236	0xbfb379a5e475d350	-0.0760749514354988
237	0x3f9a2c1b89945aa6	0.025558882019221095
238	0xbfbf9a38ef8ab37e	-0.12344699714840421
239	0xbfc8c787a6e2afb8	-0.1935891690130782
240	0x3fbd1dda95906f42	0.11373678351850194
241	0x3fc6bc54b5187022	0.17762240259696777
242	0xbfb9178da9391170	-0.09801564580363276
243	0xbfb2cffea1a30e20	-0.0734862465497419
244	0xbfcc87ff9212f6fc	-0.22290033943675513
245	0x3fcce96f85e8eb6d	0.2258738902908947
246	0xbfb4dcff3455ec0d	-0.08149714496350687
247	0xbfb26beef32fad2b	-0.07195943295635192
248	0x3fb804125209189c	0.09381212714024162
249	0x3fc9e83f1503fa49	0.20240009809636408
250	0xbfcf8d074d0702b3	-0.24649134884932308
251	0xbfd1693a0d60e04f	-0.27204753214346494
252	0xbfb1804be89f29b2	-0.06836389950982527
253	0x3f6b5dac38284909	0.0033405650767771617
254	0xbfa3ac986c009497	-0.038426173385496636
255	0xbfa94e0575c70b21	-0.049423380496156584

gnn.conv_layers.2.bias f8 [128]
0	0xbfb05506864e415b	-0.06379738596866018
1	0x3fab6bb45ab6dbb8	0.053556095193406816
2	0xbfb20e0e7e5c2a8d	-0.07052698693238764
3	0x3fa768053a07e8f4	0.045715487798547644
4	0xbfac30afce781868	-0.05505895038008718
5	0x3fb3c370ea378c8b	0.07720094412029448
6	0x3fb3112562e6f6bc	0.07448037781338263
7	0x3fb3bacbddb99fa3	0.07706903613291032
8	0xbfb0e31691543038	-0.06596509025638475
9	0xbfb1fee35901c106	-0.07029553339976155
10	0x3fb37cf48ef0c848	0.07612541665801686
11	0x3fb17ed9d04a0068	0.06834184012586919
12	0xbfaa8fb14d6e194e	-0.05187753744307831
13	0xbfb192f2c1ba713a	-0.06864850263304315
14	0xbfaac68dd7769397	-0.05229609732786072
15	0xbfb3340ea7ef4b89	-0.07501308059663193
16	0xbfa8223d7f796c67	-0.04713623219569101
17	0x3fb13a3aa4b9568e	0.06729475518781156
18	0x3fb2131de9bd5e0e	0.0706041999486546
19	0xbfa7c8734dd53733	-0.046451190234263605
20	0x3fb3c4ef2f8c1118	0.07722372923678156
21	0xbfb1d4393b99bc11	-0.06964452462283101
22	0x3fb284b3f4568394	0.07233738627702585
23	0xbfb22016a2d0f1e5	-0.07080213046078361
24	0xbfb370e90f2441b4	-0.07594162578266755
25	0x3fb2ce54d83989b1	0.07346086768078554
26	0x3fabe22c21fccfc7	0.0544599334229186
27	0xbfb2ac69ec6af079	-0.07294332525174409
28	0xbfb2a8229ac166e8	-0.07287803915223956
29	0xbfa65cf0aadb3bf7	-0.043677826744548946
30	0xbfa4ca7dd13f72a9	-0.040607387345265984
31	0x3fb2b437a93c9e3a	0.07306239969022324
32	0x3fb26e819edf7a52	0.07199869278654461
33	0x3fab6900705df56e	0.05353547450702477
34	0xbfacdf0fede06781	-0.056389329707783105
35	0x3fb352c789ba51d9	0.07548186409469028
36	0x3fb2757847467d8a	0.07210494747277188
37	0x3fb1b2d766d863b6	0.06913515339728246
38	0x3fb016c5e5c5bd06	0.06284748897245515
39	0xbfb204ef0e04351b	-0.07038778392980698
40	0xbfad7af857f1659f	-0.057578812346672274
41	0x3fb1db0add5013be	0.06974857237953722
42	0xbfb2eeeb29f3c5c6	-0.07395810865616345
43	0xbfb3eff2d77d3767	-0.0778800750824452
44	0x3faca5fcf2d3048a	0.055953888551365585
45	0x3fa472a58784b38e	0.03993718413617052
46	0x3fb1cca738bacfa2	0.06952901015284721
47	0xbfb30d80d174cbc4	-0.07442479242017358
48	0x3fb48ea2b339517c	0.08030144572814452
49	0xbfb3648b21044201	-0.07575292163915749
50	0xbfb38ffd4c795aee	-0.0764158546165665
51	0x3fb20b03343d1de6	0.0704805376564007
52	0x3fae97a20ebb87cb	0.059750618265539034
53	0x3fb168abfd1875f0	0.06800341538515631
54	0xbfb14a2dfc415c75	-0.06753814133240772
55	0xbfb3f03fc21bbe4d	-0.07788465966199816
56	0xbfb24b1df79dafd8	-0.07145869536697036
57	0xbfb2d1c199f5df22	-0.07351312645721156
58	0xbfb07a90e80b8294	-0.06437020936165033
59	0x3fb1c609ff05b27d	0.0694280860531737
60	0xbfb0a6fe48108b84	-0.06504811534300187
61	0xbfb47b6a4e41b7b9	-0.08000816736759377
62	0x3fa8a6b44817bd10	0.04814685230291549
63	0xbfa2b89096fc00b9	-0.03656436770506972
64	0xbfad2f134be70330	-0.05699978162329555
65	0xbfb2d4b12924ebb6	-0.07355792288301086
66	0x3fb39a66d38e7484	0.0765747324462201
67	0xbfac0de4c6ab48c4	-0.05479350018653542
68	0x3fb07d800e5bc24c	0.06441498137042706
69	0x3fb2e00518350627	0.0737307724093844
70	0x3fa4f2528e690bf4	0.040911273845743695
71	0x3fb139edacac89a5	0.06729016748116708
72	0x3fb32bd80cb0094e	0.07488775548703083
73	0xbfb08298930096e5	-0.06449273671077156
74	0x3fa7775d26eac831	0.04583254909574953
75	0x3fb1b4b2e800cfc3	0.06916349567546747
76	0xbfb2649492165b9b	-0.07184723440728506
77	0xbfb2b2615ba1608d	-0.07303436743802845
78	0xbfb0df22de9fda82	-0.06590478835264871
79	0xbfb25625f2fe16aa	-0.07162701780733963
80	0x3fb27ba44e96ff03	0.07219912451455106
81	0xbfb142cb1a4acbaf	-0.06742543594263738
82	0x3fb2c1afb7f2da27	0.07326791993077873
83	0x3fb189ef7db721e5	0.06851097888205222
84	0xbfb3bdbd2dedc444	-0.07711393710430153
85	0x3fb276f92c6618a6	0.07212788900332842
86	0xbfb10d3e6bd1d61c	-0.06660833484951251
87	0xbfb37f4eeb64f65f	-0.076161320180256
88	0x3fb2566b8982901e	0.07163116557291047
89	0x3fb369fadf8ecb38	0.07583587606386011
90	0xbfaf5ae98ecec769	-0.06124048107393671
91	0x3fb1ed5c6d806df8	0.070028092130478
92	0x3fb10f11e7505014	0.06663619897182144
93	0xbfa522002dd3e396	-0.04127502974910795
94	0xbfaa54f5a3f79385	-0.051429439797892086
95	0xbfaaa13a12f7f080	-0.05201131326245534
96	0xbfb3b3e86899288c	-0.07696392587345907
97	0x3fb254f122f22d11	0.07160861113714058
98	0x3fb1c4b282e8c261	0.06940761276269704
99	0x3fa8678af903ab39	0.04766496934629178
100	0x3fae268ecb6a94a6	0.058887922602744155
101	0xbfb1d0c40a48011d	-0.06959176302916999
102	0x3fb0dd4adc813103	0.06587665446676642
103	0xbfb1cbf63b351e7f	-0.06951846070762178
104	0x3faf146bffa5158c	0.06070268150009914
105	0xbfb3101a37486288	-0.07446445321728323
106	0xbfade0a1aef4baae	-0.05835442791646038
107	0x3fb2ab864599eda3	0.07292975615739876
108	0xbfad30f6f7d19d62	-0.05701419615871363
109	0xbfb17905e374adf9	-0.06825291445846195
110	0x3fb10e37e1d8da6a	0.06662320388645929
111	0xbfa6aa4fe0e2cb89	-0.04426812763394767
112	0xbfae952c2d4bc959	-0.05973184636049451
113	0x3fb1f7f723f8c1d9	0.07018990162101292
114	0xbfadb0213211f895	-0.05798438774307716
115	0x3fa78e26e3fd7048	0.04600640805321682
116	0xbfb28bb76b26a4f0	-0.07244440427770704
117	0xbfb3e4c0448a9d36	-0.07770921395659944
118	0x3fb3e8c95e228024	0.07777079151355842
119	0xbfb2eac28a081f84	-0.07389465207972817
120	0x3fa95610a7f7e4a4	0.04948474932093319
121	0xbfb3703fbc990532	-0.075931533378953
122	0x3fb07ee28f0fbc04	0.06443611138068667
123	0x3fb235f2544fa142	0.0711356597745452
124	0xbfac3a897efab9e2	-0.055134102583327196
125	0xbfb1ade2ea3efb36	-0.0690595456971835
126	0x3fb138f599eed4e9	0.0672753811657746
127	0xbfb26d44d3d143de	-0.07197981044124854

gnn.conv_layers.2.lin.weight f8 [128, 64]
0	0x3f9839ffef271e28	0.023658751460770372
1	0xbfaa13fbde1f817a	-0.05093371473754167
2	0xbfc1e0c7a31c8e2d	-0.13967223610335236
3	0xbf89b1b1beba79d5	-0.012545956261701111
4	0xbfc40a549f6379e6	-0.15656526358266304
5	0xbfa92aba74e79e41	-0.0491541164117817
6	0xbfbdb4502956f840	-0.11603261002798693
7	0xbfc11705449faf2b	-0.13351503229875425
8	0xbfc5ff62f4e3addb	-0.171856278967751
9	0xbf9c80e080a26488	-0.027835376597611844
10	0xbfb12e3e65c74835	-0.06711187348199206
11	0x3fae813c044a2ca2	0.05957973053326639
12	0xbfbcb511743ac2ed	-0.11213788116107155
13	0xbfcba511ee07779d	-0.21597503778951657
14	0xbfc596c2eae941c9	-0.16866337270995604
15	0xbfc7320ea998dd03	-0.18121512681111804
16	0x3fb99b2a2e530732	0.1000238764854913
17	0xbfbc6444e21a5a2c	-0.11090498466578741
18	0x3fb9a6844eced982	0.10019709514640421
19	0x3fa59d07fc264275	0.042213677911722515
20	0xbfbc83e88e2adb01	-0.11138776274570363
21	0xbfb6457eba11187e	-0.08699790995260234
22	0xbfc607eeea29e0c1	-0.17211710389870485
23	0x3f74f1c2c10e74ad	0.005113373525913162
24	0xbf784c42e4c670e3	-0.005932103446323308
25	0xbfb5c041cdc5a9c7	-0.08496485971196598
26	0xbf89feb5dce50dce	-0.012692852786705535
27	0xbfcba7756894a231	-0.2160479317328892
28	0x3f8ac49cf2505588	0.013070322174864271
29	0x3fa1435c4bff5e09	0.03371704509453017
30	0xbfc11701bd9b3122	-0.13351461179844032
31	0xbf9d57cab75ccee8	-0.028655211869774627
32	0xbfb5d62f16331844	-0.08529943744642404
33	0xbfc5a8869b231a6c	-0.1692054994111517
34	0xbfb1c206c8c0d291	-0.06936685944749345
35	0x3faa30e8f5546506	0.051154403636426024
36	0x3fa21dd1f2fe4732	0.035383759414925456
37	0xbfcc0a7696c95bdc	-0.21906931269287966
38	0xbfb42e154c6b6de1	-0.0788281737872505
39	0xbfbe0416a9b67914	-0.11724988597277203
40	0xbfc1e990ab11ebe3	-0.13994034150149934
41	0xbfc6bc6c60e0372e	-0.17762522440210077
42	0xbfadd3888dc31043	-0.058254496865203474
43	0xbfbf90cce6399375	-0.12330322857594729
44	0x3fad2abf59634312	0.05696676221999132
45	0xbfc6dd18dd86a5c4	-0.17862234894464113
46	0x3fb48623b944cd82	0.08017180703318696
47	0xbfaf01a2113bc5f0	-0.06055933437700023
48	0xbfcc05c427114927	-0.21892597110360976
49	0xbfb28c62edd1df28	-0.07245462709567774
50	0x3fb0d870aab65f45	0.06580261390479077
51	0xbfc74b0bbcda6ac0	-0.18197771760318027
52	0xbfb7d10db4a4c406	-0.09303365383381398
53	0xbf8762faa35f4613	-0.01141925631592059
54	0xbfc236d280eaa106	-0.1422980432009881
55	0xbfc547626e255050	-0.16624098184786584
56	0xbfbb90977b739bdc	-0.10767504466967587
57	0x3f7e2460418e57c6	0.007358909607225022
58	0x3fab66d576f24609	0.05351893498403732
59	0xbfbf3f18739dc487	-0.122056511141425
60	0x3fa20056e856f37b	0.035158840047620786
61	0xbfc5f6a5dc9e652d	-0.1715895964851283
62	0x3fbaa89fa2513673	0.10413549149344607
63	0xbfb4940d8f88d650	-0.08038410906086679
64	0x3fa72f30c3c1ab69	0.04528190984350184
65	0x3fca5f6156f56f1b	0.206035773716274
66	0x3f93e94e0942deac	0.01944467479253713
67	0xbfa3f9ebc04869d7	-0.03901612016871397
68	0x3fb9ffd402de77ec	0.10155987806362504
69	0x3fc0edea844bdb22	0.13226062259465104
70	0x3fca44120601203d	0.2052023438757277
71	0xbfa4b9a63d04ecc9	-0.04047889227737184
72	0xbfa85497d27b5df2	-0.04752039379462393
73	0x3fa2d59235fe41ac	0.036785668459859394
74	0x3fcbab764653b88b	0.21617010530411948
75	0x3faac05fb8b9c3d9	0.0522489464755222
76	0x3fa92712fc113b62	0.04912623717301902
77	0xbfa24d939f2542ae	-0.03574811284727751
78	0xbfbd449d7b750084	-0.11432823433006162
79	0x3fc0e60bbb40f2d0	0.1320204414677364
80	0x3fbd9180a5e11a05	0.1155014424303787
81	0x3fcb0a377ec6f998	0.21124929132743087
82	0x3fa6feca6e5c3c29	0.04491264912768884
83	0xbfba8bda01fa73c3	-0.10369646595286412
84	0x3fb9edad337054f8	0.10128290658788675
85	0x3fc228925c9f301c	0.141863150811674
86	0x3fb64e60fd3079e1	0.08713346654301503
87	0xbfb89ebf380a3d9e	-0.096172286206857
88	0x3fc71fa8f08bd13e	0.18065368409555477
89	0x3fcbc6d5c4d8702e	0.21700546371073542
90	0x3fc40188ad56c29f	0.15629681075872257
91	0x3fb3b234b149c1b9	0.0769379551727586
92	0x3fc90f8919ecf87e	0.19578660741712278
93	0x3fb48c852bc67b55	0.08026916807874092
94	0xbfaf09000ba6d1c5	-0.060615540907210476
95	0x3fc85ec55e1697e4	0.19039218038704953
96	0x3fc0a23b04919f6b	0.12995088313186484
97	0x3fcb90237cbde341	0.21533626166253764
98	0xbfb0aa45feb061b6	-0.0650981661605162
99	0x3fc296b17acef4b9	0.14522379395012822
100	0x3fc49dd5753200d7	0.16106670591762537
101	0xbfbc2f55232804f9	-0.11009723766621339
102	0x3fb1ff2522e49e31	0.07029945470696287
103	0x3fbed92569773a93	0.12050088715407474
104	0xbfb6bed6e153104a	-0.08884947777829769
105	0x3fa6dcbe0a59bb87	0.04465288044308751
106	0x3fb914d3f5a7eac1	0.09797405955752493
107	0xbf8a054992a18496	-0.012705397403069345
108	0x3fce4f39193032cb	0.23679269533058397
109	0x3fb0772edb66b8b6	0.06431858879543281
110	0xbf6d6520f8620349	-0.0035882610273464716
111	0x3fc4fe3773d5e325	0.16400807529478204
112	0xbf906fee698cc9bf	-0.016051984016664408
113	0x3fb8a06474e58749	0.09619739393158712
114	0x3fca03572451e86e	0.20322694085536191
115	0xbf5bf6eb8feaef54	-0.0017068195735836138
116	0x3fc4cf58082a3a8e	0.16257763289145938
117	0x3fb289a308dda133	0.07241267172287706
118	0xbfaf8900eb7c0501	-0.06159212946477944
119	0x3fc1737b39234fd0	0.13633671083391485
120	0x3fb941f7c1eaa437	0.09866283878604142
121	0x3fa0f2a1592b78c1	0.0331011220311992
122	0x3fc4d51b82486ab5	0.16275352345913566
123	0xbf9885b31b2a059e	-0.023947523625343352
124	0xbfb6dfa1a17e465b	-0.08934984390932625
125	0x3fb9891ec1e06331	0.0997485373812992
126	0x3fb80c1269638678	0.09393420289009125
127	0xbfb95d8a5001a8f3	-0.09908356145175272
128	0x3fac33782b312d43	0.05508018042800213
129	0x3fb7341f3388a643	0.09063906677388282
130	0x3f746b436c2d321e	0.0049851068204813925
131	0xbfae67936c23ff97	-0.059383971167334675
132	0xbfc727fa8623daf7	-0.18090755033309566
133	0xbfb61642b668c8c6	-0.08627716973640806
134	0x3fb4dc67506cfe49	0.08148809159774219
135	0x3fb3ec77d0016190	0.07782696560150826
136	0xbfbe6a67b87873cd	-0.11881111386942607
137	0xbfca7c1e83865922	-0.20691281721219307
138	0xbfaa5a461b3e4d6a	-0.05146998484192518
139	0x3f9e27198bba48a4	0.02944602885561011
140	0xbfb90347d5f003cc	-0.09770630810818587
141	0xbf7a713509d7fb89	-0.006455619031384149
142	0xbfb673c8d2ca065d	-0.08770423074931828
143	0xbfb287c2b631fbca	-0.07238404224516085
144	0xbfb1ef99e161545f	-0.07006227257200369
145	0x3fb597d9fa6fa5f6	0.0843483196655582
146	0xbfc5e5949cff0b79	-0.17106874147256315
147	0x3f9f7f89bb9b4bd7	0.030759956431960802
148	0x3fb157f9f73ff0fc	0.06774866377230987
149	0x3fada5b08f7fc865	0.05790473701189639
150	0xbfc74dd6c25db27a	-0.18206295481231277
151	0xbfcdd27398fa7ea1	-0.23298497171071111
152	0x3fb769c5d35a3d66	0.09145771417592172
153	0xbfb7d8539fa6f27b	-0.09314463279492628
154	0x3f8f6f84150c2c1e	0.015349418537445255
155	0xbfcd75b0a7716bf1	-0.2301541154473337
156	0xbfc4c7f62fc6c648	-0.16235234577975377
157	0xbfcb03663696dce6	-0.21104123750203668
158	0xbfcd0666f9ff6f94	-0.22675788123057983
159	0xbfb80243038d2488	-0.09378451191618542
160	0xbfc4f5e7b36978fb	-0.16375442753173516
161	0xbfcf695fdc3eff55	-0.24540327314570712
162	0xbf95e2d31b689808	-0.02137307982243189
163	0xbfa4e8e36e484384	-0.04083929749697915
164	0xbfc5931ec2cf45d9	-0.16855225097837837
165	0xbfa666073c7f5c96	-0.0437471639012809
166	0x3f7d42ca5cbdf207	0.00714377448809645
167	0x3facaf03f420dfb9	0.056022761870223765
168	0x3f85657d3207e6c4	0.01044748124057849
169	0xbf89df781b78eaab	-0.012633264864338875
170	0xbfcb8b63b9eec74a	-0.2151913316607142
171	0xbfcebfe8f182ad18	-0.24023162643911955
172	0xbfb5050949b4bb3c	-0.0821080975481267
173	0xbfba5ba3c63fd9bf	-0.10296081152032509
174	0xbfb2b91380ee3ecf	-0.0731365384838185
175	0x3fb48dab1921d67b	0.0802866875036105
176	0x3fa5a5f04c064787	0.0422816365054493
177	0xbfca49373cc541c3	-0.2053593680125357
178	0xbfca8b669d005322	-0.20737917581632198
179	0xbfc4e5dfc861568e	-0.16326520237150927
180	0xbfcbf9028c0c410d	-0.2185366805865744
181	0x3f9cb9d7d002bb1e	0.028052684851611713
182	0xbfc0239ebf2adc9e	-0.12608703932139503
183	0xbfcae5fc96df3633	-0.21014363638680464
184	0xbfc772bc7b652832	-0.18318897271302742
185	0x3fa818cd37545c3e	0.04706422138604481
186	0xbf7afeba5b69b381	-0.006590583760595404
187	0x3f8c514031f6be80	0.013826848530555269
188	0xbfcf7c55e4c1a96e	-0.24598191900015415
189	0xbfb9dbb3d7ef0d08	-0.10100864431210621
190	0xbfb4981980feb402	-0.08044585608759294
191	0xbfbf3f55ab8ec007	-0.12206016004961394
192	0x3fbc340b1585efe7	0.11016911769360115
193	0xbfb7a36e9d343812	-0.09233752573001677
194	0x3fbb8a3853011e83	0.10757782007669374
195	0xbfbc989b82579073	-0.11170360500506309
196	0xbfc01f8df6697ab7	-0.12596296817624417
197	0x3fa55d99301e7f3c	0.04172972404853545
198	0x3fc46ffc94f001a0	0.15966756126728132
199	0xbf926e14667282c5	-0.017998045685660786
200	0x3fc60b6cce497d55	0.17222366402254843
201	0xbf9b7279e074d5b9	-0.02680387909386692
202	0x3fa52dc446883c06	0.04136479722011903
203	0x3fc4717a6df3b287	0.15971308106181345
204	0xbf8018ac8dc01595	-0.007859561992527722
205	0x3fc7c300ccc5adff	0.18563852308885484
206	0xbfb86c23fe13120c	-0.09540009453764514
207	0x3fb33b92ecfedac2	0.07512777601264545
208	0xbfa5eff5223d787b	-0.04284635584802828
209	0xbfb38d2393788a94	-0.07637235975611595
210	0xbfa0f72dced92fff	-0.033135825634047926
211	0x3fa06a472f3cf92a	0.0320608372844496
212	0x3fccd22232037dc0	0.22516276781150957
213	0xbfb7def97ac5f602	-0.09324607131380705
214	0x3fc78d1ba97dba07	0.1839937760918959
215	0x3fb677c16fc13f77	0.08776482561483855
216	0xbf9b64d58047fcc5	-0.026751838640845422
217	0x3fbc4358cb07f14b	0.1104026313477721
218	0x3fbef4b2905501df	0.1209212877629464
219	0x3fb3ccaff66de3bf	0.07734203115786807
220	0x3fbddfa6721be6ea	0.11669388090004032
221	0x3fc80f09ac576d90	0.18795891680825294
222	0x3fc5084cea78c68a	0.16431580971543652
223	0xbfbd9a70d29c769b	-0.11563782827257756
224	0x3fcccc7485e379bf	0.22498947656181476
225	0x3fa073ef627af06f	0.03213451459075222
226	0xbfbcf57185086b7a	-0.11312016961930552
227	0x3fc8d77e1c2b4720	0.19407631278459636
228	0xbfbc550c05f747b2	-0.11067271371510293
229	0xbfb146d3d0174e8e	-0.06748699026439395
230	0x3faed377e0745e7b	0.0602071248524085
231	0xbfa3ece5de96e450	-0.038916762754020895
232	0x3fb1cff998864fba	0.06957969640489994
233	0xbfb66ad3e15e3e89	-0.0875675606932821
234	0x3fc6d0edc83eafe2	0.17825100209790806
235	0x3fc303795ed4099b	0.14854352121626566
236	0x3fb815ead3870d32	0.09408443130728442
237	0xbf96fc84e871f53f	-0.022447659194303467
238	0x3fca581d3a126680	0.20581403098622175
239	0x3fbdd39ebc669d89	0.11651031589155116
240	0xbfbdf0339bff633c	-0.11694643553290701
241	0x3fc0f7e869da149b	0.13256554764317205
242	0x3fbc21255e14500d	0.10988076731547398
243	0x3fc148dd76b38a25	0.1350361661526033
244	0x3fcc139adffad6ec	0.21934829651370735
245	0xbf919a67a4234d12	-0.017190570252592137
246	0x3f7a23ab9ede30ec	0.006381674187547964
247	0xbfa2639e64cbe00c	-0.03591628055977489
248	0x3fc22962754a23ea	0.141887957830732
249	0xbf8e0284db03c256	-0.014653242048070652
250	0x3fcce79517b1e5bc	0.22581733376482116
251	0xbfb7c1520e033dd1	-0.0927935871325112
252	0x3fc99b51fd956365	0.20005249864586996
253	0xbf8f5a973d652b13	-0.015309506951458418
254	0x3fade89ae15249a8	0.05841526031976524
255	0x3fc0fc257819c9d4	0.13269489635747667

gnn.bn_layers.0.weight f8 [32]
0	0x3fed4d2eb0f15865	0.9156716781533417
1	0x3ff00ecfbc1b6544	1.0036160800867302
2	0x3fee6556bb35fb5b	0.9498704582655181
3	0x3fedd832c8240956	0.9326414021491398
4	0x3ff08604868833d6	1.0327191596181726
5	0x3feea30b747895f6	0.9574029230904546
6	0x3fee2b8e5840d1ff	0.9428168986983677
7	0x3ff0f9240332842e	1.0608253598113708
8	0x3ff0911ebea73b8e	1.035429711093204
9	0x3ff09868d7e417d2	1.0372093613855111
10	0x3ff0a79a9519923e	1.0409189056600918
11	0x3fee68ed403c5b63	0.9503084425549385
12	0x3fef01937ab92445	0.9689423939645471
13	0x3ff03277e168c3c7	1.0123213582084973
14	0x3fef0d198a71babc	0.9703490928639762
15	0x3ff05d1764ce824f	1.022727388168409
16	0x3fefe130158061ab	0.9962387485457403
17	0x3fed1a471bd9aa6b	0.9094577354383778
18	0x3feeb04c41c41cdf	0.9590207371228664
19	0x3fef9c14743d5c09	0.9878027220064506
20	0x3feeb1b96f7b1aca	0.9591948678360833
21	0x3fef4f1feb1c3385	0.9784087745662055
22	0x3ff0b8a0708cbd6c	1.045074882171174
23	0x3fecb95043629628	0.8976212802996928
24	0x3ff14774c1dd3be6	1.0799453327961088
25	0x3ff0916be1fb0115	1.0355032756197649
26	0x3ff0fca8d82d6a3f	1.0616844601087363
27	0x3ff01eff644b840e	1.0075677793286135
28	0x3ff0dd754cf2a400	1.054066944672968
29	0x3ff0521b943d1671	1.0200458326884496
30	0x3fefe26b161495d3	0.9963889533288984
31	0x3fee66c8929e0195	0.9500468124024787

gnn.bn_layers.0.bias f8 [32]
0	0x3f9460cdfadf63b5	0.019900530278252854
1	0x3fb2d7809585f2d9	0.07360080385656022
2	0x3f7983d0c9ad97c5	0.006229224755633871
3	0xbf66c128c4a16a6c	-0.002777652383014575
4	0x3f91ad15666202c5	0.01726182401080469
5	0x3f8d02041ed6c784	0.014164001647120512
6	0xbf8cba70863aba86	-0.014027480217319931
7	0x3fb05c23afcd6d7b	0.06390593568851514
8	0xbfae93c5b03cb4c9	-0.05972116257030675
9	0x3fa075d44a185fb9	0.03214896587832023
10	0x3fa8959907a4d585	0.04801634043034667
11	0x3f9b80f6a87e0ecb	0.026859144243202942
12	0x3f95383af6cf8aaa	0.020722314180498337
13	0x3fba988426008d45	0.1038897125986767
14	0x3faa9138842adc42	0.05188919652339809
15	0xbfad445101105078	-0.057161837940072624
16	0xbf93f5ca23eb44d7	-0.01949230045540137
17	0xbfb52a99ddeddfdc	-0.08268129032319343
18	0x3fbc27120de4eef9	0.10997116889205562
19	0xbfadca8cb8f483bd	-0.05818595655205836
20	0x3fb70a49f844240f	0.09000074683366698
21	0x3f61807dd2d886b0	0.0021364648334987954
22	0x3fa6b0a46982dfba	0.04431642330149495
23	0xbfa65ed59a7fa790	-0.043692278966616205
24	0x3fa9bbe254cfe198	0.05026156697562384
25	0x3fbe8f2649c01085	0.11937178898375762
26	0x3fa9b6b8b7832567	0.05022217979564907
27	0xbf6330d194db5fbb	-0.0023426144970066488
28	0x3fa1c10806eb7529	0.03467583736867603
29	0x3fa180520bbb1dad	0.0341821326560948
30	0x3fb72b474c31a490	0.09050412759974535
31	0x3fadb4f607b47184	0.05802124828389579

gnn.bn_layers.0.running_mean f8 [32]
0	0xbfc6f5417716d35c	-0.17935961069965856
1	0x3fb655128649cf5f	0.08723560122035455
2	0xbfc949c7f32b4308	-0.19756411908613125
3	0xbfcd5d32de857b61	-0.22940669884971057
4	0xbfd6784cf780e6f7	-0.35109256906763114
5	0x3fcf27d8c26798a0	0.24340352528014808
6	0x3fc67ad2601e76c5	0.17562322324095284
7	0x3fe500740894398f	0.6563053290899904
8	0x3fbfff76447e9b3f	0.12499179050665264
9	0x3fd8c7aa1e9c8bba	0.38718655576138483
10	0x3fe0d9fdf5c85593	0.5266103554192106
11	0xbfa924da1d271d43	-0.049109283503236976
12	0xbfb2a137a50b0027	-0.07277248172158633
13	0xbfd9675c7f2af04c	-0.39693367403720425
14	0x3fd55d422693f0cf	0.3338170410859335
15	0xbfc9a4be42bff73f	-0.20034006366034338
16	0x3fba1a30b4ab11d3	0.101962131603677
17	0x3f980aac54bb0141	0.0234782149043451
18	0xbfd4716aafbabeab	-0.31942240868645894
19	0x3fb522e94ec65a49	0.08256395505154858
20	0xbfc8ccbb4b39ceff	-0.19374791310439574
21	0xbfd00104a11387fb	-0.2500621388445549
22	0x3fce7012f80dc22c	0.2377952300262377
23	0x3fceb2720ee3a65a	0.2398207256986094
24	0xbfc49604ea24f12d	-0.1608282225878467
25	0xbfd8d03d026316db	-0.38770985825645504
26	0xbfc49d1806691cf7	-0.16104412377374164
27	0x3fd483e07d2de822	0.32054912781279843
28	0x3fd9cf30a0ed5278	0.40327087131053174
29	0x3fd5cd9896514c85	0.3406735866494233
30	0xbfbedc70e201d291	-0.12055116193534789
31	0xbf92c4d4f9af02eb	-0.018328979243736148
