runs/height_prediction_5k/model_best.ckpt (torch, 214187 bytes, 23 tensors)

gnn.conv_layers.0.lin_l.weight f8 [32, 3]
000000 e7 3b aa 55 eb 63 c2 3f 6a 2e 63 2a 8c bf 7a bf
       0.14367429430828269 -0.0065303302018936225
000010 06 56 79 96 ef 7f b8 bf 87 a8 9c 55 a5 dd ca 3f
       -0.09570214675598984 0.2098890941645701
000020 14 c4 05 17 34 e8 af 3f 16 37 ce ac d1 5a 73 3f
       0.062318446932188604 0.004725283663800336
000030 b1 86 38 71 b6 7e da 3f 6e 7a c2 33 f5 3c d2 3f
       0.4139839273139883 0.2849705701318389
000040 e5 d5 d7 fc 2c 82 c1 bf a1 7e 71 ba f9 9c b2 bf
       -0.13678514810423717 -0.07270775606002157
000050 5b b0 a0 70 83 73 d2 3f c1 15 1f 32 ea 60 e1 3f
       0.28830038069532343 0.54308042325345
000060 16 e9 30 05 da a3 d9 bf 8a 6e ec 40 b1 97 cb 3f
       -0.40062571055354235 0.2155667845735148
000070 4b 28 85 79 99 39 d2 bf 93 21 38 60 fd 03 c2 3f
       -0.28476559512330785 0.1407467574902169
000080 61 16 92 83 c4 59 da 3f 2e ec d7 74 f1 81 d7 3f
       0.4117289814824741 0.3673061028527539
000090 02 94 6b 3b 67 9a e1 3f ee 5d 11 01 60 e0 c4 3f
       0.5500980530310928 0.1630973820890484
0000a0 27 61 36 39 17 3c d3 3f ba 7e 95 bb a0 5b bc bf
       0.30054264628553756 -0.11077313022314686
0000b0 42 a7 4e e7 e8 ad d1 bf ff 54 bf c6 cd 91 e3 bf
       -0.2762396105632555 -0.6115483171257948
0000c0 4c e2 6d 26 3e 1d 9e 3f 65 8c 52 e0 91 ae 91 bf
       0.02940842732957298 -0.01726749354987724
0000d0 e2 e7 ab 89 58 aa 98 3f 39 10 92 8c c5 1f e1 3f
       0.024087317850877706 0.5351283784407378
0000e0 1b bc 51 cf 5b 0c c4 3f ec b0 68 48 9d 69 46 3f
       0.1566271555234103 0.0006839769346860514
0000f0 1e 91 bd 58 bc ba d6 bf ca 84 7a fa be 93 d8 bf
       -0.3551474444013979 -0.3840177007751434
000100 48 e2 60 8a 54 47 e1 bf 69 df 68 26 ff d4 ac bf
       -0.5399573042587429 -0.05631253570430667
000110 d6 78 09 a0 16 66 a2 bf 54 d1 f7 7b 7e 62 bc 3f
       -0.035935122524038896 0.11087790037692474
000120 15 af 15 22 c5 9c d2 bf a5 57 b1 7f 6f b5 b6 3f
       -0.29081848457893616 0.08870598666666625
000130 7b 28 42 89 f4 de e2 3f 70 82 20 11 e6 07 b9 3f
       0.5897162133053507 0.09777677457942402
000140 d9 b0 ba 95 ac bb dd bf a1 16 96 62 df 23 b6 bf
       -0.4645797216605963 -0.08648487240688009
000150 e3 f2 90 3d 57 31 ca 3f ba 5f 87 3b 88 bd de 3f
       0.20463076120531473 0.4803181248985272
000160 5b 5c 16 67 74 0e dc 3f 64 8a 40 cd bf 07 d9 bf
       0.43838224475024895 -0.3910979751982835
000170 fe 0b ac 72 d4 76 be 3f 3b 32 a8 a8 88 f6 d1 3f
       0.11900069999323645 0.2806722304383446
000180 04 39 40 18 2d 07 c8 bf c6 b6 1d c7 6a 0d d6 bf
       -0.18771899875759612 -0.34456891484192587
000190 9f 46 37 31 cc 52 d7 3f c5 8c cc 14 af e8 e0 3f
       0.3644285660385353 0.5284037977438848
0001a0 d7 f4 08 89 6a b8 dc bf 5b 7d 49 db 30 0a d7 3f
       -0.4487558687431607 0.3599969998812946
0001b0 91 ca 9b 52 7e f9 d1 bf fa db 87 75 27 63 d1 3f
       -0.28085287158243327 0.2716768882523294
0001c0 54 42 ce d0 09 0b e2 bf 3d e6 38 91 1c ca d3 bf
       -0.5638474539028473 -0.30921091253148686
0001d0 68 ef e3 17 d6 d7 cf 3f 17 91 c6 99 b5 fd c6 3f
       0.24877430120966015 0.17961759575440148
0001e0 16 f1 0f ff 0b 99 b1 bf b4 28 2c d6 d5 21 db bf
       -0.06874155976396809 -0.4239401427772791
0001f0 cc a3 58 d7 ad 54 da bf 6f a8 79 f1 2f f0 d5 3f
       -0.41141840009600794 0.3427848680645473
000200 b2 94 86 9e cd 79 d8 3f 58 e0 8c 8c 64 ee 96 bf
       0.38243427735353486 -0.022393771246442234
000210 9e e9 30 62 48 6b a9 bf f5 e3 f4 a9 70 b3 c3 bf
       -0.04964662741300006 -0.1539135770670154
000220 f5 ab c8 fe f0 c5 cd 3f 29 e8 67 a0 50 19 dc 3f
       0.23260319176310387 0.4390451017822011
000230 db 6c 26 e4 68 c4 d5 bf b3 7a aa 27 41 40 df 3f
       -0.3401128986385637 0.48829678414942207
000240 1c cc ee f9 d3 17 d2 bf e4 a4 87 75 33 06 e4 bf
       -0.28270434768200103 -0.6257569594864916
000250 be 5e 85 48 83 2b d0 3f a7 3e 65 af a6 0b d3 3f
       0.2526558120930352 0.2975861275526576
000260 1a 33 02 57 86 70 d6 bf 4e 22 10 d7 7b 3e e3 3f
       -0.35061796662266576 0.6013774109315564
000270 82 b7 bb 77 73 66 e1 bf 19 2e 44 bf 65 74 da bf
       -0.5437562311687858 -0.41335433653213866
000280 51 d2 d3 19 b8 aa ce 3f dd d6 0f 28 6a bd bf bf
       0.23958493481736068 -0.1239839885527902
000290 21 17 db 97 aa 57 ac 3f ea 46 93 f1 30 da 9a 3f
       0.05535634139736901 0.02622295832117675
0002a0 0d be 5c a8 b7 a2 ca 3f 09 3e 0a ef 23 6e bc bf
       0.20809074135603148 -0.11105560861528131
0002b0 21 cf 65 cb dc d7 b3 3f 8c a7 01 2f e5 35 c0 3f
       0.07751255002750358 0.12664475245702211
0002c0 9a 9f e8 32 0d b5 db bf 2b cc b2 aa 1a 1d b2 3f
       -0.4329255101351862 0.07075659434740149
0002d0 6a b6 25 69 a8 4e d6 bf 45 66 fe 94 41 ac dd bf
       -0.3485508944348569 -0.4636386828438826
0002e0 1b bb c5 0a 8a 60 dd 3f 88 41 65 63 89 1a d1 bf
       0.4590172867964825 -0.2672446699771389
0002f0 0c a5 15 6f 88 66 d3 3f f4 45 37 dc 29 1f a3 bf
       0.3031331143198066 -0.03734713376219281

gnn.conv_layers.0.lin_l.bias f8 [32]
000000 53 2d 11 a5 5e 94 73 3d b4 e4 b5 d5 4c 9b 83 bd
       1.1129696511567093e-12 -2.229017031380458e-12
000010 8a cd 75 93 53 ab 97 bd cd f3 05 47 0f a4 38 3d
       -5.381763007517996e-12 8.754191368308144e-14
000020 ed 52 36 56 98 c9 7d 3d f7 f3 35 e4 5c 21 5a 3d
       1.693222243635843e-12 3.7133423320788477e-13
000030 39 56 3b bd e0 77 40 3d 6c 87 86 72 19 c8 3b 3d
       1.1701411749131757e-13 9.87002063936108e-14
000040 c9 99 18 14 bc 87 6c bd 85 33 ed 58 5f b1 46 bd
       -8.108774409312346e-13 -1.612424763336932e-13
000050 e0 ec 32 82 7b 19 49 bd 82 5b a6 97 a2 cc 72 3d
       -1.7834296415852774e-13 1.0686196653104275e-12
000060 c0 07 3e 75 96 e8 99 3d d3 e9 2d 68 98 98 6d 3d
       5.890921285423556e-12 8.41171059434788e-13
000070 f7 a1 d7 ad e6 93 f2 bc 7c 67 f0 da 81 5e 3d bd
       -4.125086635230216e-15 -1.0434024820531497e-13
000080 3d c0 3c 7c ae bf 7b bd 73 6b f0 56 12 a5 5a bd
       -1.577334170657281e-12 -3.786455393165462e-13
000090 69 c3 ae 7d 1f 7f 59 bd 3c 57 74 4d a9 58 2e bd
       -3.62328112597251e-13 -5.390591680053963e-14
0000a0 6b ae 35 83 26 9e 55 3d ab 49 9a 65 d9 53 74 3d
       3.072070619892244e-13 1.1554866411653736e-12
0000b0 a5 50 e8 73 6d e7 7f 3d fc 4d 5a d6 7d 5b 5e 3d
       1.8135332235619908e-12 4.3140444283626037e-13
0000c0 41 7e b9 e4 b4 c5 4c 3d 93 11 65 7d 48 aa 42 3d
       2.044394269168404e-13 1.326239996538801e-13
0000d0 7a 89 01 5f 59 05 65 bd 49 81 a8 34 75 fc 6a 3d
       -5.974497680945683e-13 7.669928952792297e-13
0000e0 73 82 6c 83 73 7e 5e 3d cf 6c 74 61 b6 54 6d bd
       4.333450944815099e-13 -8.336345419015525e-13
0000f0 74 9e 48 86 2b a9 4c bd e6 03 f2 b0 34 35 4f 3d
       -2.0364737723255648e-13 2.2174500638383628e-13

gnn.conv_layers.0.lin_r.weight f8 [32, 3]
000000 96 0a 4a 28 d7 20 ae bf 98 81 71 a0 8c 40 e0 bf
       -0.058844302814596336 -0.5078795560512388
000010 ef be 6d c1 d8 9f bd bf 12 f1 58 32 08 3a c8 3f
       -0.11572031710033646 0.18927099665041475
000020 89 f6 22 b6 91 5c e1 bf b8 b1 58 cc 4c 5e b5 3f
       -0.5425499493937461 0.08347015370299615
000030 37 4d 00 eb 54 e3 d9 3f 5a 0d e4 7e 19 bb c8 bf
       0.40450022649129685 -0.19320982642976042
000040 1c 52 50 03 d0 63 dc bf 98 e8 45 e4 46 c1 df 3f
       -0.443592074619376 0.49617168705266
000050 40 ee 8d 3a 22 36 e1 bf 77 50 3d e7 a7 b2 e0 bf
       -0.5378581184044791 -0.5218085781475698
000060 99 4a 67 19 0b 3d cc 3f ce c3 0b 9f 60 5e e1 bf
       0.2206128953972282 -0.5427706819883669
000070 0a d6 41 9b 51 aa dc bf 2f 11 c8 63 91 8b c6 bf
       -0.4478954330619166 -0.17613427517074728
000080 57 c9 97 c2 ad ce a7 3f f7 39 8c ef 27 c4 c8 3f
       0.04649870872880751 0.19348620602291053
000090 a6 0a fb 55 8a 5a e1 bf 86 bc 05 a5 ea 1c bf bf
       -0.5423022918042377 -0.12153498200290089
0000a0 53 9c 7a 7c e4 5e bf bf 78 4c e1 f4 53 bf df 3f
       -0.12254169501339733 0.49605273164815555
0000b0 c5 76 50 e3 9f 35 d7 bf 1a 03 67 11 05 47 c3 bf
       -0.3626479835382777 -0.15060485219694258
0000c0 52 cf 53 7e a5 aa c4 bf 6f 4e 05 7b ac 6f e0 3f
       -0.1614577166397973 0.5136320498226733
0000d0 13 26 65 05 6e c6 dd bf 7d 99 ca 4b de 8f d8 3f
       -0.46523619200579097 0.38378102685455656
0000e0 d0 b0 d5 fc a1 30 d9 3f a5 e5 eb 13 a9 00 c2 3f
       0.3935933083619263 0.14064515564659277
0000f0 04 7e 0a 7b dc 28 b9 3f 59 a5 76 fd ee 65 d5 bf
       0.0982797432320624 -0.3343465304593188
000100 ce 68 67 bb 7f a6 9e 3f 46 ce b7 93 83 98 da 3f
       0.029932018101910533 0.4155587141569622
000110 1d b2 af 4f ba 76 c3 bf e3 3e d4 09 ba 24 db 3f
       -0.15206078425343686 0.42411662063476124
000120 72 de c3 82 b8 31 c2 bf 68 19 72 ce b2 56 db 3f
       -0.1421423567296532 0.4271666542121211
000130 24 aa e4 c4 9c 12 ca bf e9 10 2c 91 0a 8d a2 3f
       -0.20369300474097074 0.036232309552390714
000140 0f 9e 61 71 98 09 a4 bf 68 6c d4 2b f2 47 e3 bf
       -0.03913570770310681 -0.6025324684191107
000150 c9 8d 75 64 db 25 8a 3f ad ea 91 ca ee 41 cf bf
       0.01276751900031216 -0.24419960871803906
000160 58 d6 af 24 89 dd b4 bf 65 9a 1d d2 92 eb c5 bf
       -0.08150536676097297 -0.17125163325836748
000170 e1 57 f6 76 06 a1 d5 3f 39 b4 74 e8 da df b6 bf
       0.33795320145998003 -0.08935325789634953
000180 de c1 84 63 f8 7d b5 3f bf d3 2d 8a f6 36 de bf
       0.08395340375569257 -0.4721046780971924
000190 b5 57 12 f8 12 d0 d5 3f 6e f5 5a 50 07 bd e5 bf
       0.34082483506915234 -0.6793247765960311
0001a0 a1 7a 95 af 68 dc b6 bf ae c2 52 47 d1 8e d2 bf
       -0.08930067335811966 -0.28996688809551585
0001b0 07 f2 39 89 fa 84 df bf ad b1 61 56 45 07 d4 bf
       -0.4924913730717723 -0.3129437774248583
0001c0 a7 af aa a4 1c 13 d7 bf d7 2e 33 e4 49 22 e3 3f
       -0.36054149704681965 0.597935624793048
0001d0 d7 8e c0 84 e8 90 cd 3f c3 80 1b c8 46 2b d4 3f
       0.2309847496227266 0.3151413873838573
0001e0 ce 88 ec 4e 75 77 dd bf e0 26 02 4b 19 a6 c0 3f
       -0.4604161520711728 0.13006893312949952
0001f0 b9 fc cb bb 67 38 b3 3f 44 98 b5 1a ec d7 db bf
       0.0750794251907675 -0.4350538502534429
000200 41 69 c5 38 9d 0d bb bf ea 44 e9 4d 03 46 cd 3f
       -0.10567648540510267 0.22869912437685197
000210 06 f6 b7 b1 d7 ce b6 3f 1f 9f 27 e5 e9 63 e4 bf
       0.08909366692383722 -0.6371964908293853
000220 e8 4c ae 4b 8e af d4 bf d0 75 fe 39 c4 a8 ad bf
       -0.32321507826527673 -0.05792821128782644
000230 ba e1 9e 1b d3 40 a7 bf 7f 64 71 83 34 f7 ac bf
       -0.045416447755488545 -0.05657352547195504
000240 15 d8 84 8f 66 59 de bf 5e 82 2a 55 95 19 ba bf
       -0.47420658126373044 -0.10195287064790068
000250 05 ca ae 8d e8 99 ad bf 7f c7 7e 65 e6 f7 a2 3f
       -0.05781485299612047 0.03704757679896797
000260 56 1e e6 f3 08 b0 cc bf 89 24 58 54 c4 55 cf bf
       -0.22412216099859233 -0.24480489843725575
000270 e3 2e 3f 63 0e 52 d2 3f 2b db 3d 8b fb 39 8f bf
       0.2862583131034013 -0.015247311770264801
000280 7e af 3b 0a 29 3b b3 bf b8 2a c3 ad bd 08 5e bf
       -0.07512146472771339 -0.0018331386882432365
000290 d3 7b 50 3b 0a fe af 3f 3f 52 0f 08 4e 40 e3 3f
       0.06248504613926511 0.601599708310978
0002a0 74 7a cc 8d 79 ef e0 3f f8 6d ce 59 de 9e bc 3f
       0.5292327661043843 0.11179914181268902
0002b0 5b c2 b1 16 15 86 d2 3f fd 2d 16 4f f3 f8 73 3f
       0.289433738863442 0.004876089501873346
0002c0 be 03 95 9f 82 61 d5 bf 7a 77 4f 12 0d 42 d9 3f
       -0.3340765531939346 0.39465643680693285
0002d0 3a 8a 64 7d 11 8d cb 3f ca ea cd 8b 93 f5 d9 3f
       0.21524256346408938 0.405613791015338
0002e0 eb 35 8a be 7a 86 d8 3f 9e ac 7c eb 81 82 c1 bf
       0.38320797545824686 -0.13679527281178577
0002f0 52 59 e1 6a 87 98 c2 bf 5e fe 15 be ba 62 d6 bf
       -0.14527981489909308 -0.3497759681995144

gnn.conv_layers.1.lin_l.weight f8 [64, 32]
000000 4f fe 3d 5d 08 fe c5 3f d5 6b d9 3e b3 44 b1 3f
       0.17181496193733145 0.06745453152090815
000010 15 56 7b 43 0b 3a c3 bf 9f 67 65 41 b1 39 a9 3f
       -0.15020886225708865 0.04926828311245334
000020 01 51 34 c2 7b 3d b0 bf b4 26 25 98 8e c9 a8 bf
       -0.06343816272084625 -0.04841275794258362
000030 c7 4b ee 4e c5 66 bb 3f d5 e0 c8 a2 a8 38 7b 3f
       0.10703690697691491 0.006645830854317765
000040 5b 31 d7 34 0b fb b2 3f a7 bd 28 34 df a3 b1 3f
       0.0741431240086902 0.06890673659721945
000050 03 2f 9a b7 34 3e 9f bf 8c 79 64 19 51 1a bb 3f
       -0.030510734277910078 0.10587031240399919
000060 58 e5 fc ef c8 e4 b0 bf 4e 82 b6 60 b4 4f b9 bf
       -0.06599098071173637 -0.09887244568972983
000070 5d 72 a2 8f 34 b5 8e bf a9 fb 1b 82 70 ce c9 3f
       -0.014994059213045913 0.2016125331210479
000080 d8 91 ee a6 b6 e6 b0 bf f3 0a c1 4f 98 01 c6 3f
       -0.06602040839658885 0.17192367452852117
000090 3d c0 8e d2 d3 26 64 3f 92 99 23 47 53 15 b0 3f
       0.002459920612146531 0.06282539831918246
0000a0 24 1f 9f c6 20 db b6 bf 00 84 3a 7a ad a8 9a bf
       -0.08928112839850805 -0.02603407915615108
0000b0 6f 4f 39 e6 ff 04 d0 bf 36 06 d5 ac c2 c5 b6 bf
       -0.25030515177535667 -0.08895508498701407
0000c0 3b 99 25 3b 02 fa 72 bf d8 49 ed 8f 02 1e b3 bf
       -0.004632958140382388 -0.07467666639175918
0000d0 fb a8 52 54 2e 9b b5 3f c2 1b cc 3a c9 cf c3 3f
       0.08439912375130014 0.15477862711870044
0000e0 35 fb 86 88 23 c9 c0 3f 76 8a 78 f9 d6 4e c3 bf
       0.13113826910372386 -0.15084349805063696
0000f0 23 43 fc c8 12 34 c0 3f 1c 93 11 86 81 9b cc 3f
       0.12658915342083174 0.22349566503830764
000100 9c bd 6f f7 06 cc ab bf 32 e3 74 df 49 98 c3 bf
       -0.05429097910370759 -0.15308497820822137
000110 16 56 b3 78 6e c7 b1 bf ea fe 42 57 fd 0f c1 bf
       -0.06944933363714542 -0.13330046425652792
000120 cf a7 b2 4f f2 71 b4 bf 14 4a 12 58 29 58 b4 bf
       -0.07986368604420523 -0.07947023773366652
000130 1c 96 5f 8d bb f1 c5 bf 38 76 db a6 21 cb a5 3f
       -0.1714395942973831 0.042565394991225636
000140 88 32 6a 28 f4 21 c3 bf f9 3f 28 23 62 92 c1 bf
       -0.1494736859643988 -0.13727976528798516
000150 e0 53 eb f2 7f 07 bf 3f 7d 88 21 b0 57 ed c0 3f
       0.12120818787236898 0.13224311924119894
000160 c0 8a 8d 51 7c ac c4 bf b9 c9 bd 3f 00 e2 b2 3f
       -0.16151384336543195 0.07376100116906671
000170 d1 a6 8c ac e8 84 c1 3f 98 3f 66 d1 12 18 c8 bf
       0.13686855721726102 -0.18823466515140974
000180 df e5 a1 f4 d3 cd 76 3f 05 e0 5b b8 a2 78 a4 bf
       0.0055673865809864045 -0.03998287678217597
000190 4b 59 4b 52 c9 d8 b7 bf ce 21 1f 88 b1 e3 b3 3f
       -0.09315164813174197 0.07769307683259472
0001a0 eb f0 81 04 1d 0a b4 bf 5e 64 6f d2 ab 9f be bf
       -0.07827931747482679 -0.11962388885093975
0001b0 c7 f3 e4 6d 16 c5 a7 3f c1 36 66 65 0b b3 c3 3f
       0.04642553416713429 0.15390150500427605
0001c0 27 0e ba 96 94 b0 ae bf 2b 8a a4 82 f8 69 bd bf
       -0.0599409517281198 -0.11489823522109847
0001d0 c4 df 22 af 3c a8 b0 3f a3 d7 26 a0 c5 3b c1 3f
       0.06506709361826696 0.13463659591587626
0001e0 14 3a 5d e3 f7 66 c5 bf bc c0 3f a3 c5 ea c6 3f
       -0.16720484353795995 0.17903967353004713
0001f0 3a 97 8e 7b 16 bb ab 3f 1e 88 1e 84 74 8e c4 3f
       0.05416174181236362 0.16059738589416467
000200 3a 80 5b fb dd 98 cb 3f 2a e7 60 a9 52 86 c8 3f
       0.21560263417541298 0.19159920950351622
000210 ae 47 47 43 2d 1c 9a 3f f1 f8 83 97 e2 20 ae 3f
       0.0254981109918117 0.05884464358858733
000220 5c ea 66 94 13 97 64 bf 38 33 e0 d3 b5 34 bc bf
       -0.0025134451309132676 -0.11017929480312894
000230 ed 57 42 89 c5 41 c4 3f d4 8c 31 8f 2c 54 b2 bf
       0.15825719072444092 -0.07159689422546772
000240 b8 0a 40 bc ec fb b2 3f 63 90 87 ce e7 23 a8 bf
       0.07415656658126124 -0.04714893718826898
000250 7e aa 60 a9 73 75 94 bf 97 46 86 11 05 a4 bc 3f
       -0.019979293072689412 0.1118777435097179
000260 9d 94 94 5d 82 13 a1 3f 21 04 ff 90 b1 4b c0 bf
       0.03335196869219568 -0.1273099859227225
000270 bc 29 16 8f e4 4d b7 3f 8d 55 63 7c 42 86 a1 3f
       0.09103229993176049 0.03422744530113695
000280 1c 10 a2 ea 3d f3 b4 bf 9e 5a fc 8d eb d8 8c bf
       -0.08183657625528479 -0.014085617323457197
000290 31 d6 19 75 bc 87 98 bf 46 3c cc 5d 44 d9 a3 bf
       -0.023955292365334727 -0.03876699109070407
0002a0 87 7c 5a bd e1 ee a5 bf 40 ee 74 88 b2 b9 c1 3f
       -0.04283814846461902 0.13847953474929575
0002b0 86 4c f8 2e 25 87 d1 bf fd 80 51 94 f4 8a a7 bf
       -0.2738736113253214 -0.04598202047850639
0002c0 e6 5a 04 b5 fe 43 b9 3f 78 04 69 9e 17 d5 a8 bf
       0.09869377059326787 -0.048500764929948426
0002d0 d5 4d 05 2f 73 5c c0 3f fd fe b5 d5 9f 6a a6 bf
       0.12782134815152682 -0.04378222926879791
0002e0 04 94 a4 a6 87 85 9a 3f 3a a0 dc e0 ad 7f c2 3f
       0.025900001092981753 0.1445214603384118
0002f0 eb a7 5f c7 c2 63 a6 bf 6f 4f 0d e8 95 cd d3 3f
       -0.04372986491928529 0.309422947514796
000300 91 03 b6 f4 50 1a a8 3f 65 fc 16 c9 e2 e5 c5 3f
       0.047075776931712394 0.17107806032979336
000310 92 ea a9 b4 e6 79 a5 bf b0 36 ed 08 d4 78 99 bf
       -0.04194565730445733 -0.024874985737645516
000320 bf f8 47 13 47 54 bf 3f 20 12 37 b2 67 aa c6 3f
       0.12237972470026913 0.17707534982595607
000330 27 6c 58 48 a3 01 bb 3f b0 77 e7 1f a0 12 b1 bf
       0.105493741190387 -0.06669045237455751
000340 5e 7a 83 b4 21 a4 b8 3f 36 f2 6e 2e 0c 6a be bf
       0.09625445038862199 -0.11880565770747684
000350 14 38 3d 0c 4a 39 c0 bf 5b 23 13 6a d5 a4 6a 3f
       -0.12674832913984402 0.0032524269341575435
000360 5c 63 e6 1c f0 b8 bb 3f 4b e9 06 de 70 15 a8 bf
       0.10829067903104089 -0.04703858099260801
000370 30 6e 43 dd c7 4c a8 bf b0 3f 1c 03 24 15 9d bf
       -0.04746079040498008 -0.028400957765427115
000380 24 36 a7 d1 3e 89 ba bf 1f e0 5d f9 6f 76 d2 3f
       -0.10365669840322106 0.28847884514061833
000390 e6 34 22 a5 ef 0f 91 3f 4a b4 9d 06 83 cc c9 3f
       0.016662353948551444 0.20155370543526124
0003a0 71 33 4e e6 78 02 b9 3f fb 07 bb fc 36 01 c9 3f
       0.09769397375766943 0.19534957256661287
0003b0 29 49 68 0a ff 75 b7 bf 16 ed 8d c5 df 50 b7 3f
       -0.09164422992788403 0.09107779095750276
0003c0 4e 11 2e 18 97 a7 a4 3f e5 94 60 3c d2 82 b9 bf
       0.04034111185231613 -0.09965242361120692
0003d0 76 91 96 76 2d b8 c1 3f ea bb 20 50 64 77 a3 bf
       0.13843315401494366 -0.03802026250956898
0003e0 b6 f3 a4 d8 12 bd a9 bf 60 36 b3 f1 7a f1 a4 bf
       -0.050270642228930226 -0.040904848102951474
0003f0 07 b2 f2 7c 1b 54 b7 3f 4c f9 43 98 63 13 a1 3f
       0.09112712669838895 0.03335105165204996
000400 15 ff bd 7b 31 96 c7 bf 37 23 ea fc 4b 48 b5 3f
       -0.1842710355958778 0.08313441204712722
000410 28 6f c7 66 61 93 cf bf 3b 29 e9 42 3e 83 b6 bf
       -0.24668519514568144 -0.0879401124340448
000420 76 5b c5 60 55 68 b0 bf d2 22 ab 95 c0 1a a6 3f
       -0.06409200298854309 0.04317285372741754
000430 3e 1f 1e fe 85 bb d4 3f 00 de e8 dd 60 3c c0 bf
       0.3239455205552878 -0.12684260211402432
000440 4a 80 ed ea f1 22 e0 bf 7c 4d 8a 40 6d 4e da 3f
       -0.50426574596714 0.41103678992040904
000450 bf cc 27 83 5e 4e c0 3f 56 ab cc 4b 67 a4 d0 3f
       0.1273916378409918 0.26003439333242306
000460 72 e8 69 e9 30 17 be bf 77 fa 4f 7e 72 1c d0 bf
       -0.11754136751724945 -0.2517362817306216
000470 ab 4c aa 51 a6 8b b9 3f c9 c0 88 87 d7 48 80 3f
       0.09978713506488883 0.007951434920954974
000480 eb 6e 4d 7e 0e 6e c8 bf 67 0b 8e 62 6c 88 d3 3f
       -0.19085866133797622 0.3052016222429103
000490 c4 1c 17 79 f3 7c c5 3f 87 56 30 dc 39 b7 c5 3f
       0.16787570393191775 0.1696541142597889
0004a0 b7 38 24 42 5b 46 cf 3f f2 25 f8 ed 9c 05 c3 3f
       0.24433460931363069 0.148608795352899
0004b0 45 96 f8 72 cd 8e c3 bf d4 04 d6 8f 6d 60 c3 3f
       -0.15279548753567176 0.15138024829142316
0004c0 73 a8 4a 1d e4 02 d4 3f 86 8d 14 0e 4d 70 c9 bf
       0.31267645702849406 -0.1987396544219388
0004d0 9a 75 71 76 2b 6a c1 bf 48 6b 87 5d 24 ad b8 bf
       -0.136052544435114 -0.0963919380514372
0004e0 1b 24 d4 33 e4 60 d4 3f a8 46 1a 91 e1 cb bf bf
       0.31841378270525106 -0.12420472900910318
0004f0 3f ad 02 d0 d6 0b d2 3f 74 ce d7 3f cd 6d d5 3f
       0.2819726020195112 0.33482676729838734
000500 d7 ec f3 6d 16 a4 b0 3f 53 f4 92 29 a1 f4 b8 bf
       0.06500377830882385 -0.09748275055876947
000510 75 6e c6 e4 eb e9 bd 3f 5f aa ac d1 f7 60 c7 3f
       0.11685060820894384 0.18264672983180483
000520 83 13 8f 39 7e 4b b4 3f 67 9a 7c 02 bf f3 97 bf
       0.07927693276640295 -0.023390755202081694
000530 f7 30 70 5c a0 11 c3 3f df fe 76 ca 9c 52 b5 3f
       0.1489754153593663 0.08329181616772584
000540 a7 3b 78 ea ce 8e c0 bf ed 13 94 5b cf fa bc 3f
       -0.12935816239084127 0.11320205674935808
000550 b5 f5 c1 7f b2 68 b4 3f c1 e9 c4 22 57 89 ae 3f
       0.07972255343516717 0.05964157390049563
000560 a0 b0 02 73 b2 bc ba 3f 8f 25 50 5b 70 b5 b6 bf
       0.10444178874849053 -0.08870603780100893
000570 36 97 51 49 4b 08 b8 bf 5f 8d 34 0f a9 42 bb 3f
       -0.09387655773170142 0.10648590680334767
000580 de aa 03 53 d2 25 9f bf 04 8f e4 a5 39 a8 c3 3f
       -0.03041771537474857 0.15357132530436257
000590 6c d2 f3 1c c1 4e c0 3f 21 4d a2 c4 e4 14 a9 bf
       0.1274033919686589 -0.04898753071133855
0005a0 62 a6 06 75 9a b1 b2 3f 0c 13 7e b1 1c 1f c6 3f
       0.0730225120265913 0.17282446543335828
0005b0 45 25 cc 29 ff 82 cd bf 03 14 d2 1d 45 2c bc bf
       -0.23056020298853688 -0.11005050638239315
0005c0 0a 44 bb 15 f9 18 c8 3f d1 f3 42 22 3b 03 7d bf
       0.18826211510761964 -0.0070831594386477495
0005d0 ec 56 18 8d a4 1d c0 3f ee d5 1c 9a 50 77 ca 3f
       0.1259046257916262 0.20676620030432907
0005e0 03 8e 2f 74 e2 43 c1 3f 48 65 fc 32 24 b6 cd 3f
       0.13488417313702436 0.23212101449534317
0005f0 06 aa 05 39 07 6c b8 bf 83 36 0e d6 c1 39 ce 3f
       -0.09539837972776163 0.23613760902337697
000600 80 8c ed d8 03 1a c1 bf 75 c6 34 75 81 00 b6 3f
       -0.1336064156740555 0.08594521628836012
000610 85 0f 51 ec 05 ad bf bf da aa a6 34 83 e2 9c 3f
       -0.12373387355279249 0.02820782669884179
000620 41 70 a4 59 b3 ad 6b bf 16 71 33 8f 07 ef bb bf
       -0.0033787253315847037 -0.10911605116001896
000630 7f fd b1 8d 91 27 b4 3f aa ab d6 76 89 ad a7 3f
       0.07872876843793185 0.04624585700670221
000640 35 1d 07 f8 ff d7 c9 bf 7b 68 58 6b 1f b4 9d bf
       -0.20190429316265016 -0.029007426192130908
000650 6e b1 20 81 be b0 b1 bf 8d 79 62 40 38 88 c0 3f
       -0.06910315182239454 0.12915709632666186
000660 b9 9a 28 89 07 0b 74 3f 75 32 17 71 00 06 c3 bf
       0.004893330990433036 -0.14862065813067074
000670 48 9a c0 d4 ee e0 b0 3f ab b6 0a 8e 23 d0 ab bf
       0.0659322041907241 -0.054322348679631226
000680 75 50 f1 75 98 e2 a3 3f e3 3f 9f e0 3e 96 ad bf
       0.038838161847395115 -0.05778690807312594
000690 ec 35 fd b7 d7 86 c5 bf 8d f2 44 7b c5 0e 61 3f
       -0.16817757114260645 0.0020822388707116336
0006a0 e3 e0 08 8d 7b d6 b9 bf 7a e9 56 fd 88 03 6a bf
       -0.10092899506787804 -0.0031755137995023693
0006b0 3c 39 4d 97 ac 7f 86 bf b2 7c fd c9 0a 08 b6 3f
       -0.010985706679687561 0.0860602133884523
0006c0 d0 e2 d3 85 b3 dd a4 bf 58 75 66 35 7b 98 c3 bf
       -0.04075394638670604 -0.15309085948403367
0006d0 76 af 26 3d 52 45 98 bf c8 98 e0 9d 08 b0 93 3f
       -0.023701939566009377 0.019226202617709715
0006e0 88 3e 03 ef 0f 1c aa 3f 3f d6 e3 a7 d9 97 b1 3f
       0.05099534790644805 0.0687233004462877
0006f0 b3 f5 19 66 91 11 bb 3f 2c 43 29 9e cc a8 b3 bf
       0.10573681585989085 -0.0767944227348038
000700 41 ab 90 a4 ae a4 d3 3f 38 8a 2e 3a bf 30 d0 3f
       0.3069264037209685 0.25297527963462896
000710 ed 2e 9a a8 df 0c a3 3f df ed b0 17 4a 8f 67 bf
       0.03720759328015597 -0.002875942909239745
000720 9b 75 8f 90 ef 01 c2 bf 65 09 ff fd fc 50 be bf
       -0.14068407591450413 -0.11842328263359077
000730 21 49 3d e2 cb e8 bd 3f 65 30 e6 78 78 0a c2 bf
       0.11683344148085385 -0.140944537194062
000740 36 fc d3 b9 55 67 b3 3f cd a0 04 d4 ef 87 b5 bf
       0.0757955149347119 -0.08410548139784453
000750 98 14 f8 9e 43 3b c4 bf 7b b8 c1 a7 90 56 a6 3f
       -0.158058598157514 0.043629188993564015
000760 23 4f c5 eb c2 82 c0 3f 43 07 ca 02 99 c0 a4 3f
       0.12899052154772858 0.040531903830027825
000770 31 31 34 5b ab bb 8d bf ff ce 9e cd 64 c7 62 bf
       -0.014518107148000144 -0.002292343980082267
000780 9d 6c e0 e5 3f eb 82 bf ee fb 7b a2 77 3b c8 3f
       -0.009237765505579804 0.18931479867748585
000790 71 72 6a 33 46 07 b4 bf 48 70 a5 22 0a b0 ae bf
       -0.07823599581974762 -0.059936825494077584
0007a0 eb dd ce eb 45 86 bc 3f 64 8e a3 98 2f 96 94 bf
       0.11142384535821008 -0.020104163829172697
0007b0 0a b2 98 46 8b 02 c4 3f 1f 11 48 c7 0c fe 6d bf
       0.1563276381215391 -0.0036611795023892136
0007c0 4e d0 d6 b4 bf b1 b3 bf 9a bf ac 05 40 db a5 3f
       -0.07693098225610237 0.04268837041161007
0007d0 f2 d1 32 b0 5b f4 ba 3f e7 64 ea fc 05 ea be bf
       0.10529110957833845 -0.12075841355035132
0007e0 3f 87 d8 5d 63 ac c1 bf 86 a5 7f c8 96 d6 9c bf
       -0.13807336885752794 -0.02816234205957848
0007f0 a7 8a 26 5d 3b 12 b9 bf e1 e0 a3 a4 92 37 d7 3f
       -0.09793444656547 0.36276689603938733

gnn.conv_layers.1.lin_l.bias f8 [64]
000000 be 30 c1 27 0b be 49 bd 27 04 5e b2 a9 d3 8c bd
       -1.8291045276613345e-13 -3.2772286564145576e-12
000010 96 dd 09 12 e9 04 56 bd 8e 75 d0 87 09 cb 5d 3d
       -3.129113874398424e-13 4.2338561704389543e-13
000020 ac df ed 1f e2 b3 49 3d a3 b1 dc 87 37 cc 97 3d
       1.8262844846686053e-13 5.410975593670124e-12
000030 a3 ea ab f3 46 38 2e 3d 14 ce 4c bf 70 16 4b bd
       5.368120639415696e-14 -1.924693854018124e-13
000040 ce 4b 4b e1 b0 c2 37 3d 89 d3 ef f4 08 a2 54 bd
       8.441429413413217e-14 -2.9321184299653764e-13
000050 4c 3a 59 ec b2 61 46 bd 56 9d 08 33 92 a4 43 bd
       -1.5903109159811095e-13 -1.3957088516069227e-13
000060 a4 e4 b3 71 e7 0c 61 bd e3 0e f6 a3 45 41 70 3d
       -4.846017008470349e-13 9.239880045750106e-13
000070 84 70 a0 2c 78 2a 37 bd a5 15 1c 7c 86 44 4a 3d
       -8.230179636344952e-14 1.8664307131110484e-13
000080 02 10 72 8a 85 4f 52 bd 8b 11 b9 b3 0b 7d 39 3d
       -2.6020972286664153e-13 9.055319981499368e-14
000090 8b 42 10 6e 1b 72 2b 3d 06 5c b2 d3 b8 27 1d bd
       4.875341205874659e-14 -2.5894987474557404e-14
0000a0 5b b8 c8 47 72 54 41 bd 14 c0 29 22 2e d4 42 3d
       -1.2313612373742944e-13 1.3378687626595499e-13
0000b0 91 b6 f1 5d 18 e3 06 3d 48 53 b9 03 3f 54 72 bd
       1.0163909962756042e-14 -1.0418879427148957e-12
0000c0 67 35 c1 fd c0 55 3e bd 82 18 e3 93 d2 be 1d 3d
       -1.0777148440318744e-13 2.6419222951955093e-14
0000d0 4b cc d5 2c 22 e1 66 3d a4 da 5a f4 2a 0a 52 3d
       6.50272446626196e-13 2.5635981066084754e-13
0000e0 d5 80 e1 3f 97 3f 10 3d 31 f5 45 a2 66 80 44 bd
       1.4431479686600857e-14 -1.4567238841838405e-13
0000f0 63 d8 95 58 e7 9d 42 3d e7 cc 27 55 65 f1 3e 3d
       1.3228040039600406e-13 1.0993145047904161e-13
000100 56 77 ec 55 45 8e 80 3d 73 1f 7a 63 c1 f7 4c bd
       1.882170349506019e-12 -2.0582856042198356e-13
000110 f4 10 0f ca 16 81 1d 3d 95 56 1b a2 4b a8 50 bd
       2.6205041680609662e-14 -2.3671594919246266e-13
000120 ea fe a1 16 a7 2f 35 3d 60 9b 3b c4 07 5e c0 3c
       7.526830116259901e-14 4.542839995267426e-16
000130 15 82 9e 5d 02 4c 2e 3d 45 e3 fe a9 18 4d 44 bd
       5.3818125241128527e-14 -1.4424840055559792e-13
000140 6f a9 8d 23 3f b8 67 bd dd 0e 8b 60 34 82 3f bd
       -6.741548026768875e-13 -1.1194107582729674e-13
000150 c1 3d a7 a8 9a 39 3e 3d 6c 1c 8a 23 fc 8f 68 3d
       1.0738082833951107e-13 6.981065633670708e-13
000160 2e ad 30 cf 99 da 1d 3d 11 33 54 3c 64 b3 3d 3d
       2.6515598112039214e-14 1.0551825448881813e-13
000170 34 c3 a9 b5 0c 7a 4f 3d db b1 cd 23 40 46 1b 3d
       2.23655806290675e-13 2.4224547875699372e-14
000180 55 14 27 fd f8 dd 40 3d 9e 46 26 21 5b 8c 1b bd
       1.1984781536086697e-13 -2.4467774940068803e-14
000190 44 a3 bd 37 d6 c3 50 bd 85 47 86 3d 34 93 40 3d
       -2.382448010005805e-13 1.1777257124506188e-13
0001a0 08 d8 dc bb d4 38 55 3d b7 47 eb 8f ec 8e 47 3d
       3.015827027861781e-13 1.6739176908560707e-13
0001b0 0d 2e 55 30 e5 f6 79 3d 52 54 f9 4c 48 9f 80 3d
       1.4759072339274297e-12 1.8897250095980123e-12
0001c0 53 86 1c a7 9b e7 61 3d 34 bf 2c 81 d8 6f 40 bd
       5.088827158181684e-13 -1.1679118008952914e-13
0001d0 d9 a7 6f e6 aa 33 3f 3d 25 5e e0 32 de f8 43 3d
       1.1085115573623405e-13 1.4191059338233317e-13
0001e0 94 d4 95 1d 37 a9 56 3d b3 9a 52 cf 92 15 29 bd
       3.220321395761266e-13 -4.455861704605973e-14
0001f0 be 85 c5 cc 96 29 3f 3d 17 85 71 90 fc 25 29 bd
       1.107112882212966e-13 -4.467250582668126e-14

gnn.conv_layers.1.lin_r.weight f8 [64, 32]
000000 56 59 97 d5 c7 b4 b3 bf c8 27 b9 ef 2a 70 a7 bf
       -0.07697724308613849 -0.045777646792501125
000010 21 a7 aa bb c6 a6 b4 bf 80 7c 04 45 b8 2b 91 bf
       -0.08066980439857875 -0.01676834031343022
000020 49 89 1a 14 fe 5a a2 bf c7 09 ab 4b 2a dd b0 bf
       -0.03585046763807271 -0.06587471339574967
000030 72 c7 17 75 2b db b6 bf ae 80 3e 6b e8 84 ae bf
       -0.0892817650672251 -0.0596077567017813
000040 2e 74 ba a8 d8 71 c9 bf 02 63 1c 19 13 42 c2 3f
       -0.19878681410492177 0.14264143682591884
000050 ed 30 03 72 36 e7 d1 bf 11 b6 fb fd b3 9f be 3f
       -0.2797371018794042 0.11962437582743514
000060 77 b8 e3 44 79 57 c5 bf ef 3e 2b e2 aa fc b9 bf
       -0.16673198570009948 -0.10151165029241914
000070 8a fb 0b e2 03 a0 9b 3f a8 5b 21 66 ea c1 c5 bf
       0.02697759692363947 -0.1699803351100091
000080 53 06 11 c6 64 04 91 bf 6b 33 e3 38 89 49 b4 bf
       -0.016618322934169715 -0.07924707068305074
000090 96 54 9c b2 b0 10 b2 bf cf 25 17 91 b6 20 ac bf
       -0.07056717262851672 -0.054937081538422576
0000a0 7b 5e a9 4b 98 cc c2 bf fb d9 ff 89 1f a9 8d 3f
       -0.1468687409821888 0.014482733153255536
0000b0 19 49 39 7e 8a 15 c4 3f 43 24 5f fc 6d b8 c2 3f
       0.156907378800107 0.14625334570726709
0000c0 85 fd 9b 4f b9 4e b4 bf 3a b6 a1 dd b1 e0 3b bf
       -0.07932623094165166 -0.00042538015771395913
0000d0 4a f7 13 bc 47 b2 c8 bf d5 38 ae b3 92 10 a8 bf
       -0.192940680346448 -0.047001442369138204
0000e0 e6 c6 55 f2 ed 5f c5 3f 79 91 2b 26 1e 99 bb bf
       0.16699003536955742 -0.10780514175309532
0000f0 7b 72 dd f7 f8 7c b6 3f 53 7a 9c 1e 82 68 bc bf
       0.08784442950622832 -0.11096966979355587
000100 47 0f 04 e7 4f 64 c7 3f d3 18 bc c1 09 ed d1 3f
       0.1827487829215164 0.2800926582280116
000110 7b ba f6 fc 91 25 b1 3f e1 b5 dc 1e 81 00 99 3f
       0.06697952676652534 0.024415986546207583
000120 76 f5 7c 54 54 86 b3 bf 91 7b 4a 9e de 4a af 3f
       -0.0762684541959596 0.06111808473837422
000130 77 f8 97 39 86 90 ae 3f 0c bf 40 b5 f7 18 c2 bf
       0.05969638302848151 -0.14138695097198484
000140 e4 6f 30 cc 7b 63 ab 3f 48 62 83 6d 9c 0b b7 3f
       0.05349337451499972 0.09002092050230559
000150 9e 6c c1 f5 74 fd bf bf 62 fd 98 88 14 55 c1 3f
       -0.1249611949910325 0.13540894193463787
000160 31 08 bf 3a 3f c2 c1 bf 34 ca a1 45 4b 8e bf bf
       -0.13874044769733154 -0.12326498460769458
000170 dd 2f d3 45 58 cd af 3f fa f5 af c5 f4 1d c7 3f
       0.06211353161197029 0.1806016888876199
000180 b9 75 8d 90 e7 d8 c3 3f 38 74 f3 f1 8d cf c7 3f
       0.15505690153342558 0.1860215598489121
000190 61 c6 77 a1 b4 d3 a1 3f 5b 5e c3 cd 5b c2 c5 3f
       0.034818310461457676 0.1699938540175364
0001a0 31 53 57 47 2b 25 ce bf 79 c9 35 6f e0 a8 b0 bf
       -0.23550930961087027 -0.06507685389605013
0001b0 75 03 00 55 be 39 b2 3f da 53 c7 30 4a d2 94 3f
       0.07119359564968682 0.020333441950999155
0001c0 89 71 97 16 c4 40 bc bf 1d cd 57 c6 56 f3 98 3f
       -0.1103632502703872 0.024365764480490094
0001d0 91 a8 33 e4 21 67 aa bf 94 f3 97 c9 61 34 c5 3f
       -0.05156808767954247 0.1656610712379033
0001e0 64 5d 45 ec 9f 96 be 3f e8 c0 b7 9e ba b7 81 3f
       0.11948585050901311 0.008651216477091286
0001f0 b4 59 02 65 a9 2a b9 bf c7 b7 32 d9 4c 3d a3 3f
       -0.09830721584362473 0.03757705832809637
000200 af 04 29 7b 2e a8 b2 bf 0e cb 2c ec 3e aa 70 3f
       -0.07287874705163476 0.004068609038585759
000210 79 34 a2 df b7 14 be 3f e0 3c a2 76 d8 a1 bc 3f
       0.117503635500002 0.11184456726390435
000220 fe 19 36 88 d0 86 a5 bf 31 3a da 12 0b 00 96 bf
       -0.04204417860733044 -0.021484540010130174
000230 24 2b 77 90 ee 7d c9 bf f2 13 a9 92 9a 96 9f 3f
       -0.19915563634852973 0.030847945405429962
000240 bc 5d ec 92 53 88 93 bf e9 bd 1b 34 ce 64 d0 3f
       -0.019074731676566023 0.256152678381993
000250 71 c5 ea 46 a0 2c c5 bf 60 83 99 14 eb bb b5 bf
       -0.16542437994716466 -0.08489865544244202
000260 44 82 07 1b 5d 7a b3 3f 62 46 7d c9 6c 81 cb bf
       0.07608587179084575 -0.214887236007189
000270 e2 c2 0b c7 a9 52 bd bf aa 23 cd 7d e2 a9 9b 3f
       -0.11454259023208693 0.02701524632292133
000280 3d 8f d9 00 fe a1 c5 bf a5 d0 09 f7 7c 3b c2 bf
       -0.16900610963340937 -0.14244043409747068
000290 7f fa 1d 05 48 e3 be bf a3 52 7d 56 f8 01 b8 bf
       -0.12065553784302983 -0.09378006087838257
0002a0 b2 53 a5 22 93 3b b5 3f 9f 5e 66 9a 9c 32 b0 bf
       0.08294028850407534 -0.0632722737267337
0002b0 4a 5b 55 cc 53 15 b8 bf b6 49 33 53 a2 58 a6 bf
       -0.09407542933091154 -0.04364497438077157
0002c0 0f 5e 13 71 6d e5 c2 bf 73 84 69 83 f3 4c b6 bf
       -0.14762657185814063 -0.08711168249421224
0002d0 54 e0 c9 60 17 36 bb bf 52 af 03 9b 50 86 83 bf
       -0.10629411805155203 -0.009533529024757268
0002e0 54 44 b4 24 fc 3c bc 3f db 14 d3 d7 f0 47 d0 bf
       0.11030555626008837 -0.2543909175549978
0002f0 2d 05 a2 69 76 4d b0 bf ab c0 85 a9 fe 00 b3 3f
       -0.06368198470047011 0.07423392904979902
000300 5b 07 f6 f6 b3 d9 c0 bf 02 07 ba be c9 8f bd 3f
       -0.13164376791615492 0.11547528177655056
000310 d1 f1 92 87 cb a2 97 3f 61 26 cd 6f 54 f7 a5 3f
       0.023081951284199157 0.04290260185969142
000320 9d 94 8b 1b af 18 b2 3f 8b f0 a1 ea 65 9a c9 3f
       0.07068914816371082 0.2000243564288023
000330 9a 98 a3 c8 60 e1 83 bf 4d c6 7d 7f 2b f0 ad bf
       -0.009707218287484932 -0.058472976029304215
000340 dd 63 56 f3 4a e8 bb bf 5c e8 db 93 2f e1 d1 3f
       -0.10901325646263112 0.2793692535339056
000350 39 2e 93 cc 4a d8 b6 3f 36 ea fc 48 66 5e 9c 3f
       0.08923785681252462 0.027703855709868296
000360 08 2b b7 eb 81 4e b5 3f 34 3b a1 02 eb 1d bd bf
       0.08322917942784269 -0.11373776258663498
000370 de 79 9c 79 4b 3a b2 3f 5c 4d 0a 27 4c aa 9a 3f
       0.07120200842880517 0.026040258295848204
000380 34 48 76 6b 67 d4 ab 3f b8 85 01 13 ee 56 74 3f
       0.054354888790058814 0.004965715386874896
000390 34 a9 8c 47 a7 d8 b6 bf 6e e0 b8 54 40 84 c6 3f
       -0.08924336907208358 0.1759109891588681
0003a0 6e 31 3d 8e f6 dd 86 3f ac f6 b1 c1 28 82 a3 bf
       0.011165548530379179 -0.03810241093104358
0003b0 cb c0 04 ea 6d 8c b1 bf 65 ef 76 49 d2 e1 7a bf
       -0.06854903186172405 -0.006563016351204575
0003c0 a6 49 bd 17 db b7 c4 3f 09 db bd 21 39 d7 ca 3f
       0.16186083468580853 0.2096930899385472
0003d0 4f e5 03 c1 f0 c3 b4 3f ea 68 09 ef a5 0c a4 3f
       0.08111481392179097 0.03915899794510998
0003e0 49 ca af f7 78 d6 c3 3f d3 2f 15 cd a0 0c b4 bf
       0.15498268217159453 -0.0783176899614653
0003f0 1f 25 81 47 a5 b1 89 bf 35 6d ad 3c 5e b1 ce bf
       -0.012545863384860355 -0.23978784525648114
000400 00 aa 5d 1e 52 f4 b9 3f f3 c4 40 f5 cd 2a ca 3f
       0.10138428918222786 0.20443129039043803
000410 03 d4 c9 b9 b8 ac c5 bf c0 27 05 f6 44 25 b9 bf
       -0.1693335444612388 -0.09822493559218426
000420 ea 4f b1 c1 c2 25 9b bf 2c d0 17 96 9d 0b 90 3f
       -0.026511233398494406 0.015669309888792934
000430 29 6c c4 4b 9b 40 91 bf 09 3c d1 de c6 46 b8 3f
       -0.01684801721522092 0.0948299688327411
000440 de b2 3f 7a 52 43 cd 3f 03 61 5f 32 be cb c9 bf
       0.22861700982266248 -0.20153024158094732
000450 2f c1 9b 16 d8 06 c5 bf b1 2f 24 ac 09 fc 90 3f
       -0.1642713652031573 0.016586447841333733
000460 b6 a3 5a cf 68 80 c1 3f ad 97 78 2c 69 dc d2 bf
       0.13673124432287204 -0.29470280974271185
000470 4e 5b 41 5b 4f 96 91 3f 2b 16 5d 86 b7 9e aa bf
       0.01717494959333559 -0.051992163802918455
000480 5c 8e 4c a4 8c 5d b5 3f c4 5f e1 00 b0 28 bf bf
       0.08345870028693397 -0.121714592184957
000490 e9 96 d2 43 12 e4 a7 bf a3 d2 ab 37 ed 71 c2 bf
       -0.046661921290519555 -0.1441017648536632
0004a0 b9 8c b3 95 03 55 c2 bf e0 18 82 9c 3d 09 94 3f
       -0.14321942147862446 0.019566500356199223
0004b0 32 d3 28 d0 f2 8c 9c bf 58 f5 5d 50 93 01 b3 bf
       -0.027881425814672407 -0.07424278938375062
0004c0 ce d1 bc e9 f0 92 c5 bf d0 14 b3 d5 19 3d b1 bf
       -0.1685467854782829 -0.06733857600473248
0004d0 f9 2f f7 43 39 f3 b8 bf 05 ca f8 50 bb 4e 6e bf
       -0.09746129903140845 -0.0036996515771303717
0004e0 a4 97 5c af cb 02 c0 bf 21 26 9e e7 d5 16 98 bf
       -0.12508531630117858 -0.023524610769106617
0004f0 48 16 6d 4c bc 00 a8 3f 3f 60 08 9c 43 65 bc 3f
       0.046880611733780386 0.11092016753571075
000500 fc c3 1c 66 3a 2e c9 bf 1d 2e f9 ac c6 27 b3 3f
       -0.1967232702823195 0.07482568476660174
000510 3c 89 05 bd 1c 06 c2 bf 30 34 de 88 59 13 96 3f
       -0.14081153134891078 0.02155818841815832
000520 bb 55 d6 93 e1 0d aa 3f 87 b3 f9 c0 60 a9 c4 3f
       0.05088715486196401 0.16141900465609302
000530 3f 87 21 f2 fe ec b1 bf 3f 9e cc 09 2f c7 ca bf
       -0.07002252017403253 -0.20920360544663372
000540 b4 e8 18 bb e1 ce c3 bf 0b 55 9f 83 6e 5c b3 bf
       -0.15475103030786885 -0.0756291457504014
000550 29 4e d6 5d 12 69 c0 bf 3b 71 d6 0f 12 bf c8 3f
       -0.12820653516665573 0.1933310105640745
000560 bd 1c 65 5e da 65 bf bf 7a 28 59 0e f4 3e c0 bf
       -0.1226479034859151 -0.12692118359183607
000570 e4 21 f7 fd 11 ae ca 3f 8f 91 d3 e5 7a 9d ae bf
       0.20843720341350924 -0.0597952275800565
000580 0a b9 77 b2 ba 0b ab 3f 4a 06 00 45 3c 43 c2 bf
       0.05282386234817878 -0.14267686242242156
000590 54 d7 33 a5 a1 5e 98 3f 8c 78 10 97 97 47 a6 3f
       0.023798490245972317 0.04351495474860298
0005a0 6e 69 cb ce cd 76 c5 3f db 73 3e 0c 2e 93 c2 bf
       0.16768810841933707 -0.14511657331323033
0005b0 4c 75 a6 f6 b5 d7 be 3f e1 7e 4b d7 56 fc 9e 3f
       0.12047898551687303 0.030259472742612984
0005c0 62 22 ac df f8 6b b0 bf ec f1 74 b2 31 50 bf bf
       -0.06414752445938057 -0.12231741530280943
0005d0 a5 1f 4a 0d 21 24 86 3f 4e 23 66 cb 1f 62 c5 3f
       0.010811098306717623 0.16705701285925517
0005e0 5d db ba 85 9b 93 a0 3f 67 15 a3 1e 26 57 c7 bf
       0.03237615592427432 -0.1823470735163639
0005f0 9e 81 67 e5 8d c4 b8 bf 27 37 b4 f9 cd ce b3 3f
       -0.09674918032351917 0.07737433763778921
000600 2c 5a be 7a a5 0e c5 3f b1 7e 0b 2f 96 e4 d5 bf
       0.16450947278345163 -0.3420768222258444
000610 da b6 3d e9 6f 1d bb bf 0d fb 14 d8 51 04 cd bf
       -0.10591792530405134 -0.22669432688595528
000620 5c 34 8a 69 bb 5b c7 3f ec 52 2f 16 7e 82 bd 3f
       0.18248694089234874 0.11527240792868171
000630 b4 99 8b af 60 3b d0 bf 86 be 2b 33 e4 52 ce 3f
       -0.2536241258916576 0.23690464495256353
000640 c6 e1 07 bb 7e 3e bb 3f 28 c5 f2 77 08 a2 a3 3f
       0.10642234865361563 0.03834558929646398
000650 d9 40 ad 17 40 a8 d1 3f 17 33 77 22 b0 e4 be 3f
       0.2758941870897736 0.12067700234838373
000660 60 0e 22 cd c2 26 b4 bf 97 36 2a 42 2e 4f dd 3f
       -0.07871644504671726 0.4579578062192495
000670 13 fa 65 1c c2 d3 b4 3f f4 49 af 54 57 c5 ca bf
       0.08135617440527936 -0.20914737353321267
000680 63 1c d7 c4 01 6b b4 bf 70 9f 41 79 e1 02 ba bf
       -0.07975779586478064 -0.10160645685539094
000690 04 40 f3 49 04 bc d7 3f 15 e3 61 d5 e0 bd b3 3f
       0.3708506319208029 0.07711606225519703
0006a0 eb a7 3d 69 e0 11 ca bf 52 5b 8f b8 cb 77 d4 bf
       -0.20367055071557102 -0.31981175445019006
0006b0 f2 c3 4b 53 69 0d b3 3f 14 6c 52 3b 18 f9 b8 bf
       0.07442339213936558 -0.09755088280000762
0006c0 a1 2b 77 3d 7b 12 7f 3f ff e0 f3 59 6e 70 c8 bf
       0.007585984617842907 -0.19093112365931827
0006d0 9b 42 93 64 47 ec 80 3f 93 ad 86 cf d1 f8 b0 3f
       0.008263166195690721 0.06629668537669024
0006e0 6f 92 55 d4 08 a9 c5 3f 69 69 4e 31 92 88 b9 bf
       0.1692210232532889 -0.09974015907065382
0006f0 8b f7 ad dc 2b 71 c9 3f dd 65 1e 13 e4 8d c5 3f
       0.19876621508950296 0.1683926671365005
000700 f9 c5 ad 3d 67 63 bf bf 6a 92 c1 2e e6 02 c0 3f
       -0.12261052375631455 0.12508847506537119
000710 80 5b 92 f5 bc 9c a4 bf 22 58 4e 59 06 bc c2 3f
       -0.040258316971793384 0.14636306152959927
000720 41 d8 a1 0d ec f6 c2 bf 6f 2f e3 33 fb b7 8a bf
       -0.1481604639590746 -0.013046228905657846
000730 c7 e5 5a db 4d 8c c8 bf bc 0f 9d 7a 7c 4c b6 3f
       -0.19178174219795904 0.08710458749288724
000740 aa 88 5a ce b9 5a b2 3f f9 e1 3f 88 bf 30 c4 3f
       0.07169686592036109 0.15773767617044124
000750 0c 43 0d 6f 29 18 91 bf e6 43 ed 9e 5d ee b0 bf
       -0.016693732646049717 -0.06613717203187228
000760 c7 80 b3 29 a7 91 ab bf 42 0a 97 26 80 d8 b9 bf
       -0.05384561904952672 -0.10095978681696585
000770 5b 31 16 11 a4 9e ad bf 20 90 77 59 bd ca c3 3f
       -0.05785095890596167 0.15462462299831348
000780 3c 0a 53 f2 ee ae a2 3f 5b 4a bb 34 e5 53 b7 bf
       0.036490885811435864 -0.09112389123337421
000790 f3 ff 1c 77 c4 54 c0 bf 3f bc 0c 9c db b8 c3 3f
       -0.12758689704969547 0.15407891387573788
0007a0 19 80 64 71 2c 1d bc bf 30 40 bb ec 46 73 a1 bf
       -0.10982015388844991 -0.034082619092828614
0007b0 2a e7 e0 48 2b 1f a4 3f b4 0f 50 4d bf 5f c3 3f
       0.03930030121450863 0.15135947489772905
0007c0 34 6e 90 2f 2d 52 89 3f 77 8c 5a 29 97 9e b1 3f
       0.012363770498317363 0.06882614860164603
0007d0 5d 0b da 5f 80 14 a1 bf 94 5f f2 b4 d7 e1 bb bf
       -0.033359538746501306 -0.10891483466764235
0007e0 5f 1b cc 9e 23 3c c9 3f 78 f0 16 4d ea 44 aa bf
       0.197147800958386 -0.0513070315459751
0007f0 24 75 96 95 e6 e9 b8 bf 05 fb 77 3f b3 d4 b4 bf
       -0.09731904174846712 -0.08137054729011702
