runs/height_prediction_5k/model_best.ckpt (torch, 213594 bytes, 23 tensors)

gnn.conv_layers.0.lin_l.weight f8 [32, 3]
000000 58 66 f9 3e bc 1c b1 bf 46 a0 55 41 e8 87 b0 3f
       -0.06684471642929546 0.06457378001289368
000010 72 cd b4 3a a9 4b c0 bf 8b 3a 8f e9 42 d6 b1 ab
       -0.12730899206654162 -3.261986986531307e-98
000020 17 65 b5 1a 1e 11 b3 2b 4e c4 80 c1 8a 27 bc 2b
       3.486909916560841e-98 5.1488310283881176e-98
000030 81 e5 f3 3e ab 3e e1 3f 22 0c b3 47 db 83 cf 3f
       0.5389000157876326 0.24621144295642333
000040 df cb f5 71 ca 29 c8 3f 4f d3 e5 27 ce ab c5 bf
       0.18877535404644072 -0.16930558155186268
000050 2c 72 c5 40 31 77 90 3f e7 9e c5 06 0e a9 c4 3f
       0.01607968290169219 0.16140914278661642
000060 f3 74 6b 11 da a2 e9 bc c9 b2 8e c6 ea 49 87 3c
       -2.8461832839792122e-15 4.039952164744545e-17
000070 a5 59 15 91 96 f9 3e 3e 90 09 f0 22 f0 06 b6 3f
       7.2119184108459955e-09 0.08604336598367568
000080 0c 80 69 cb 80 00 db bf a1 fb 18 5a b3 79 a0 bf
       -0.4219057070204151 -0.03217850184272853
000090 b3 8b 40 ab 1f cc 6b 25 50 99 90 1f 38 eb 7a a5
       2.0050969856831553e-128 -3.883452137220293e-128
0000a0 0c 07 e2 83 a8 ad 84 a5 4d 69 30 c2 0c 1c e9 bf
       -5.966337102827243e-128 -0.7846740525012962
0000b0 7d 33 df 0a 73 29 c8 bf 7f 7d 20 3d c7 d5 d0 bf
       -0.1887649348340367 -0.263047990507367
0000c0 48 de 30 c2 82 92 e3 bf 46 b3 21 eb 99 af d1 bf
       -0.6116346161642889 -0.2763428493697585
0000d0 16 77 87 d4 cb 9e cd 3f 45 27 6b ae 1a a4 dd 3f
       0.23140857579613144 0.4631411269480064
0000e0 e5 4a 0e 83 6d 32 c0 bf bd 87 b4 b2 f2 42 d7 bf
       -0.12653893374643768 -0.363461184040826
0000f0 ee e6 f5 15 39 b7 e1 bf 7f c8 ee a8 5e c6 c8 bf
       -0.5536160878102387 -0.19355376480740813
000100 57 2a d4 91 08 a5 d5 bf ec 81 a9 45 4e f7 d6 3f
       -0.3381978439435093 0.3588443451208423
000110 c8 ea 57 48 98 57 d1 3f f1 c2 e5 4f 97 f3 7c 3f
       0.2709713655928394 0.007068244040383518
000120 f7 64 9d 84 f6 1a dc bf 12 92 04 73 61 38 ae bf
       -0.4391456885401363 -0.05902390030886208
000130 69 f9 52 99 35 2b c6 3f 32 e6 21 32 40 ad 90 3f
       0.17319364534882745 0.016285899219360363
000140 15 8b 76 aa 3b ed ac 3f 86 94 8f 4d 4e 3d af 3f
       0.05649744468543908 0.06101460167682497
000150 aa 44 9c 2e 58 4a de bf aa b5 94 cb f2 a5 c9 bf
       -0.47328762580679984 -0.20037684383843885
000160 46 8c a3 63 9a 88 e7 bf f9 3a 25 e5 12 db ef 3f
       -0.735425181014201 0.9954924083229734
000170 b5 c1 92 10 68 64 ab 3f 87 ff 4b f7 f7 65 b5 3f
       0.053500415824035676 0.08358716762086092
000180 0b 4b c3 ab 71 c3 d3 3f ef bd 52 f9 ee ac bd bf
       0.30880395673482103 -0.11592000567429016
000190 c4 3a 0d be 18 dc c3 3f 4b aa c9 d9 8d 95 3f 38
       0.15515431671015822 9.281760911154668e-38
0001a0 66 9c 9d fe 79 0e 57 38 ec 99 40 de bd 7b 61 38
       2.710284308691196e-37 4.110319571737834e-37
0001b0 41 c4 f7 de 6d 50 d8 3f f0 93 ad 7f 6d 90 a9 bf
       0.37990900778010334 -0.04993002112932021
0001c0 17 86 d6 db 02 8e bd 3f 6e cc 33 d3 31 eb a7 a0
       0.11544816844118376 -2.2834435953051954e-151
0001d0 2a af 30 4f c2 05 a3 20 80 40 43 a7 05 4d 92 20
       1.816016102815321e-151 8.73562275794094e-152
0001e0 9f 69 1f a9 1e 19 c2 3e 5f b6 c8 4f e7 c7 20 3f
       2.15746451546796e-06 0.00012802790287607093
0001f0 a2 1a 50 31 2f 27 65 3f 11 22 21 9e e3 a1 30 3f
       0.0025821611147905524 0.0002537899691828225
000200 5e 8c 06 98 86 c6 77 3f e8 b8 2d 2d 12 94 8d 3f
       0.005804563290811774 0.014442579272977388
000210 04 8c ff 97 dd 00 e0 bf 6f 4b 09 44 a7 7e d9 3f
       -0.5001056641307291 0.3983553089539588
000220 2a b3 4f a8 dd 29 d7 bf 4d 17 d1 e5 06 2c cb bf
       -0.3619302886643704 -0.21228109571000645
000230 aa 02 54 db b4 e7 aa 3f 15 99 cf d9 67 64 e0 3f
       0.052549030087907525 0.5122565511817664
000240 de a3 69 a6 36 7e a6 bf c0 b2 5e 0d 78 a3 c5 3f
       -0.04393168240932942 0.16905117657497293
000250 55 09 7e b0 47 ba ed bf 88 fe bd 21 45 13 dd 3f
       -0.9289892623058146 0.45430115027554807
000260 9b 6c 69 23 b5 4d a2 bf 42 da 38 0f 0d a7 c5 3f
       -0.03574911172173608 0.1691604923559727
000270 79 14 12 c6 db f1 b0 bf c3 de 49 a7 70 d6 d2 bf
       -0.06619046769817939 -0.2943383821179674
000280 5b ec 87 46 74 1d b9 bf 00 a5 d9 14 60 a9 6f 36
       -0.09810568544337299 1.733100888991949e-46
000290 df d4 9e 8f ef 55 88 36 49 bc 6c b9 70 97 85 b6
       5.328368804123853e-46 -4.727535183822747e-46
0002a0 c5 1a 9b b5 dd c1 b1 3f 78 f9 67 f4 fe 47 cc 3f
       0.06936441119897115 0.2209471410169035
0002b0 cb 3a c7 bf eb b1 d7 3f 51 0b ce 59 ca 3f e4 b2
       0.3702344296297439 -1.5382197885812913e-63
0002c0 74 0b d8 08 6c 00 d3 32 84 c1 78 c4 c8 16 c5 32
       7.217257615534737e-64 4.005040747724046e-64
0002d0 91 8e 36 a5 bf f5 92 2b 51 38 93 61 c3 99 f8 2f
       8.668396042278501e-99 1.327845326688077e-77
0002e0 67 76 d8 22 cf b9 7b b1 42 07 3b 73 cc 66 c4 3f
       -2.5107610001114038e-70 0.15938716532223834
0002f0 2d 72 e7 c9 7d 0c d0 3f 79 af 4a b1 02 d7 ce 3f
       0.25076241223522083 0.24093660027335398

gnn.conv_layers.0.lin_l.bias f8 [32]
000000 4a 86 82 ca 0f df f1 3d af ce b3 9c 64 ee 23 bc
       2.6006214760657605e-10 -5.402368743083945e-19
000010 9d 3c 44 bb d1 be 9c 3d 80 78 0f b8 b4 9c 31 be
       6.5359444645014825e-12 -4.10064415840617e-09
000020 10 d4 2b 7d a1 96 fc 3c b9 88 da 7d bf a4 17 3e
       6.347900344444268e-15 1.376235562503161e-09
000030 3d 28 1d b7 82 8b 44 bc b3 e1 4d 2f 51 80 23 bf
       -2.2274893851102593e-18 -0.00014878264451191405
000040 12 90 08 d4 ba b0 37 be 19 fe 23 b9 2a b4 b0 bd
       -5.515839618850498e-09 -1.519199659413069e-11
000050 4a 8a 79 80 f3 d6 2d be c1 ab 35 4d 80 57 75 be
       -3.4737928122555604e-09 -7.950440599416897e-08
000060 ea d2 d2 b8 bb 21 2a 3e c2 5c cf bd c4 bd 15 3e
       3.0421384912793975e-09 1.2655092453476052e-09
000070 c8 8f 1a 8c b9 5c 86 be e5 0e 56 a0 a0 c9 44 3e
       -1.666114198178887e-07 9.679983934867264e-09
000080 d1 cf 2b f0 74 e7 18 be 79 34 bb a5 82 2d 46 bc
       -1.4496110429083184e-09 -2.4045191587538215e-18
000090 a1 5e 14 51 6a 18 4c 3e 3b 5a 12 be 47 5b 52 3c
       1.3082927216011812e-08 3.9804451950609285e-18
0000a0 7d ca 87 f8 32 50 70 3e 19 0c 2d 06 21 b3 e9 bc
       6.077169534944493e-08 -2.853242382156486e-15
0000b0 0a 74 f8 91 f6 77 6f be f8 9b 6e ee 73 57 18 3f
       -5.8614846528750665e-08 9.28558834930453e-05
0000c0 fc 33 ba f7 1f 42 d0 be 23 01 15 7a 3f 9c a8 3e
       -3.8762808533101025e-06 7.334453934540772e-07
0000d0 da e4 7a a3 df 73 82 be ca 83 a9 e0 32 ef 65 bd
       -1.3748281601169343e-07 -6.234122929629903e-13
0000e0 22 ec 2c 0b c8 fb 20 be 3f a0 df 20 f9 25 a9 bc
       -1.9771420832167964e-09 -1.7450161210389012e-16
0000f0 5e de ea 79 f0 41 eb be ba f9 44 db 83 d1 08 3e
       -1.2997424901114287e-05 7.223110361037544e-10

gnn.conv_layers.0.lin_r.weight f8 [32, 3]
000000 16 32 69 03 79 16 d1 bf 53 d3 4f c7 15 e9 02 c0
       -0.26699662526223855 -2.3638110705600552
000010 fb b1 c5 8f ac 2c ab bf 89 fe 02 3c a8 6b a3 2b
       -0.05307521109611809 1.775794204431225e-98
000020 6d 81 4b 02 2e 5d ab 2b 16 fb 86 31 e9 1d b6 ab
       2.502135030157628e-98 -4.044682989345164e-98
000030 51 d2 77 e2 e8 dd ed bf b8 61 b6 d9 d8 34 d5 3f
       -0.9333385871128234 0.33135052929858544
000040 28 c7 ab 66 9b eb e5 bf 27 1d 64 7f 2f 10 bb 3f
       -0.6850106244366758 0.10571572170384923
000050 53 15 8d ef 5d fb d7 3f 96 bc bf da 81 b8 fc 3f
       0.3747172202459598 1.7950457138902371
000060 ba 1d ee 23 4a a2 96 bc 08 7d 44 4a 0e 53 10 be
       -7.852726729982274e-17 -9.50207281842408e-10
000070 9a f9 4c 08 29 3c 7e 3c 67 5c b4 e3 58 45 e4 3f
       2.6224683106610258e-17 0.6334652373651694
000080 92 d6 e1 b3 21 17 f5 bf 77 0e 62 f4 12 e1 f0 bf
       -1.3181473757407827 -1.054949717160438
000090 ea 64 5b 61 92 0a 8b a5 79 f0 3a af ba 6a 45 a5
       -7.802240892514983e-128 -3.862146133871245e-129
0000a0 af 0d 5d 28 91 55 06 25 a9 25 00 74 2f 0c ea 3f
       2.5172316580414374e-130 0.8139874711643432
0000b0 da de ab f5 9c bb e5 3f 6e fa f7 93 25 52 f0 3f
       0.6791519926327638 1.0200553684259392
0000c0 57 45 bb ab f0 b0 e0 bf 84 2b 4b a8 96 6a f8 3f
       -0.5215991357928641 1.5260225843400983
0000d0 c1 f6 56 96 0c 4f ea bf 59 e6 28 7d a8 68 eb 3f
       -0.8221495567629163 0.856525654270807
0000e0 6d e2 e3 da 9a 5f e1 bf 41 41 ab 1b 44 05 f3 3f
       -0.5429205203245836 1.1887856560534404
0000f0 9d 14 89 08 c9 46 f4 3f ab 60 c6 45 85 bb ca 3f
       1.2672815640847042 0.20884767443636085
000100 bf ad b4 e1 f6 46 e9 bf 23 59 63 a5 ad b5 d5 3f
       -0.7899126442256871 0.339213763725086
000110 59 aa 8d 87 c7 d5 f7 bf 75 59 36 74 77 27 f2 bf
       -1.4896922392896583 -1.1346354045432154
000120 0e 7d e9 0f 22 3b ef bf ca 9c b1 03 be 43 d6 3f
       -0.9759683905394085 0.3478846584388974
000130 7c e8 4e 3a ff 8b f0 3f 1e c2 5c 45 dd 6e a1 bf
       1.0341789510407855 -0.034048952786523964
000140 30 8f 2f 9f 85 86 d1 3f 15 44 d2 47 6a 06 04 c0
       0.2738355688618297 -2.503132401565845
000150 56 ce 88 a1 71 f1 ed 3f e1 62 09 4c e5 41 a4 3f
       0.9357231287926406 0.03956524422819086
000160 a8 71 64 94 72 d6 84 3f 2f 28 15 01 f4 99 e6 3f
       0.01017465129239599 0.7062931080956839
000170 ca ce d6 5d e1 08 e1 3f 3f ab 75 a6 8d a2 f0 bf
       0.5323340256495268 -1.0396858694391111
000180 51 fe 19 fb ae 37 ef 3f 5a cd 25 3d 9f fc d3 3f
       0.9755473045660868 0.31229382487727764
000190 14 55 a4 26 a5 51 d0 3f 60 72 42 ff 32 1a 2a 38
       0.25498322270989715 3.835394247767918e-38
0001a0 c4 e1 a3 f4 76 6b 5a b8 16 52 8e 02 78 cb 70 b8
       -3.1056306687719527e-37 -7.896876989073262e-37
0001b0 e9 dc 5a b1 66 62 ec 3f 75 08 12 9e 7e 39 03 40
       0.887011858364443 2.403073534894299
0001c0 12 22 8d a2 03 32 c0 3f 37 53 72 d2 b6 fc ae a0
       0.1265263122279668 -2.9582442521959553e-151
0001d0 57 88 65 64 a4 fb aa 20 32 3c b3 6c fb bd 7a 20
       2.5759774427796018e-151 3.1912292091078303e-152
0001e0 2a 5a d3 b6 c7 eb 08 bf d9 3c da f3 f4 fb db 3e
       -4.753306607490169e-05 6.671954734151924e-06
0001f0 2f c0 dd fd 77 86 59 3f e6 1a 81 10 51 f8 8b 3f
       0.001557938746795894 0.013657220188304686
000200 9e d0 a4 60 c5 4c 64 bf 26 97 cf 04 cb e0 6f 3f
       -0.0024780135182940885 0.003891369362906699
000210 58 0d 06 c4 b3 a3 f1 bf 3b ca 57 88 74 e5 e7 3f
       -1.1024663598226052 0.7467596686313479
000220 cb b2 f5 70 b2 58 d4 3f 76 1c e0 d1 21 54 99 bf
       0.31791363745905404 -0.02473500102499001
000230 25 01 a9 c6 b3 5a e2 bf 50 c8 98 29 53 36 f8 3f
       -0.5735720520097273 1.5132629036784415
000240 0a 0c 9b 1c 9c c6 b3 3f 08 6c b7 26 16 bf ed bf
       0.07724929521923243 -0.9295759922200668
000250 16 82 c0 5c 57 fc b5 3f c9 c8 16 18 cf 50 ec bf
       0.08588167204334982 -0.8848643751610094
000260 94 01 e8 55 ff 0d e0 bf df ed 02 be 8f 68 f4 bf
       -0.5017086675507465 -1.275527708275028
000270 f5 79 f2 e8 2b c1 f9 3f be 5c b5 e6 69 d4 e5 bf
       1.6096610164164507 -0.6821794038795799
000280 72 58 55 1f 0a 50 cd 3f af ff 6f ef 25 0a 5a b6
       0.22900511293363796 -7.126818248206025e-47
000290 3b f6 2d 50 c4 ab 44 b6 78 44 58 c6 71 d9 65 b6
       -2.8287295373106697e-47 -1.1959968710175648e-46
0002a0 89 fa 3e 79 74 c0 d5 3f 27 cb 92 c7 ac c2 c6 3f
       0.3398715194743223 0.17781600708766485
0002b0 7d 71 6e 34 4a 31 f6 3f aa a5 48 5e 7c 7d e5 b2
       1.3870336578466713 -1.6324916014346767e-63
0002c0 74 94 28 af 60 63 cc 32 03 a1 db 53 ed 9d ae 32
       5.391240392594527e-64 1.4536243631317201e-64
0002d0 13 2d 4f a8 59 49 fa b3 55 7a 54 92 bd d0 81 b9
       -2.6173030785502916e-58 -1.0979583405780642e-31
0002e0 9a 9c 23 cc 0a c9 29 3b 3c 28 70 a7 a5 18 fb bf
       1.0664558812115238e-23 -1.6935173550177884
0002f0 c0 ac 0a 97 b9 ac a2 bf 72 e9 52 b1 f6 bf d7 bf
       -0.03647403687258466 -0.3710915309599364

gnn.conv_layers.1.lin_l.weight f8 [64, 32]
000000 5f 41 f3 d6 ae 2a bd bf 5e e4 1d dc db 96 9c b7
       -0.11393254039581312 -8.204724508429804e-41
000010 41 e7 0a 37 22 e6 5b 3f 5b b2 7f 77 89 c5 83 3f
       0.0017028173571546764 0.0096541156380791
000020 60 4c d9 0c a5 ed 7e bc d6 e9 1e a1 97 43 c1 bf
       -2.6826023794734833e-17 -0.1348752533647956
000030 78 8a 9b ff 74 37 ca a6 04 d6 7a d2 16 88 b2 3f
       -7.931742618679486e-122 0.07238905562083892
000040 06 ea be 49 91 08 aa bf 88 37 82 e6 c1 c0 93 3f
       -0.050846615078132415 0.019289998716480322
000050 2f bc 44 cb 40 25 aa bf 7f 5f c7 97 50 71 ae bf
       -0.051065468609856494 -0.05945827343720022
000060 3a 1c e1 98 a9 f1 af bf 25 bc 3d 2a fd 3f b9 bf
       -0.06239061347201198 -0.09863264352110031
000070 b5 10 00 59 a4 05 a9 bf da 06 f1 a3 8d b7 8f 3f
       -0.04887116991452115 0.015486818852994789
000080 af 58 01 b0 d7 9f 5e bf e2 fa c3 94 8f 60 a0 bc
       -0.0018691641162340946 -1.1363958991840115e-16
000090 2d 69 7c e4 79 3b b2 3f f6 7e d1 7b 64 e7 68 a2
       0.07122003391524308 -6.382032789036463e-143
0000a0 4b fb c1 9d e2 2e 49 aa 73 dd ce 6b 06 0f 90 37
       -5.490115671718207e-105 4.608618507949477e-41
0000b0 cc aa de 1b 7e f8 8e bf d3 08 a8 b4 54 79 99 3f
       -0.015122399545210462 0.024876903082266488
0000c0 88 10 f2 45 31 87 b3 bf d2 5c 71 66 fa 59 c2 bf
       -0.07628162343650235 -0.14337091447916933
0000d0 ae 19 3d 5d 4b 58 95 3f 25 8e b7 7b 27 f5 ba bb
       0.020844628873669606 -5.708500984553122e-21
0000e0 03 79 9f fa 4c 54 5a 3f 58 53 a9 4d f5 cc 91 3a
       0.0016070129154211472 1.437922473416226e-26
0000f0 80 cd 8d 3a 3f 47 d7 14 53 df 2d 01 d2 db c4 bf
       2.8322685472145802e-208 -0.1629583841092833
000100 59 d9 7f d8 6a d6 c6 bf 8a ef c6 8b 21 b7 8a b7
       -0.17841849871883644 -3.8334655289511333e-41
000110 c4 28 78 b7 84 79 b6 bf aa 2f 98 ff 21 ba a6 3f
       -0.08779172400696483 0.044388830614564626
000120 40 0e 3d d1 46 78 51 be 2f 2c 18 f4 2e 02 d4 3f
       -1.627004760021415e-08 0.31263326489778626
000130 3a f6 f5 2a ea 25 75 b4 9c 51 6b 97 61 db d2 3f
       -5.390539840533687e-56 0.2946399668410551
000140 a8 dc 98 06 25 77 cd bf b7 38 8f 8e 7b be b8 3f
       -0.23019850561261035 0.096656534485393
000150 a1 93 c6 53 86 c1 a7 3f 17 31 42 68 c4 23 c8 3f
       0.04639835140850513 0.18859152880430294
000160 02 8e 00 24 02 a0 cd 3f b0 5b 9d 25 78 65 ad bf
       0.23144556768339447 -0.057414774505267885
000170 04 51 18 87 f5 d5 ca 3f 7d 36 48 86 52 04 9f 3f
       0.20965451332507012 0.030289926000526258
000180 53 8c 14 e1 06 30 99 bf 41 69 f4 ba c7 1b d1 bc
       -0.024597270477112975 -9.497134408006242e-16
000190 75 4b 58 b7 4a b7 d6 3f bd 2c 7f 51 0f 7d fd a4
       0.3549372473218491 -1.661784841110783e-130
0001a0 ea ab c3 1c b3 59 c8 b5 7f ef 22 5d 1d a1 31 3e
       -1.3016572233050662e-49 4.1046539103260354e-09
0001b0 fb f6 20 78 98 d2 bb 3f bb ef 06 40 fe 07 bd 3f
       0.10868218357878938 0.1134032160106803
0001c0 02 98 91 15 52 7b 91 3f ad ae 18 84 4a 92 b1 bf
       0.017071993414354843 -0.06863847470293179
0001d0 b8 ff 74 00 27 c8 a2 bf c7 67 9b 74 9d 24 b3 3b
       -0.03668329125002806 4.053693767657795e-21
0001e0 2b 07 05 59 9a 1f ad 3f 89 cc 23 0d e1 8a c0 ba
       0.05688173615136657 -1.0690337810082594e-25
0001f0 0d bc 7c af 53 94 b3 14 e3 16 c0 10 2f f7 a7 3f
       5.955557743999325e-209 0.04680773810836827
000200 38 bd 14 6d 18 8d ac 3f 37 17 55 a6 98 b2 c7 37
       0.0557639725833447 5.440711719741551e-40
000210 4c 97 72 36 3d 8f aa bf b0 e1 81 59 d1 8a c5 3f
       -0.05187407769817173 0.16829888220287392
000220 ff 04 50 93 66 07 0a bf 14 60 3f 16 fa 23 c5 3f
       -4.9646203855511e-05 0.16516042791659002
000230 d0 74 0f cd 7c 9a 6a 32 48 0f 97 5b bd db a7 3f
       7.894219418411428e-66 0.046598355703763306
000240 9c 38 90 6c 88 a9 b8 bf 24 d6 82 bf 0f fc 94 3f
       -0.09633686686012982 0.020492788375767415
000250 ab ce 9c 56 e2 c6 a7 3f 7e 0d 1e 43 ff f9 b5 bf
       0.0464392405250725 -0.08584590328796612
000260 88 de 4f 90 b2 45 4a bf 30 7f e2 21 cf a2 cb 3f
       -0.000801765622440124 0.21590603975800482
000270 e8 42 52 26 be 4e ca bf dc f9 1f 97 85 82 c0 bf
       -0.2055280387035261 -0.12898321036477867
000280 1a fa 15 ba b3 d8 84 bf 0b b8 ca a9 74 0b e4 bc
       -0.010178951374425305 -2.2254141740413617e-15
000290 a1 c5 fd ab 01 52 da bf 5c 1e 8f fa cf a7 3a ae
       -0.4112552814104565 -5.359797271136511e-86
0002a0 9f c8 7b 05 57 db 72 3b be ff 5d 91 7e 87 18 bf
       2.4956762488541505e-22 -9.357175835411535e-05
0002b0 1c 37 e6 5e 4f bb 5e 3f a0 94 38 8b 57 6a c1 3f
       0.0018757128815169504 0.1360577993192793
0002c0 10 a2 21 26 5c ba cd 3f cb e0 71 a6 b4 8c d8 3f
       0.23224975454219576 0.3835879922330718
0002d0 cf 12 0a af a3 01 ab 3f d4 be 91 13 14 1d ba bb
       0.05274688255034265 -5.529767265401865e-21
0002e0 fb 39 11 62 68 61 be 3f 72 2e ae b8 a9 a8 e6 ba
       0.11867382425518962 -5.857172793277745e-25
0002f0 cf da f5 a2 0f ac 7a 1e bf 09 f1 5e 82 aa 96 bf
       7.410709232576853e-162 -0.022134816212437288
000300 68 41 62 75 3d 04 c2 b9 8e 46 bc a0 c9 d5 a2 3d
       -1.7765702532217293e-30 8.565215397166438e-12
000310 32 d0 98 2f 32 a0 b1 b9 bc 34 49 61 21 9c c6 b9
       -8.690173466015436e-31 -2.2295067282995303e-30
000320 05 ec 54 f3 7e 6e 6c 3e 6a b2 2a 1f 84 e5 c8 b9
       5.295802766666373e-08 -2.4549891018233836e-30
000330 0e 48 8b 64 76 ce c5 3c 0e 7e 0c 88 59 1c c5 b9
       6.052517939615045e-16 -2.0816797958331402e-30
000340 13 08 54 29 5e 84 db 39 8e 56 dc 51 65 43 b8 39
       5.4267835680772805e-30 1.1962713129807128e-30
000350 ca d3 22 58 f8 a0 b0 39 cd b5 52 e1 57 b0 96 b9
       8.19862617803125e-31 -2.796615563476497e-31
000360 60 7e 85 fc ae 72 c1 39 d4 fc fd 73 36 a3 d6 39
       1.7205039166162402e-30 4.464469474909713e-30
000370 2c 1a d4 86 b9 d7 95 b9 d9 39 e0 c4 a7 5a 91 39
       -2.6923175166586567e-31 2.1390607417481146e-31
000380 c2 31 fa 13 e6 25 61 3a 84 62 dd d9 29 5e 04 be
       1.7315097478514094e-27 -5.927817574732661e-10
000390 0a 49 63 56 f9 8c c5 b9 42 d0 c0 b0 3b 2a 5e bd
       -2.1250610759495424e-30 -4.2867005310917337e-13
0003a0 76 9f c1 8b b0 8f 54 bc 7a 1b 37 12 e7 44 6d 3e
       -4.458518542858971e-18 5.451804188264109e-08
0003b0 98 05 59 d5 0f e0 b3 39 fd c5 e6 4d 5a 12 db 39
       9.79925067422656e-31 5.338949555467092e-30
0003c0 b7 b6 15 55 46 2d a1 39 0f 88 df de 78 bd c7 b9
       4.234421543678977e-31 -2.3409571202712932e-30
0003d0 b6 1c d8 46 29 f1 4e 3a 5e db b6 36 c3 d1 46 3c
       7.810868030019852e-28 2.474082676477858e-18
0003e0 1c 3a 43 0b fa 37 77 b9 0d 3a 96 43 a0 37 0f be
       -7.154801738395553e-32 -9.085426917514587e-10
0003f0 8a 7e 91 96 c2 89 40 bc 00 99 87 80 71 7f 86 b9
       -1.79306715196647e-18 -1.386535555548547e-31
000400 52 d6 1c 69 8d 5f 92 bf f8 f7 1c c0 64 7a c4 b7
       -0.01794262842232392 -4.701541145593271e-40
000410 ff 7f 82 c4 49 cc 7b bf d1 71 a0 e1 12 ad d1 bf
       -0.006786621241332113 -0.27618858369694715
000420 e1 db 60 ae 70 0a 31 bf 3a 76 12 82 9d 80 cc bf
       -0.0002600216961385332 -0.22267502642800868
000430 fc d6 c3 fd 40 36 c8 38 59 ef 7d ad f3 31 87 3f
       3.643006205835345e-35 0.01132574437337268
000440 e4 15 74 ad 87 4a 8c 3f 92 ba 8c e2 ac 71 9d bf
       0.013814029675368773 -0.028753949477670356
000450 2a a6 8a 5e 2e 9f c3 bf 1c 97 c9 b6 d0 0b d4 bf
       -0.15329532257355655 -0.31322114801729284
000460 d7 65 f1 fd ee 4e c2 bf 07 66 c9 1d 80 b7 86 bf
       -0.14303386115606884 -0.01109218684102854
000470 3e a6 cb 97 05 f1 d2 bf 56 12 59 7b ce a0 d6 3f
       -0.2959608061197264 0.3535648541040123
000480 9d 6b c4 6c 8f c2 8a 3f 7f 34 81 1f 1c 43 b3 bc
       0.013066406733335085 -2.6731600091701496e-16
000490 23 c2 aa e2 95 4c ad 3f 01 c8 86 7b ac 52 a0 ae
       0.057224925917925405 -4.201164809863702e-84
0004a0 1f d6 c9 d9 5f 7a e7 bd e8 db 91 a2 0c 78 19 bf
       -1.7082511524613477e-10 -9.715630643990193e-05
0004b0 a6 71 95 0e 74 14 d0 bf 3c 45 3e d4 71 9d d4 bf
       -0.2512483732623657 -0.32210965849761286
0004c0 b3 2f 52 4e 16 e4 cc 3f a8 91 6f cb 7c d3 ce 3f
       0.22571066688794658 0.2408290856684634
0004d0 38 7c dd 83 5b 9f a0 bf e2 9c e0 2a c0 2f cb 3b
       -0.03246580109293301 1.151394161880946e-20
0004e0 08 ef c5 a5 3a f9 d8 bf 0b b5 2f f0 0e 0e c3 3a
       -0.39021173657214137 1.2313950488438234e-25
0004f0 6b 5c b6 39 87 f1 7f 2b 71 8d 83 6d 5f e4 9c bf
       3.6510983016837724e-99 -0.028214922961422532
000500 66 9b 8d e6 20 a1 c8 bf 30 e1 4a 4e 1e e0 cb b7
       -0.19241725213506838 -6.399892307292865e-40
000510 2a c3 0d 0c f1 7c b2 3f c5 4d 2d b6 55 f9 bf 3f
       0.07221895736962539 0.12489829728774911
000520 c6 a8 5a e6 78 d2 58 3f 28 74 1b 84 48 42 d2 3f
       0.0015150242483437533 0.28529560948465127
000530 1d d6 57 32 35 29 36 b9 7f ab aa 3a 63 ca d2 3f
       -4.26804718032955e-33 0.2936027596394339
000540 c4 0f 2d 80 aa 43 d8 3f bd de 7a 95 ab 3a d7 3f
       0.3791300060004199 0.3629559478535887
000550 ce 86 1a 10 b7 4a da 3f e0 31 4e 52 e1 df 38 bf
       0.4108102471601399 -0.0003795552350361036
000560 64 bf 93 26 b2 f7 89 3f 1b 41 b3 67 33 1a ae 3f
       0.012679473688393457 0.05879364624854785
000570 ce b2 aa 2a 1e e6 d5 3f e5 e4 1c 94 a2 9b bd 3f
       0.34217027823141855 0.11565605274235542
000580 99 90 6c 49 ee 9a a9 3f b7 a0 49 d7 37 46 df bc
       0.050010153258228836 -1.7360718177228324e-15
000590 45 d6 08 09 f6 15 b1 3f cf c8 53 c4 e9 dc 24 ad
       0.06674134941644023 -3.200566632451404e-91
0005a0 1a a7 7d e5 5c 38 60 be 62 25 50 5d ee 23 32 bf
       -3.0212416289957635e-08 -0.00027679986425307144
0005b0 4a d3 19 17 6a 06 cc bf 7e 56 f9 bb 32 7b d4 3f
       -0.21894575241062803 0.3200194202121124
0005c0 7a 85 2b cf 72 1e ce 3f 35 17 63 ad 59 ef d5 3f
       0.23530421367381021 0.34273378307658514
0005d0 42 cf 94 44 e3 a5 a1 3f 82 d3 c6 d8 21 b2 c8 3b
       0.03446874820875091 1.045909039483451e-20
0005e0 a9 a9 d8 de 01 88 c7 3f be 55 7b 84 f5 fb f2 ba
       0.18383811360520255 -9.814609146108111e-25
0005f0 ba 16 69 b6 13 41 ea 2d 44 a2 4e 80 4b 62 be bf
       1.6497197595418835e-87 -0.11868736155032261
000600 38 2b 18 f5 66 69 08 27 74 11 61 4c 0c 89 4c bc
       1.1817082199523287e-120 -3.0938081857698672e-18
000610 8b 32 2a 2d 54 f0 32 35 25 06 93 a5 83 8a f3 a6
       1.9773013545855383e-52 -4.729662163069427e-121
000620 5a 49 a5 6a 3f fc 8c 3c ee 5d e7 53 ff b4 07 27
       5.028155437203199e-17 1.1475952227476431e-120
000630 68 e1 4c fd 38 a5 3f 3c 97 79 a1 9f 81 97 fc 26
       1.7155006169985327e-18 6.92027858418046e-121
000640 08 bf 43 db b8 01 11 a7 f8 13 6c 30 f7 13 f1 bd
       -1.6465028307966987e-120 -2.4851747085755426e-10
000650 19 7a ca b0 1f d6 00 bc 8f 12 14 29 68 4b 01 a7
       -1.140880268134734e-19 -8.371845739682691e-121
000660 ca 0b 10 6e 39 95 d9 26 6c fe 07 df 64 87 0b 27
       1.5480025153114315e-121 1.332601617886335e-120
000670 8c b2 c9 f1 41 52 2b 3c a9 47 79 5c 8e 23 b0 bc
       7.405458281363692e-19 -2.239721048890014e-16
000680 55 fd cb 5b 79 6d 54 be 79 7e 9f 6a dd 3f 9f 3d
       -1.9024715791451057e-08 7.105307371969106e-12
000690 6b 78 c6 41 c1 7a 02 a7 28 e7 41 8b 8c 29 f2 bb
       -8.945450788679934e-121 -6.153626863731896e-20
0006a0 53 7a d8 48 ea 9d 2a bc 37 be 26 e2 d7 a6 b7 bc
       -7.21451331525553e-19 -3.28233712700281e-16
0006b0 14 b3 c2 c7 4d 82 e2 a6 13 52 85 95 7f 2a fd a6
       -2.239931286579094e-121 -7.05925323248348e-121
0006c0 22 ae 34 a2 61 15 ea 26 6c 6e a2 7c 22 c0 06 27
       3.156588519243316e-121 1.1012937990957558e-120
0006d0 21 e3 28 38 0a 38 40 3c e7 22 32 59 35 7a 37 3c
       1.758457305035835e-18 1.272711132029371e-18
0006e0 28 5f b4 a5 26 6d cb a7 2f 13 83 ff fc d0 7b 3c
       -5.438010492735809e-117 2.4126846739693673e-17
0006f0 0c 39 ce 44 35 13 40 3d e6 ff 38 a9 b9 a2 b9 26
       1.1421996907011443e-13 3.8779841152250317e-122
000700 1a b1 11 cf 97 09 b5 1c d1 45 7a 67 67 7f 33 be
       2.177489290154852e-170 -4.539655422098163e-09
000710 50 94 dd d7 29 23 8a 0f e2 48 7a ce c3 e3 64 14
       8.220439762833472e-234 1.985662244462785e-210
000720 03 8c db ec 19 da d7 3d b1 50 50 39 d9 c3 72 22
       8.677291803011023e-11 9.617703935311102e-143
000730 2b 31 88 c5 27 30 43 bd d6 1b 80 dd 23 78 c8 17
       -1.363396994704981e-13 4.190002695178908e-194
000740 e9 e7 42 af 6e 3f 62 24 fa d0 8f 0b a6 29 81 93
       2.008454646482599e-133 -9.957228094560444e-215
000750 c9 64 a4 76 f2 0f 16 98 df 15 28 ff 0c 30 43 19
       -1.208908526028953e-192 5.512334744033416e-187
000760 c6 f1 27 62 93 97 78 29 fd b2 4a 68 0b b3 dd a7
       6.5445089283579915e-109 -1.1777395556698469e-116
000770 15 0b 73 86 ed 98 33 96 17 12 19 9c 6f 75 6c 8f
       -1.0000939552990801e-201 -2.2376335606724722e-234
000780 b5 81 41 a6 0a a7 c6 3a c5 9c b8 0d e1 71 c8 be
       1.4638839057562188e-25 -2.914052044794901e-06
000790 b3 45 69 c2 93 53 b9 9a c3 5f 6c e5 93 c0 55 3c
       -6.103477131098876e-180 4.716768797739247e-18
0007a0 de a0 f1 4d 2a 0d 7d be ba 51 e9 f7 03 b6 ec bc
       -1.0822499828397023e-07 -3.187561109845118e-15
0007b0 f5 a6 16 cc b3 63 fc a3 18 8c 74 60 ba 33 c0 19
       -2.441176192952622e-135 1.19157936392794e-184
0007c0 6a 22 87 17 67 a2 82 9a 76 f9 45 0e df 91 51 21
       -5.613421991168981e-181 3.435177656994241e-148
0007d0 5e f4 4f 99 f0 fa 4d 0f 48 1a 32 be 0e 58 0d bd
       5.893162405851864e-235 -1.3031342653666485e-14
0007e0 5d 5a b7 bf 5c 15 c9 15 b0 88 d5 d8 4c 52 71 bc
       1.0000464046764147e-203 -1.502399341418824e-17
0007f0 8c 30 0c 50 54 d1 2b bc 6d 51 e5 9b ce 1a 03 a9
       -7.540000730843594e-19 -3.972026838960918e-111

gnn.conv_layers.1.lin_l.bias f8 [64]
000000 2c ed 3f 7f 64 34 ce 3e 5c 6a 52 f9 02 c1 04 3e
       3.6006758765673844e-06 6.040194894979801e-10
000010 56 95 16 4b 14 e2 a6 3d 67 ab be 4b 21 e5 80 3d
       1.0406039178354923e-11 1.920743591742977e-12
000020 ca a7 2c 18 cd 6f e8 be a4 af e8 49 0f b5 db 3e
       -1.1652337666829318e-05 6.605926641738763e-06
000030 7f 07 78 ad 7e d5 f0 be 17 99 5c c6 76 e3 77 3c
       -1.605411929795448e-05 2.0719997861896785e-17
000040 c0 48 9b 5b 4a 3b 41 be ba cf eb 4f 12 08 1d 3e
       -8.024090603258561e-09 1.6898574203878053e-09
000050 8c 12 0c 9e a3 13 fc 3e a6 b4 b7 45 ea 8d 25 3d
       2.6776042321168802e-05 3.828822763220327e-14
000060 0c 9f 7f ae 31 ee 69 bc d8 70 32 3c cc e5 78 bd
       -1.1245538173229249e-17 -1.4152674129372599e-12
000070 3a 43 b9 4f 44 1c 50 be 47 2b b1 51 b6 7c 12 be
       -1.500399536412023e-08 -1.076094164096051e-09
000080 03 66 0e d9 1e fa 59 be a4 52 80 dd 38 a2 6b 3e
       -2.4192997441843338e-08 5.147174037004165e-08
000090 05 d3 6d 95 51 ab d7 bd 25 75 ff 22 ce cb bb 3d
       -8.610809752490821e-11 2.5280418546192917e-11
0000a0 ef 40 df b8 dc 3e 54 3d c9 10 36 57 d0 bf 6c 3e
       2.8770664716871407e-13 5.354969348072487e-08
0000b0 dd 2b b5 d4 16 01 fa 3e 44 4f 94 3c 17 c6 d2 3e
       2.4799589750028903e-05 4.476020827998674e-06
0000c0 02 be a4 f1 90 de 43 bd 05 3b a9 4c c1 81 ec 3e
       -1.4118057243238573e-13 1.3593128092596112e-05
0000d0 b6 35 9f 7b c4 9a 02 3d 4b 7f 88 65 dc cc 26 bd
       8.26208461250765e-15 -4.050135868539615e-14
0000e0 46 43 27 3f 2c 1b 14 be fd 88 77 03 d4 32 da 3c
       -1.1703316064640502e-09 1.454311536193499e-15
0000f0 06 f8 e3 72 9b e4 e5 3e 53 73 30 45 84 df 9c bd
       1.0439394455104982e-05 -6.5649856046906046e-12
000100 07 e2 bd 33 e8 6b 45 be 14 a5 2e b2 24 22 b1 3e
       -9.975168794910398e-09 1.021228577905498e-06
000110 27 d4 c4 20 55 8e 8d 3c 7e 78 7a b0 79 f2 f7 3d
       5.127146355089537e-17 3.484771780845617e-10
000120 5b 94 c9 61 f5 ea 03 be 0f b0 da 8c 2f 4a 04 3e
       -5.796844701953449e-10 5.905105516621089e-10
000130 59 37 8c db 84 8c 25 bc ab 1b 79 b7 8b dc bd 3c
       -5.840841657507395e-19 4.144116564842503e-16
000140 b5 3f 42 8d 10 39 30 3c 99 69 38 0c ee af 0c 3d
       8.79445648808328e-19 1.2739687558299537e-14
000150 36 8f 64 1f 2a 2c 84 3c 2b ab e1 5d 04 9a bf be
       3.4993740093653426e-17 -1.8836038786727658e-06
000160 26 14 37 26 6f ef b4 be d4 9b 67 a8 fc c8 e1 3d
       -1.2478405090204745e-06 1.2940367198132556e-10
000170 ec 43 b1 bd 17 3b 02 bd 4a e7 f6 a3 ab b6 d1 bd
       -8.096115337563203e-15 -6.444154323971263e-11
000180 49 72 ab c7 88 d4 9f 3d 93 cf 80 a2 38 19 6c be
       7.237352314531288e-12 -5.233757277602528e-08
000190 35 d8 76 54 60 50 d1 3e 12 97 55 e1 56 95 30 be
       4.127972096970276e-06 -3.861113669544564e-09
0001a0 75 2e c7 b6 b4 62 24 3c ef e1 a0 14 c3 db 1d bf
       5.525519813956174e-19 -0.00011390093018882168
0001b0 2d 5b 7c cd 3d a6 52 3d 24 a8 90 a5 0e 0a 90 be
       2.650236372977434e-13 -2.390039859934717e-07
0001c0 fe 09 dd 80 4a 2b 2c 3e 15 0d df bc a5 b1 48 bd
       3.279315491818103e-09 -1.754609627923405e-13
0001d0 7c d7 6c 9e ef 11 c0 3e 35 1e a7 50 df a9 ec 3d
       1.9157007388426666e-06 2.0855487504190176e-10
0001e0 02 9f 9a cc d0 c2 33 3e e2 e3 b1 27 9a a7 e8 3d
       4.600966005463402e-09 1.7938652286477047e-10
0001f0 fd aa 59 9c 63 ab b8 3e de 10 a8 57 49 42 64 bc
       1.4704161101173885e-06 -8.785911068266942e-18

gnn.conv_layers.1.lin_r.weight f8 [64, 32]
000000 85 e8 78 af 1a 3c ab bf 3f 09 d7 b9 8c 6a 9b 34
       -0.05319293395992112 2.7952986929965588e-55
000010 a8 35 eb 28 1c be a8 3f 2f ef 7f a3 b1 09 b8 3f
       0.04832542418953817 0.09389791719143824
000020 f5 c5 b1 c2 5c 78 50 bc 9e 68 d9 55 79 18 dd 3f
       -3.571397824456038e-18 0.45461877235141823
000030 7d 25 7a 00 84 98 08 a4 5c a6 60 82 65 bc dc 3f
       -4.229921192701982e-135 0.44899881107503403
000040 05 b4 97 9d f6 e9 cc 3f d8 e2 59 e9 48 65 d1 3f
       0.22588999457312312 0.27180693424410896
000050 86 4a 38 f9 52 ff d8 3f 60 9e be ea 76 d0 b4 bf
       0.39058374727134326 -0.08130591612882077
000060 7a 3b c0 d3 fb 93 c8 3f 73 df 19 4c 26 19 b3 3f
       0.19201610412025244 0.0746025024217241
000070 e3 92 bd ac ee 9f dc 3f 17 64 c2 14 c3 fa b5 3f
       0.4472614943427244 0.08585757500476664
000080 6c 04 04 46 f3 83 b4 bf d0 e6 7f ef 82 df a7 b9
       -0.08013840159766666 -5.885171469855707e-31
000090 f0 1d f1 1a 09 f3 c0 bf 0e 10 5b f2 38 89 ce 9f
       -0.1324168569137636 -1.7792818783318806e-155
0000a0 2b 40 78 91 8a 92 2d 2d 6c a2 9c 8d 33 ed 14 b7
       4.536681486471556e-91 -2.345949395711812e-43
0000b0 e2 81 d0 d7 e2 dd b2 3f 02 ee 76 42 c6 52 aa bf
       0.07369821328075646 -0.05141276894888948
0000c0 92 b1 69 72 d9 62 8f 3f 8f ab 52 fe d4 0f c2 bf
       0.015325259021857805 -0.14110815446960287
0000d0 9b dd 11 8a fe f3 e1 3f 5f da 66 16 e2 73 a4 38
       0.5610344597507039 7.69343883684162e-36
0000e0 2e 0a 90 20 0a 3c ab bf 66 0a 41 9b 06 7f 9a b7
       -0.05319244048589088 -7.604034916886943e-41
0000f0 91 c8 46 9c eb a0 3e 97 eb 99 f8 b1 b9 6f b4 3f
       -1.0243536552954399e-196 0.07982979388234639
000100 5e 62 a9 4c f8 02 d1 bf ee 17 c7 24 43 fd be 34
       -0.26580626951684916 1.263841596705394e-54
000110 17 d2 b2 2c af cc 83 3f 3c ce f6 7e 6b c1 bb bf
       0.009667748023596308 -0.10842010354718296
000120 7b ba 32 4e cd 08 83 bc 1e f5 16 d6 0e 11 d6 bf
       -3.3019390542501984e-17 -0.34479113490290725
000130 3c ca f9 a0 73 3a 16 24 55 68 6e 2b 81 a6 db bf
       7.645549869809841e-135 -0.4320376323827351
000140 f0 57 8a b1 e6 9e cb 3f 2e 4a c6 1d 59 19 96 bf
       0.2157867781540399 -0.021581070368094916
000150 11 88 62 2d 23 30 db bf 12 6f 95 a8 54 2e c5 bf
       -0.42481307441823996 -0.16547640067698716
000160 05 d2 3f ac 6b 85 e0 bf b6 27 f0 76 67 cf dc bf
       -0.5162866939777478 -0.4501589452271405
000170 c2 ce b9 62 4d 67 a1 bf 6a 12 3a 58 bc db c1 3f
       -0.03399125890873968 0.13951830203963606
000180 b9 e0 15 58 f5 78 77 3f eb aa 42 57 6d f2 dd 39
       0.0057305892709040235 5.906000617153987e-30
000190 e1 71 cb 1d 6a dd cb 3f b5 20 7d 23 3a 01 9d 1f
       0.21769453482455872 2.1125745295827062e-156
0001a0 a5 9a 55 5c f0 28 a0 3a b1 9c 96 b4 e4 56 2b 3e
       2.6107754980220416e-26 3.1827282239461104e-09
0001b0 64 ce f2 43 c0 eb c1 bf 00 87 20 eb fd a5 d3 bf
       -0.14000705068393693 -0.3070063396609015
0001c0 63 fd e5 8f 75 f0 a8 bf b2 d9 d3 69 a2 30 bb bf
       -0.04870955831119763 -0.10621085246734799
0001d0 99 19 d3 19 43 cf 9d bf f2 f2 44 cd 1c 6e e0 38
       -0.029110954714974466 9.88852298218248e-35
0001e0 8c 15 a4 0b d3 b3 c3 bf 65 89 e7 52 75 75 14 38
       -0.15392530506521174 1.5030768163902131e-38
0001f0 1a f8 64 fa eb 59 7d a2 29 e6 47 4f 9e af a7 bf
       -1.5043495793216824e-142 -0.04626173703941234
000200 ed d6 18 12 cc fd d8 bf 16 af 88 b8 a9 76 d3 b4
       -0.39049054877555883 -3.175136030645993e-54
000210 b6 b2 99 23 81 28 a2 bf 06 0f e2 4f 9a 8f c5 bf
       -0.035465274425268076 -0.16844490910090587
000220 75 7c 8f 74 9b 63 61 bc 5e dd f0 0a 01 df d6 3f
       -7.541316013435468e-18 0.3573610884518156
000230 9d 0b 3c 8a c1 7d 28 24 1f 59 c0 03 cf 94 db 3f
       1.6847777654833512e-134 0.43095755926460017
000240 05 40 87 f5 37 6a a5 bf 48 0d 8b 24 19 04 ba bf
       -0.041826008531302285 -0.1016250337807395
000250 d3 68 0d 32 d3 25 ad 3f 69 9f 25 20 29 43 bb 3f
       0.056929206714544066 0.10649354014242153
000260 b9 b9 f5 21 c1 49 d6 bf 52 15 7a 72 b5 98 e5 bf
       -0.34825161281960565 -0.6748912082554546
000270 f3 18 f0 61 a5 5c c7 3f 5a 41 91 bf b1 33 a1 3f
       0.18251483232615548 0.033597521433537295
000280 c4 e5 65 3a c4 4c c0 bf 4f fd 72 be 78 98 cd b9
       -0.12734272815195713 -2.9183507270274885e-30
000290 b0 2b 87 a7 7e 24 c5 bf 89 45 0d 26 73 98 d2 1f
       -0.16517623119429237 2.1670566795356856e-155
0002a0 3b 18 c4 4e 1d 9d 8c 3c 8e b7 21 8b 6d 1d a2 bd
       4.963690647692342e-17 -8.237726774906964e-12
0002b0 34 df aa 99 0e 88 c1 bf 50 55 0d 60 b2 b9 ed bf
       -0.13696463111204482 -0.9289180637376067
0002c0 d4 a9 c5 e5 61 6f bf bf b2 bf 3c cc ae 1d c7 bf
       -0.12279331073447192 -0.1805933472874109
0002d0 88 a1 26 7c 58 d7 9d bf 5c 34 d5 75 be cc a1 38
       -0.029141790940828055 6.695533516353227e-36
0002e0 c6 bd c2 ae e7 9b e1 bf a0 2d a3 70 2b ec e3 37
       -0.5502813733382304 1.8295961474136212e-39
0002f0 9e c4 c8 db 19 da 1d a4 17 50 4a 47 c0 c6 d0 bf
       -1.0267737557192902e-134 -0.2621308036989389
000300 5e af c6 ef 0c 27 df 39 36 dd 70 77 fb 0f 02 3f
       6.143755452336407e-30 3.445135273987892e-05
000310 68 41 8b f4 19 fd a6 39 8e b9 f9 60 eb d4 e8 39
       5.667146494158151e-31 9.794385215905883e-30
000320 db 00 3c df c3 a4 e5 bd ff ff 6e 7a 27 ec f7 b9
       -1.574780164059018e-10 -1.8871507169307746e-29
000330 df dd 27 36 f5 c3 2d bc 26 19 d3 fc 0a 70 e1 39
       -8.067944202596514e-19 6.877947146584298e-30
000340 62 00 36 db 54 64 e0 b9 05 c4 af 69 79 bc dc b9
       -6.465472347553986e-30 -5.667221631834947e-30
000350 fd 6f 25 b9 85 e6 f2 39 6d c0 56 14 3f 38 e3 39
       1.4909848148313358e-29 7.580839906730584e-30
000360 16 80 89 c4 aa 92 f0 39 74 4b 9a 2a 28 5b d3 b9
       1.3073727260241492e-29 -3.81731402118952e-30
000370 ca b6 2a 01 a6 55 d5 b9 3c 5c 54 5d 2e 02 e1 39
       -4.2075009223150785e-30 6.708678228885887e-30
000380 64 19 9c f1 99 a3 42 b9 02 df e6 fd fa 0d cd bd
       -7.179507741416093e-33 -5.2850029680475246e-11
000390 75 c6 d6 82 93 07 bf 39 39 36 8f 66 38 0f ea be
       1.5298771298364695e-30 -1.2426116159060175e-05
0003a0 70 56 b6 de d1 90 42 bc 18 60 21 9c d6 83 2b bf
       -2.012897483416489e-18 -0.00020992274045528235
0003b0 82 01 34 04 eb 6e e5 39 c3 44 f0 c7 62 5a f7 b9
       8.453935793545145e-30 -1.8422323765231375e-29
0003c0 a4 0d 4e ee 49 ac d4 39 ef dd 11 72 4d ec f1 b9
       4.0770309839237685e-30 -1.4138798753079433e-29
0003d0 3c dd 6c 80 fd 64 d5 b9 d6 16 0c ee fa 7c 37 3c
       -4.21931980399851e-30 1.2732980840484146e-18
0003e0 83 f5 c6 a2 fc ca b5 39 5d 87 69 0e fc bc ba be
       1.0744737850672505e-30 -1.5937221690344278e-06
0003f0 41 fc 2b 6d 47 96 41 bd 3a 33 62 82 1c 62 d2 39
       -1.2496334549304933e-13 3.6254563194013834e-30
000400 f0 26 7a 69 7f ff ed 3f 56 f3 26 b5 4e 21 94 b4
       0.937438684473106 -2.052423104205511e-55
000410 fc a5 79 73 cd 8b 9d 3f 1f 68 e2 f2 8b db f2 3f
       0.028853616879507257 1.1786002624198841
000420 55 a0 7c c1 86 f1 7c bc 35 53 0b 05 a8 83 de bf
       -2.5104451903095978e-17 -0.47678566448785215
000430 3f 88 8b 2a 5f a6 c9 23 0a 60 f9 82 49 fe c3 3f
       2.75700449032955e-136 0.15619772811146532
000440 23 5a c7 d6 50 06 d6 3f 7c 55 92 ec e8 49 f0 3f
       0.3441354844520978 1.0180443993643555
000450 7b 15 0d ee ad 73 8f bf 75 ed cf 7c 4d 89 b0 3f
       -0.015357359721415822 0.06459507271931904
000460 b2 b6 f7 06 10 68 de 3f 18 7b 90 25 81 e6 f1 3f
       0.4751014774363781 1.1187755076750303
000470 36 e1 4c 96 bd 84 b1 bf 7d da 32 af f1 ed c5 3f
       -0.0684317104286308 0.17132397703763394
000480 01 a3 80 84 dc fb c2 bf 98 14 ef f5 24 cb b3 39
       -0.14831119985435495 9.758965089456541e-31
000490 7b 00 c8 d7 57 3c ca 3f 18 a2 eb 46 9c 27 02 a0
       0.20496652637666898 -1.692551873798288e-154
0004a0 f4 f6 dc 33 a1 31 a8 3e 5f 68 0d 2c 49 bf ef be
       7.210333945251492e-07 -1.5138249524749592e-05
0004b0 28 05 dd 95 ca b8 d7 bf 74 3b 3b f8 b5 e9 f2 3f
       -0.3706537688741087 1.182058305410206
0004c0 15 a8 ab 91 fb 45 c2 3f 6f c8 21 88 b1 85 e1 3f
       0.1427607022554304 0.5475700053050455
0004d0 ee 6e 09 23 f7 00 dc bf 59 81 b4 36 f6 b4 d7 b8
       -0.4375589220196464 -7.13403027861697e-35
0004e0 b6 43 db af 2f 57 ee 3f 5a 12 86 bb 48 08 11 38
       0.9481428560921958 1.2513401711213547e-38
0004f0 0c 37 27 d3 98 51 6c 3a ce 2e 57 89 c3 5b e2 bf
       2.8594618148867927e-27 -0.5737016375000736
000500 e3 26 0e 0a 4d d6 d5 bf d4 a4 02 d9 5c 06 d4 b4
       -0.3412048910328009 -3.266706771639743e-54
000510 87 ef 1a ea 15 77 c9 3f 47 92 90 b8 d4 5a f5 3f
       0.19894670420569247 1.3346755227622837
000520 99 90 82 95 61 b5 a1 3c 6b d5 9c dd 77 3e e0 3f
       1.2287754330729975e-16 0.5076255157825192
000530 3b 33 8b b3 a3 18 40 a4 57 90 6d cc d2 a1 f0 3f
       -4.429111258445354e-134 1.0395076737850297
000540 96 37 ba 47 f0 b6 cb bf 17 d8 66 15 34 86 d8 3f
       -0.21652034284892058 0.383191128635532
000550 d2 94 d4 35 d6 5f b7 3f 15 ff cf a8 7b b7 cc 3f
       0.09130610288828514 0.2243494581489293
000560 0f bd c1 82 8a a8 f4 3f ec e8 f4 9b 3c 01 e0 3f
       1.2911477191626692 0.500150971033944
000570 29 cc 26 93 1b 8c dc bf fd 67 5f 34 18 e3 ea 3f
       -0.4460514962221987 0.8402215025810161
000580 12 35 5b 0e dc 11 df 3f c3 28 0a 53 0a 78 c4 b9
       0.48546506311397863 -2.0183901161089137e-30
000590 2f 88 7f 16 82 f0 c4 3f 5e 4d 8a ef d1 e5 da 9f
       0.16358972643416922 -3.134569838332383e-155
0005a0 25 66 7c 83 84 71 7a 3e 1e 6c ea bc c1 88 61 bf
       9.850944670784703e-08 -0.0021404060310721415
0005b0 4c 98 31 f5 24 aa dc 3f 5c af 8c 11 c2 73 d8 3f
       0.44788478798580367 0.3820653125173885
0005c0 21 c1 4e fe 49 2d ef bf b6 db f5 7a 6d 83 db 3f
       -0.9742784468599305 0.42989670760965326
0005d0 08 0e eb a1 e2 d4 be 3f fb 54 e0 e9 09 da f2 38
       0.12043587163048397 2.2691925031967887e-34
0005e0 12 91 2e ea 1f 56 f0 3f e1 81 d4 11 d4 a3 e5 b7
       1.0210265300493728 -1.9873159745104314e-39
0005f0 53 99 21 57 42 94 06 bb b5 15 68 26 a1 a8 d2 3f
       -2.334628075102104e-24 0.29154232741015146
000600 fe a6 4b 47 20 aa f0 a6 c1 dc 5f a7 c7 bd 52 bd
       -4.033438817300888e-121 -2.663302854744927e-13
000610 23 03 00 14 8b c4 b8 3c d0 9c 98 a1 24 8d e0 a6
       3.4372153961647383e-16 -2.0030183197439532e-121
000620 aa c1 a3 02 8b 2d ef 3c 52 0a 07 fb 7a 6a e4 a6
       3.461442508069957e-15 -2.470706263741319e-121
000630 bd 49 73 23 08 2f 58 be ca dc fc 8c ad c6 29 27
       -2.2522842449431918e-08 4.991013048886024e-120
000640 48 1e f4 84 bd 82 09 27 35 0d 65 e0 f5 82 f7 26
       1.2349068419108639e-120 5.690668358097542e-121
000650 6a 67 5a 8e 4d 5d f1 26 53 8a 85 ca 4a 20 29 af
       4.202842840903448e-121 -1.6555297144243385e-81
000660 aa d6 38 2f a7 ad 1e a7 46 a6 11 46 2a 67 23 a7
       -2.970116538949545e-120 -3.756992876682803e-120
000670 90 44 f1 cc 32 86 1f 27 8b 94 1b 96 12 7a 00 a7
       3.0520102762411882e-120 -7.976012626210501e-121
000680 0d c1 14 1a 16 0f f3 26 21 76 88 ce 6d a3 c4 be
       4.612966380511646e-121 -2.4602883181973745e-06
000690 59 36 c9 02 eb 8c 01 27 02 29 e7 70 2e aa 38 3e
       8.4957216623483e-121 5.742714538666947e-09
0006a0 3b 76 a1 75 07 4c 3b bc 1d a4 56 bc e7 32 ed be
       -1.4797727292028748e-18 -1.3923095944461513e-05
0006b0 3a 6e f4 18 02 b9 f5 26 7e 78 91 75 cc f7 07 a7
       5.2576941815692055e-121 -1.1602267732673483e-120
0006c0 47 89 ff 41 dd ff bb a6 18 28 67 cf 90 70 1c a7
       -4.235567213381527e-122 -2.7533847391324496e-120
0006d0 5a 11 e1 e3 84 32 2c 27 4c ac 1d 5e 0d a9 42 3e
       5.459839592228703e-120 8.68940736353547e-09
0006e0 f7 15 47 77 82 e8 0e 27 97 a7 a0 6b ee ab 63 3e
       1.4961875404841027e-120 3.6641222903317196e-08
0006f0 12 9f a2 ef f6 cb 80 bc 3f ab d9 ce c3 1c 10 27
       -2.913769346545496e-17 1.559915147042339e-120
000700 32 75 ed 43 cd ec 59 24 a6 24 bf 36 12 e3 8a 3c
       1.4267267955862355e-133 4.6641504324314866e-17
000710 60 6f 61 2c 9b d0 d9 13 e2 4c 8b c5 6d 36 40 25
       4.792619861229351e-213 2.9236465701149935e-129
000720 04 f2 0a ca 49 15 22 3e c4 71 44 88 61 ef 37 29
       2.105156563255962e-09 3.9810397584220365e-110
000730 88 2a c4 26 69 22 26 3c a8 8c 83 c7 a1 4b b9 23
       5.999545745053107e-19 1.359452911320828e-136
000740 3d f2 7d 2c a9 db 94 2f 50 52 a5 16 ec 3e 7b 26
       1.7591175460562653e-79 2.5759723089212695e-123
000750 ae 5a cf d7 ff 0a 6b 29 a5 e9 d3 96 bf e2 e9 9f
       3.59837077162817e-109 -6.03326995499644e-155
000760 2c 7c 1d 51 1a 94 80 ad ca 0d 1a 5e c9 0d 81 af
       -1.6277107283288e-89 -7.191404130019817e-80
000770 97 9a 23 da 0b 91 dd 24 ae df e3 28 01 d6 a9 a6
       4.1654612195427407e-131 -1.954142796964029e-122
000780 10 63 bd 60 73 ca 86 1a 3e 46 e7 e6 85 3d f2 3e
       6.865507144316251e-181 1.7395328933583617e-05
000790 fd c6 6c 3b cc a7 cd 26 f5 31 eb 3b a2 6b 29 be
       8.972148043452304e-122 -2.9593291977959224e-09
0007a0 7f 80 05 92 36 de 79 3e b4 2a dd 3c f8 28 41 bc
       9.636588461014827e-08 -1.860495027078217e-18
0007b0 af aa 34 05 39 47 50 29 f8 8a 8c a3 e3 09 d5 2b
       1.0829996980534458e-109 1.5390008656997746e-97
0007c0 80 00 d7 2f 23 40 57 9f 7f 8e 0d 20 46 16 b6 26
       -1.0584132473838716e-157 3.3411705768513464e-122
0007d0 4a 15 4f 38 28 f0 34 aa ae 4d 89 d8 82 d0 01 3d
       -2.2823333707132953e-105 7.911225696388621e-15
0007e0 69 f3 ce de 7e db 08 a8 c1 9f 1f 3b 8d 89 fe 3d
       -7.885830899681483e-116 4.4437636480571963e-10
0007f0 70 ee 27 26 20 14 41 3d 0c f6 dd f9 d2 12 77 ad
       1.2135086219816852e-13 -1.1327012388096526e-89
