runs/height_prediction_5k/model_best.ckpt (torch, 120171 bytes, 48 tensors)

conv_layers.0.lin_l.weight f8 [32, 3]
000000 80 f9 66 32 65 e3 e4 3f c3 a3 1d cf be e8 c9 bf
       0.6527582153719749 -0.2024153243358154
000010 92 e5 39 fc 49 ac c3 3f ee b2 46 d5 5d f0 b2 3f
       0.1536953431675952 0.07398020226419152
000020 60 4e 05 e5 a2 6a 99 bf 38 77 5b 19 bc 24 be bf
       -0.024820847729030482 -0.11774802798342143
000030 b9 37 5f 13 a2 48 e5 3f ff 89 0e 87 78 2b e2 3f
       0.6651163462026864 0.567806495459365
000040 f0 38 71 a4 35 00 dd bf 4d 39 0f 0a 67 e0 cd 3f
       -0.45313778933349536 0.2334107207411286
000050 83 e8 ff 7b 33 2f d5 bf 9f 43 57 23 17 e4 ca 3f
       -0.33100592717494964 0.21008576608303728
000060 5e 50 af 7c a4 42 e2 3f 03 17 8e 2f 9c ad da 3f
       0.5706350741625206 0.41684631961867086
000070 22 f0 85 d2 63 c4 bc bf 9b 97 e5 bd 76 dd c6 bf
       -0.11237167253233385 -0.1786335398894011
000080 86 3a 3e d2 7c 83 e0 bf 56 f8 71 dd e3 bf e3 3f
       -0.5160507303533712 0.6171740841962314
000090 de b4 53 b2 b7 89 cd 3f 2b e1 f9 f5 83 b9 ac bf
       0.2307653065430832 -0.056102870727899955
0000a0 28 d8 e3 46 a8 53 ad bf 16 73 11 1f ea cc 8a 3f
       -0.05727887978893903 0.013086155961155959
0000b0 fa 9c c4 11 77 e0 d8 3f 4b 0b 27 c1 41 e7 d0 bf
       0.38870026335867147 -0.26411479818869016
0000c0 26 e5 f5 90 cb 33 b1 3f 43 26 35 a0 9c 1b e5 3f
       0.06719658173632989 0.6596205834441168
0000d0 71 60 b8 3e 6f 62 cb bf 93 d6 0a bb 1c 3e d7 bf
       -0.21394148409376926 -0.36316602960446537
0000e0 75 2c 33 73 45 48 da bf 29 a9 4a b1 31 e7 c3 bf
       -0.4106610894202228 -0.155492984359918
0000f0 59 9d e2 72 c4 05 c4 3f 4c ac c9 96 87 82 a4 bf
       0.15642600640897333 -0.04005836215659339
000100 16 b7 41 70 d0 8a 9c bf 92 57 23 66 f8 cf af 3f
       -0.027873284198384495 0.06213356253435544
000110 4b c2 22 a0 24 61 aa bf 12 a1 89 e7 11 84 c3 bf
       -0.05152239279539524 -0.15246795468852575
000120 4a 85 98 10 cd 0c c0 bf e8 be 18 f1 6a d2 d9 3f
       -0.12539065656987197 0.4034678797206497
000130 37 e9 07 cb 67 ba d5 bf 2e 3b 25 19 44 2e db 3f
       -0.33950228526341014 0.4246988530693895
000140 e1 ab 3a 03 8b 5f bb bf 2a 93 f6 7a 4b df c6 bf
       -0.10692662075841454 -0.17868941787778542
000150 e2 ee 03 49 0a 21 e0 bf 96 54 c5 bd bd f3 d5 3f
       -0.5040332246857953 0.34300178081805066
000160 f5 a8 c4 b1 de b5 8d 3f 3b 4b ca c7 f4 8b d9 3f
       0.014507045555167223 0.39916724692118394
000170 85 9a 93 5b 9c d7 af 3f 52 69 e9 ed ab 8f d2 bf
       0.06219185464742786 -0.2900190184933723
000180 2d f2 17 35 a4 dc e3 3f fe 23 0a 58 af cb d0 3f
       0.6206837689383683 0.2624319419633706
000190 26 c1 54 4c 5e f7 b4 bf 03 2d 99 23 5b 3f e5 3f
       -0.08189954150725906 0.6639838881759775
0001a0 14 f1 28 58 a8 84 d7 3f 9e f7 90 e3 d8 b5 ba bf
       0.3674717770516207 -0.10433726840798704
0001b0 23 ff d2 11 e6 de a1 3f 34 53 2a f9 40 55 da bf
       0.0349037071950973 -0.4114534791236111
0001c0 9e 67 51 ce bc 0c df 3f fd 4d 56 bd f7 3b c1 bf
       0.48515243671647024 -0.13464256997086457
0001d0 8d b9 14 de 7a d7 e3 bf 88 77 1e e1 62 95 c2 bf
       -0.6200537049788167 -0.14518390648020962
0001e0 78 bd 9a 95 d6 81 c1 3f 39 40 49 b5 60 06 ac bf
       0.1367748480310913 -0.05473615849462061
0001f0 72 e5 9f da 63 6b c3 bf be 77 83 24 6b a0 b6 bf
       -0.15171478438405078 -0.08838529244846335
000200 15 93 d0 1c 62 a7 e1 3f 84 24 24 e2 aa b0 db 3f
       0.5516825259006476 0.4326579292688353
000210 62 ff e5 06 52 57 d5 3f 4e b3 f0 4e 4c 25 ca bf
       0.33345461534189813 -0.20426324705604276
000220 21 b2 a9 79 2a b1 c3 bf e7 96 55 d5 fe 2c c1 bf
       -0.1538441747719768 -0.13418565193858642
000230 50 3e 7b 85 26 3f d6 bf c8 2e d3 82 3e a6 d2 3f
       -0.3476043990640152 0.2913967397296173
000240 6b 00 cd dd d6 52 c9 3f 07 09 6a 6e 3a 10 d1 bf
       0.19784055547825416 -0.26661549360882514
000250 7a 81 68 2d dd 9f dd bf 9b 0e ef 1a 01 ca d1 bf
       -0.46288232263943707 -0.27795436506515053
000260 7b e9 62 f3 07 dd bf 3f 13 fd 84 13 af 6b df bf
       0.1244664162831323 -0.4909475031490313
000270 d2 47 fc 37 e2 e6 bb bf cf 22 40 90 cc 37 dd bf
       -0.10899175516922746 -0.45653070532766277
000280 42 3a 26 59 3d 08 cd bf b4 59 4e 55 a8 d2 df bf
       -0.2268139539050527 -0.497232516581245
000290 4d 58 7b ce 55 5f c2 bf 8c 65 55 e1 29 99 c8 3f
       -0.1435343988620751 0.19217418196312186
0002a0 3a a5 55 17 89 a9 d4 bf 23 ea 4a 25 1f 95 b5 3f
       -0.32284762648358234 0.08430666599716878
0002b0 aa 69 39 73 53 5d c7 bf c4 9e 90 b0 21 46 d6 bf
       -0.18253558279213894 -0.3480304931895086
0002c0 bf 1e 36 c5 6c 46 d7 bf 62 d3 60 17 19 4d ce bf
       -0.36367339381147795 -0.23672784463419833
0002d0 7d 4e cb 1d a5 75 e3 3f 5c 05 9f 40 c2 b6 ea 3f
       0.608110960189563 0.8348094236500105
0002e0 9c c4 b9 15 e7 66 c4 3f 0e 59 b7 e0 4f 25 93 3f
       0.1593903404314333 0.018697021570766963
0002f0 c6 4a 54 25 34 48 de bf 88 2b b9 b8 09 f5 e3 3f
       -0.47315696378170136 0.6236618621709207

conv_layers.0.lin_l.bias f8 [32]
000000 d3 6c fc 13 63 31 a6 bf 8d ab e7 2c bd 48 bf 3e
       -0.04334554308862839 1.8646798484132937e-06
000010 78 de 33 42 86 47 80 bf c9 64 d7 51 ee bf 4e 3f
       -0.00794892205747931 0.0009384072943091844
000020 47 3a df 9c 21 2b b6 3e 07 0f 84 3a e1 7b b3 3f
       1.3213444733821084e-06 0.07610900572404598
000030 73 97 e3 f1 3f 2d 80 3f b2 29 0a 9c 3b 16 a9 be
       0.007898807114951478 -7.476463040484637e-07
000040 d2 46 46 ed a6 4d 5a 3f 68 f5 87 1d 66 0e ef 3e
       0.001605427755837875 1.4808771923386767e-05
000050 de a0 4a fa 6b 3c d4 3e 2d 53 4a 97 0f e0 7b 3f
       4.824643757096924e-06 0.006805478002793558
000060 30 46 3c 4d 70 af 59 bf d3 d2 ee c1 c6 8b 02 bf
       -0.001567706746702046 -3.537369069964648e-05
000070 5c cf 3a a2 71 3f 91 be f4 83 98 1a 35 1b a1 bf
       -2.5701266024722585e-07 -0.03341070127158466
000080 eb d6 f2 88 63 3c ea be 5f aa 01 f9 e3 c8 ab 3e
       -1.2510249034351997e-05 8.280494388062215e-07
000090 e7 95 37 98 5d 39 b0 3f d7 f5 b0 7c 4d af 77 3f
       0.06337532964933922 0.005782416042220593
0000a0 8c be 31 ea 63 5d 8f 3f e8 e5 64 91 dd a3 07 bf
       0.01531484659628226 -4.5089911667916237e-05
0000b0 8c 3d 00 0d 99 8b 92 bf 24 e1 59 d9 dc 1e d4 be
       -0.01811064855433879 -4.79711470335206e-06
0000c0 c3 7f da 68 c2 70 f0 3e f9 fb bb f8 8f 43 b0 bf
       1.567885060771414e-05 -0.0635309202443607
0000d0 25 e7 e2 02 02 d1 bc bf 09 6f a9 7e c8 92 be 3f
       -0.11256420679538033 0.11942723362284026
0000e0 58 36 77 9c 39 9e b8 3f 73 a3 c1 95 e0 54 74 3e
       0.09616432256663054 7.574093302684665e-08
0000f0 5c f8 0d 5f 01 0b dd be 0a a8 f5 3e f9 1f 7b 3f
       -6.924388331051587e-06 0.006622289292275605

conv_layers.0.lin_r.weight f8 [32, 3]
000000 7c 0d 23 2d c3 73 e1 3f 39 c0 0b 72 e4 68 d4 3f
       0.5453811532574231 0.3189021218995581
000010 34 f7 d4 b7 e6 5e b5 bf 3e fa 42 bf 98 ec dd bf
       -0.08347932804187225 -0.46756571462529795
000020 34 d5 8f 90 7d 44 dc bf d5 bf 0c 7b d3 05 c6 3f
       -0.4416803275810992 0.17205279835024948
000030 38 eb c2 ea 79 ba 94 3f 56 ed 8a be 38 ac aa bf
       0.02024260039682277 -0.052095196971516586
000040 5f db 95 1d d4 3e ba bf 0d 31 31 ac 77 be e2 bf
       -0.10252118799495012 -0.5857504237297079
000050 00 4b 19 6d d0 8a e1 bf 19 dc e8 1f 6b b4 ca 3f
       -0.5481950884662581 0.20863093431555127
000060 9c e8 b0 a6 14 07 9f bf 07 97 f9 ff b3 fc c6 bf
       -0.03030044810677933 -0.17958688734795933
000070 ab 07 4f 12 60 e5 d2 3f e9 df 3f e9 e0 c4 c0 bf
       0.2952499560161594 -0.13100825680862663
000080 7c be fd 91 0d 0a cc bf 3f 25 46 7d 03 1a b0 bf
       -0.2190567934844586 -0.06289693649718674
000090 ca 94 95 d2 71 1a e0 bf 79 7d 12 d1 d2 85 d4 bf
       -0.5032281029677048 -0.3206679383965461
0000a0 0f 5e 35 c6 90 1b ca 3f 76 30 d8 47 43 1d cd bf
       0.20396623304507996 -0.22745553024322235
0000b0 54 72 3d 5f 7b b5 df bf bf 4e 14 68 cc 53 d8 3f
       -0.4954517774656655 0.3801146522903131
0000c0 c8 de 86 c1 97 b4 ce bf 42 7e 9f e8 a1 cf cd 3f
       -0.23988625478317815 0.23289893969102776
0000d0 86 f9 9d fd cc ca de bf a8 bd b6 4a 9d 65 e0 3f
       -0.4811279751519567 0.5124041041616936
0000e0 c3 cc 0d aa 2c bb c4 3f 3e 1e be 66 53 d9 b1 bf
       0.16196211150563586 -0.06972237833371595
0000f0 5b 74 43 3b ed 44 aa bf 59 5f 97 c9 11 49 d2 3f
       -0.05130711887770963 0.285709807268622
000100 1d 7f 39 2a 1f f2 d7 bf 9e a5 8b 20 01 70 e2 bf
       -0.37415293811317146 -0.5761724124578682
000110 23 1a d2 07 87 11 dc bf ca c2 6e 6a 48 03 c9 bf
       -0.4385697914480337 -0.195412685364792
000120 7f 5e 40 1f 72 42 e3 bf 06 a8 8a ad 4e a1 c6 bf
       -0.6018610582713818 -0.17679770921432708
000130 37 21 9a 51 89 21 e5 3f 30 d7 36 6a 49 e5 c8 bf
       0.6603437989988724 -0.1944972771286131
000140 08 36 b1 13 50 9d d8 bf 14 aa 1f e9 f9 1c e1 bf
       -0.3846016113573971 -0.534787135429101
000150 c9 29 de 6a 1e 6c b5 3f 69 49 f4 29 6d f6 d8 bf
       0.08368101224019776 -0.3900406751355577
000160 4d 2a 1b 9c cc 6a da 3f 6f ad c2 97 16 d2 cb bf
       0.4127685093377849 -0.21734888467959076
000170 25 93 15 8a 4e c3 c4 3f 85 11 31 1c 6f 20 e0 3f
       0.1622102903594619 0.5039592314356446
000180 d0 01 b3 da 9a 1e c6 bf 0d d9 d5 1a ba b4 c0 bf
       -0.17280898741411344 -0.1305153494865369
000190 b1 ac c8 6e 9d e2 c7 3f 0c 3d 5f 72 0f 79 bb 3f
       0.186603240102476 0.10731598417554639
0001a0 df f9 63 16 57 80 be 3f 86 a8 c0 59 c3 d5 96 3f
       0.11914581581729732 0.02229981646829817
0001b0 65 6d 11 ec 82 9c 70 3f 77 dc 96 c7 02 4f b2 3f
       0.0040555109163407975 0.07151811001573259
0001c0 4c 3c 49 7c b5 de 6c bf ff 08 5d 84 d4 af d7 3f
       -0.003524164642193328 0.37010682035555925
0001d0 b2 ea 85 77 88 ff d3 bf 15 32 fc f4 8e f3 d4 3f
       -0.3124715010850806 0.327365626567173
0001e0 a7 38 44 f0 65 b7 d3 bf 50 dd 36 b3 2d da c6 bf
       -0.3080687376358448 -0.17853327990244816
0001f0 8c 18 d7 e5 80 23 9f bf 3e 43 78 41 17 10 cb 3f
       -0.03040887263139118 0.21142855355039986
000200 41 6f fb 8e a6 2e d1 bf 31 c0 05 86 b1 ac d9 3f
       -0.26847232783415015 0.4011653717816471
000210 b4 1c 2f b2 a5 d9 db bf bc 1b fb 34 d1 82 d6 bf
       -0.43515913391861294 -0.3517344491378329
000220 78 64 6f 7f 97 2f d4 bf 9d e1 b1 7e d0 4c db 3f
       -0.3154047722324047 0.42656338093322593
000230 ff 2b d2 5c 14 b1 c4 bf 72 d8 2e 4f 4b c5 df bf
       -0.16165403873705483 -0.4964168809195889
000240 8a 88 05 81 94 43 44 3f c5 6f ef 80 1e d3 e2 bf
       0.0006184077374593738 -0.5882713812129557
000250 cd 43 04 c8 f0 bb e1 3f 98 84 0c be a7 99 cb bf
       0.5541919619155294 -0.21562668590289458
000260 b0 62 21 cb 4f 7a cf 3f 3b 3b ef 0c 80 a3 e7 3f
       0.2459201566550937 0.7387085201861291
000270 51 d6 a0 1c 6d 6c d9 3f ef ab ec 44 4b e0 c7 3f
       0.3972428111622764 0.186532410292187
000280 bc 27 c3 f2 e9 7b 98 3f c1 3d f7 19 39 7a c0 bf
       0.02391019386485714 -0.12872995155201575
000290 11 53 b8 56 0e a1 c0 bf 72 b0 06 9e 7e 53 db 3f
       -0.1299150393903337 0.4269711058830189
0002a0 73 ba 84 c2 a8 7c e3 bf d6 23 c4 db 02 f3 d4 bf
       -0.6089671897114627 -0.32733222447910515
0002b0 4a 49 e9 92 c1 d1 c0 bf a5 6e 15 fe 20 09 d9 bf
       -0.13140124963190153 -0.3911821824346851
0002c0 ad c2 63 d8 f9 b1 a4 3f 0a e9 cb 8a 66 0b cf bf
       0.0404203488013811 -0.24253541733907752
0002d0 62 e0 96 e7 56 cc c7 3f e6 93 bc 5f 72 b8 a5 bf
       0.18592344577860148 -0.04242284220371299
0002e0 f1 02 c5 c5 9c ee b0 3f c6 90 46 af b1 d6 bb 3f
       0.06614093616827767 0.10874472169104185
0002f0 82 62 14 32 e1 0b b0 3f 93 b7 ac 00 59 52 99 bf
       0.06268126938483401 -0.02472819391839882

conv_layers.1.lin_l.weight f8 [32, 32]
000000 9d e3 1c 7d 54 01 c2 3f 07 9c b8 f4 ff 74 c5 3f
       0.14066558941865717 0.16763305138849224
000010 42 b1 cf fc 82 85 ba bf 83 f3 11 d8 05 94 c5 3f
       -0.10359972641135065 0.1685797982244389
000020 3b 07 a7 ab cf d6 68 bf 0a 82 86 74 32 ef b2 bf
       -0.00303211746833734 -0.07396235794886521
000030 7d ca ab 79 e6 a8 73 3f e9 60 b3 f3 43 a4 98 3f
       0.004799747747471825 0.02406412291461005
000040 a3 df 2d 90 c2 60 d2 3f 13 8f 6e 7a 00 62 b4 3f
       0.28715576248168356 0.07962038983401624
000050 35 b9 2b 64 39 d6 92 3f bf 4d 5e 61 a9 7a bd bf
       0.018395325411739456 -0.11515291812093319
000060 6e 6f 59 47 29 ab 88 bf 03 1f 2c 81 bf b7 c7 3f
       -0.012045214166554987 0.18529504592174115
000070 ae ac 61 e9 06 cb 99 bf d9 70 73 ff 3c 0a c7 3f
       -0.025188549036482648 0.17999994729223692
000080 dc 33 7e 60 7f a8 b4 3f 78 d0 dc 1a e0 50 99 bf
       0.08069606881890884 -0.02472257770496397
000090 1b 7e 32 a8 c7 f0 c5 3f 3c 8a b5 18 a1 2e a4 3f
       0.17141051972156238 0.03941825319886447
0000a0 53 05 96 bd 91 17 b1 3f 6f 94 91 a4 f2 ef ad 3f
       0.0667658889633647 0.05847128161330139
0000b0 c0 ce f1 b0 2e 0e b2 bf 17 bb 17 71 fe 6e 91 3f
       -0.0705289060586507 0.017024970677023434
0000c0 d9 b8 c1 b3 b4 25 a3 3f 4c 26 d3 71 6f 09 d0 3f
       0.037397047942123236 0.25057588687613896
0000d0 d2 10 15 f1 c0 27 ac 3f 74 12 cb 28 a6 f1 be bf
       0.05499079649828932 -0.12087477203301394
0000e0 9c 2f 40 44 5d db c3 3f 99 31 af 23 46 63 ac bf
       0.15513196785502437 -0.05544490037536604
0000f0 81 e8 c2 a8 ef e6 aa bf 40 8d 1c cd e0 8a b4 3f
       -0.05254315314364622 0.08024411208730431
000100 21 82 97 f3 97 66 b0 3f 2b d8 32 bf 73 f6 b6 bf
       0.0640654535013785 -0.08969806116041983
000110 fe d8 0c a2 50 54 be 3f c0 f0 5b 2e f3 47 c7 3f
       0.11847404438308115 0.18188323749189372
000120 c3 42 b5 fc 0e 55 ce 3f 58 3d 59 cf 44 57 a5 3f
       0.23697078074703457 0.041681433020694214
000130 8f ed 48 b9 d5 25 ba bf b9 9c 54 d9 37 73 ba 3f
       -0.10213981412464633 0.10332058959885417
000140 5f 20 8b 31 29 25 c2 3f 23 4e 62 62 db 8c c4 3f
       0.1417590610419692 0.16054861358553393
000150 96 80 35 fa 18 d9 a2 bf a5 ae 16 33 8a 17 cd 3f
       -0.036812572997179036 0.22728087896881735
000160 a5 c5 d9 5c 29 85 a5 bf 84 51 13 97 72 f9 65 bf
       -0.042031567177115016 -0.0026824224556582527
000170 41 44 b8 55 90 ad a9 bf 6e e3 20 a2 d2 28 8b 3f
       -0.05015231176742719 0.013261457035797366
000180 82 7f 73 7d fe e4 93 3f 1a 3c fb 54 7a a4 a3 bf
       0.019428230673724574 -0.03836424147959168
000190 76 1b 13 c0 64 db bc 3f 94 83 eb 73 85 66 c6 3f
       0.11272267999002658 0.17500370178370572
0001a0 2f 31 f8 ff a7 5f a1 bf aa 45 74 3c e8 1c a3 3f
       -0.03393292426707927 0.037329919223462696
0001b0 a1 1b ac 91 75 97 96 bf 46 95 ec 89 68 f0 b8 3f
       -0.0220621462022127 0.0974183403710259
0001c0 d7 3f 81 6b 47 8c a6 3f 0a f2 f8 1d b8 b0 9d 3f
       0.04403899371447977 0.02899444277703548
0001d0 9a a5 0b 66 47 cb a7 3f fa 3d 14 2a 63 28 bb 3f
       0.04647276993439249 0.10608501221962988
0001e0 0b ee 0a 0f b8 a0 a5 bf 20 0f 9f 25 d6 f6 b2 3f
       -0.042241813503519486 0.07407892626275414
0001f0 3b 3f 4e fe de e2 b5 bf e4 c1 97 59 53 63 ab bf
       -0.08549302776941385 -0.05349216908132684
000200 7e 88 f1 14 41 97 95 bf 76 b9 8b 92 62 fd ce bf
       -0.02108480158165848 -0.24210769801670623
000210 8d 8d e3 a2 c9 12 bc 3f 0c 0a e4 ed 7f 9b ac 3f
       0.10966167666224731 0.0558738687414185
000220 fd e6 7a 38 22 ac ac 3f bc 8f 98 0b 27 a2 c3 bf
       0.0560007757134837 -0.15338600221832432
000230 16 57 73 f6 d4 f2 9e 3f 6e 16 39 68 27 ba a5 3f
       0.03022320512976425 0.04243586680653953
000240 7e da 9d 8b cd ce b9 bf b5 33 d5 ff 39 8e b9 3f
       -0.10081181200608033 0.0998264550773474
000250 40 49 e5 52 7a b3 75 bf 2c d5 fa 2b 41 9e 99 3f
       -0.0052981165193435875 0.025017755803408523
000260 09 6c 39 10 1a e6 b8 3f d5 88 5e a0 98 db ac 3f
       0.09726107498265447 0.056362886024787485
000270 c3 4a 0c ef a6 19 ba bf 02 0e 75 21 1d cd ab bf
       -0.10195391975529859 -0.054299269041191436
000280 10 5f 21 52 a1 f7 b8 bf d7 bd df 52 69 4b c7 3f
       -0.09752853636871017 0.18198887392598692
000290 2c 14 50 5d 08 ea 71 bf 3f 28 6b aa d5 ab b2 bf
       -0.004373581575241519 -0.072934488397693
0002a0 13 14 3d c8 31 45 6c bf 7b b7 15 6d c7 2d a6 3f
       -0.0034509632404558037 0.0433180161152071
0002b0 af cc fd bf f2 4d cd bf 66 fe ce 6c 19 c9 7c 3f
       -0.22894129156666085 0.0070277207532281945
0002c0 42 5a 82 05 14 de b0 bf cc dc c8 b9 b1 c6 b0 bf
       -0.0658886445474787 -0.06553183351285269
0002d0 a5 bd e0 ec 70 bd cd 3f 48 6b 42 61 59 89 8e 3f
       0.23234378401091962 0.014910410194990967
0002e0 f7 05 f9 2d a0 f0 ce bf 2c 59 26 0b db 9c be bf
       -0.2417183136440568 -0.11958092710697049
0002f0 a8 b1 1c 2f 3e c5 b7 3f 48 30 36 a5 99 c2 ad 3f
       0.09285343790242584 0.05812530652755804
000300 c4 29 35 9a 66 24 c6 bf 56 fd db 72 e9 7d a9 3f
       -0.17298586396857563 0.049788756628908956
000310 c0 0d 53 7f cc 70 bf 3f 87 63 88 b5 f6 c5 c4 bf
       0.12281492336756283 -0.16229137290863724
000320 99 c6 47 7d 9c 65 ab bf 7c d9 8e d8 f3 65 c0 bf
       -0.0535096075945038 -0.1281113440906657
000330 35 ca 93 03 49 cd a7 3f 01 6a 92 03 25 f3 85 3f
       0.04648807686489357 0.010717667743212369
000340 1e 7d 55 0f 53 3c c4 3f 82 67 ac f3 05 0b d0 bf
       0.15809095619895513 -0.25067280575023443
000350 1e 7c 91 91 d4 29 c0 bf 5b 9b 05 a8 04 96 c2 3f
       -0.1262765608580318 0.14520319179720328
000360 fb 50 a7 ca f0 64 be bf 64 01 95 d1 59 e9 c3 3f
       -0.11872773120495943 0.15555880292414337
000370 bb cf 2c 0d 35 dc c5 bf 2c 30 25 43 01 72 9f 3f
       -0.17078269141495447 0.030708331797811336
000380 65 b8 43 36 2e 80 31 bf b1 c1 15 aa f2 2b c1 bf
       -0.0002670395681566628 -0.13415368370944017
000390 01 5f 36 2b d5 cb ae 3f 87 aa 4d 2c 89 1b bf 3f
       0.060148870015096285 0.12151391345620698
0003a0 2f b7 c9 d9 eb ca cc 3f c5 42 aa c4 75 25 af 3f
       0.22494266637971225 0.060832672364204345
0003b0 d9 68 76 5e 9c 24 bb bf ef 14 e2 cd a9 f3 80 bf
       -0.10602738672460833 -0.008277250857882083
0003c0 5c 54 24 10 16 3c aa bf f1 f4 4f 94 62 08 ce bf
       -0.051239671202133436 -0.23463089219868707
0003d0 16 dc 40 8e 95 b6 a3 bf a6 34 1b 51 27 28 b0 3f
       -0.03850238191119375 0.06311269502767178
0003e0 bb 5c c7 f5 10 79 ac bf b7 16 34 7a 65 51 a9 bf
       -0.055611162187852746 -0.04944913021794888
0003f0 de f4 43 0e dc 4d c5 3f db 03 d2 bc b5 14 bc 3f
       0.16643858620219637 0.10969100818512294
000400 2c 61 fe 67 41 29 bc 3f 14 d3 b2 33 88 60 b4 bf
       0.11000450886638607 -0.07959796201869224
000410 a7 b2 13 cc 67 db d9 3f 6f 4f 81 10 8f 8d bd 3f
       0.4040164463938631 0.1154412665649127
000420 94 36 c2 df 06 ca c2 bf 98 59 b5 35 2e 45 ce 3f
       -0.14679037023272612 0.23648622152786625
000430 a1 ae 43 69 cf e3 b2 3f ec 28 79 df 19 e5 a3 3f
       0.07378860778743014 0.03885727742142983
000440 41 a5 29 fa 73 0e c2 3f 90 07 5c 11 d8 48 c9 3f
       0.14106607165312293 0.1975355229151856
000450 97 22 8d c8 7e 17 ae 3f 9b 1a 80 a1 ea 87 ae bf
       0.058773004514084785 -0.05963071080627921
000460 60 3d 64 eb 8e 5d b6 3f a9 3c 57 a3 0c 56 ae 3f
       0.08736508604873938 0.059250254572924384
000470 63 0c 3c 10 1c 9f 76 3f a3 5a a9 37 19 e0 b7 bf
       0.00552283251068095 -0.0932632218258314
000480 84 5c 2e 92 d4 ef bd bf da f9 3f 19 08 f0 a4 3f
       -0.1169407708060693 0.040893796045555056
000490 32 f4 c1 46 91 98 7f 3f 00 e4 f8 af 09 1c be 3f
       0.007713859067846095 0.11761532350728032
0004a0 3f 0c d9 5a 7d 7c c8 3f 4d 44 48 a5 b1 fc b1 bf
       0.19129912315301742 -0.07026205334865772
0004b0 c8 b9 a7 09 62 5e b2 3f 0a 0d 43 38 58 ea 80 3f
       0.07175266967508442 0.008259476868607969
0004c0 5b 52 28 97 4a 37 27 3f 5e b0 31 61 cc 60 84 3f
       0.00017712388542236415 0.009950253215912305
0004d0 c4 4c 0c 42 a5 66 51 3f 39 bd 36 e0 6c c7 bf 3f
       0.0010620702598245638 0.12413673852892239
0004e0 08 c0 a3 38 02 56 b7 bf 9b 14 03 64 18 bf b2 3f
       -0.09115613825611046 0.07322838250827816
0004f0 69 6d 99 f2 fc 69 94 bf 65 da 60 8b 08 fe a6 bf
       -0.019935562426650764 -0.04490687085529003
000500 9e d2 23 67 96 04 b2 bf b7 2c ba a8 d4 9e b8 3f
       -0.07038249986710318 0.09617356414144039
000510 6a d2 9a 7e fc 0b c0 3f ec 19 cb 0f 9c 50 b0 3f
       0.12536579305528345 0.06373000512676413
000520 85 c7 55 76 68 bb bd 3f 80 be 14 8d 80 57 87 3f
       0.11614086998977598 0.011397365861369524
000530 7e 0b ea 31 94 1a bc bf 73 fa 6e c4 7a 29 ca 3f
       -0.10978056162461589 0.2043908557079309
000540 ca ab 0c 55 ef 04 c8 3f bf 32 7d c0 ac 65 a8 3f
       0.18765060093696057 0.047650717255782286
000550 bc 8a c0 2e e2 19 88 bf f6 29 90 a7 a3 39 c9 3f
       -0.011768118907700902 0.19707151109498938
000560 96 a0 78 ac df 36 c8 3f 68 99 69 ae 88 4f b3 bf
       0.189174613203481 -0.0754323411762009
000570 de 9d d0 85 69 b4 a3 bf 10 c4 85 62 92 6a b4 bf
       -0.03848581083758139 -0.07975115685782463
000580 b4 a0 57 cb a7 14 b0 bf b2 81 d3 38 e8 29 c5 3f
       -0.06281517710124512 0.16534140372006118
000590 91 c2 c1 8a 96 b1 8e 3f 07 99 2c 60 a2 48 a3 3f
       0.014987159833453919 0.03766353057862842
0005a0 93 0a e5 a2 87 2b af bf 35 67 39 f6 ee 00 b9 bf
       -0.06087898124180415 -0.09767049323400274
0005b0 c3 65 50 72 18 66 cb 3f 2b 61 ee cc d8 30 b7 bf
       0.21405320722332818 -0.09058909419252774
0005c0 78 2e c8 44 7c ba b6 bf 0c 91 e5 ff 1c fd bf 3f
       -0.08878304175612495 0.12495595214346994
0005d0 b6 e7 e1 60 27 1a b2 3f f1 23 e3 cd da 53 c5 3f
       0.07071157565397254 0.16662154248322694
0005e0 23 8c 3a 57 45 f2 a8 bf c3 b5 c0 eb 27 5d c9 3f
       -0.04872337999156453 0.19815539370885746
0005f0 1b cc a5 fc c6 7e be bf 3d ae 3a a2 24 8f b8 bf
       -0.11912196796565448 -0.0959341903750834
000600 83 5b 80 ed 37 8f 89 3f 37 4c 98 09 64 fc ba bf
       0.012480198798625391 -0.1054136775422173
000610 1d c0 61 07 6a b3 a8 3f d5 0d 22 bb 46 96 9f bf
       0.04824382152662585 -0.0308466960637029
000620 48 6e 12 02 22 8a 71 bf b5 00 c6 25 92 65 bf bf
       -0.0042821243706857096 -0.12264359876826599
000630 e7 0a 20 f2 fc 15 c4 3f 1d 30 57 cd 9e 3a ab bf
       0.15692102262990845 -0.053181612554539216
000640 ee 8a 7a da 93 78 ad 3f 5b 75 ac 2d 4a b1 ad 3f
       0.057560558719407115 0.05799323852100243
000650 74 3b d8 15 e4 d5 bc 3f 92 6f 46 30 34 9d a6 bf
       0.11263871701542688 -0.04416812028213636
000660 91 c4 41 13 49 ca c1 bf af 35 54 a5 41 3d 92 3f
       -0.13898576202658267 0.017811799732091845
000670 b1 4c 4b 1b 27 25 ab bf fd d4 da 38 ce b5 9a bf
       -0.05301782806568534 -0.0260841581536697
000680 5b 02 a7 c0 6c be a3 bf f0 06 0b d3 33 3a c0 bf
       -0.038562201039444154 -0.1267761974796069
000690 52 f9 33 52 78 db ac 3f a8 be 53 1c 43 3d ac 3f
       0.05636192325072166 0.05515489311971794
0006a0 9f 4e cf a0 26 1b c4 bf 81 c5 63 5a 06 97 a7 3f
       -0.15707857944527334 0.046074102910902866
0006b0 8d 71 ab 3f d6 44 8b bf ac 82 22 b6 7c fc ad bf
       -0.013314889734311186 -0.058566949113133177
0006c0 93 13 db dc 86 5c a7 3f 29 9d 1e 00 1a 62 b8 3f
       0.045627798519070194 0.09524691107673235
0006d0 33 ea 41 23 e5 50 92 bf 06 7f 35 fc ed 3e c3 3f
       -0.017886715199418823 0.15035795988932693
0006e0 01 3a 6e 8b 1f 1d 9e bf e4 81 8f 9b 9e 28 92 bf
       -0.029407971272627623 -0.01773307632891087
0006f0 81 23 5f 0b 18 ea 87 bf a2 85 d9 78 3b 03 bd 3f
       -0.011676967474970603 0.1133305711787416
000700 26 18 b3 24 17 7b b4 bf bb da 9f ce 9c 52 c0 3f
       -0.08000321050630585 0.1275211342724186
000710 cf 66 54 f9 3e 8c b4 bf 2f 08 aa ae c3 40 c4 3f
       -0.08026498400831915 0.15822645214581274
000720 1f 1c 4f 30 fd 6f c3 3f 84 c7 88 07 ff 47 d5 3f
       0.1518551336177731 0.3325192998482793
000730 db c9 e0 39 1e 35 b0 bf ed f0 6d f5 93 e1 9e bf
       -0.0633105174354464 -0.03015738664133576
000740 eb da 55 9d c3 92 c1 3f 6d 83 a2 d1 23 4d c2 bf
       0.13729138548270411 -0.14297912345957844
000750 41 28 bc 79 47 bc d0 3f 9b 36 f1 c7 c5 3f 94 3f
       0.2614916504686598 0.01977452309465964
000760 51 78 50 fa 25 03 98 bf 1e 5e 40 d0 22 2e c5 3f
       -0.023449510004973032 0.16547045868422655
000770 8e 02 cb 61 f2 4e c4 3f 31 a3 19 21 7d 1a bc 3f
       0.15865926528023916 0.1097791868029503
000780 c0 9f 23 93 31 52 c8 3f 32 df 81 24 06 c5 72 3f
       0.19000835117844694 0.004582427973325131
000790 00 da 09 7c f0 38 b6 3f dc a1 25 cf ac e8 c8 3f
       0.08680632618220585 0.1946006785831419
0007a0 e3 21 e4 6c ed db c2 3f 7b 5c 31 51 54 0d c2 3f
       0.14733665291738793 0.14103177990429913
0007b0 a9 34 d3 0a 3d 15 c6 3f d4 89 6e 61 74 e6 c4 bf
       0.1725231459480814 -0.16328291661655092
0007c0 51 9d ed b7 fe 0d ce bf 30 88 89 d5 96 2c a5 3f
       -0.23480209332340476 0.04135581356673901
0007d0 1e 69 63 39 6c 9b b1 bf 6e ca f5 17 c2 ee 93 bf
       -0.06877781296808336 -0.0194654776691529
0007e0 3c 77 9f 8a b7 70 a9 3f 02 7b 8e f4 88 08 c9 3f
       0.04968808715032799 0.19557296696890353
0007f0 3d 31 01 f5 bd 47 9b bf cd d3 01 d6 39 cd bb bf
       -0.026640861586473042 -0.1086002490499844

conv_layers.1.lin_l.bias f8 [32]
000000 04 4e fd f2 db 1a ce be 0a a1 0c 1e 72 13 c5 be
       -3.588785965216855e-06 -2.512450223330605e-06
000010 f3 02 0d 5b f3 c5 a4 be 22 d9 4a 96 8f 26 be 3e
       -6.190909314988358e-07 1.7971174994086982e-06
000020 8a e1 2e 99 52 40 d5 3e 29 ff 7d b0 3e e2 bb 3e
       5.066695297033575e-06 1.6620021500989945e-06
000030 0f 2c 96 0a 0b 2e e1 3e 39 c7 8f c6 b9 ee c5 3e
       8.191993702741052e-06 2.614560390850568e-06
000040 51 ef 61 66 ec dd 9e 3e 0e 3f 7b e5 17 43 9a 3e
       4.599524799986891e-07 3.913355377362312e-07
000050 6f 46 b9 80 97 da ba be 1e 26 c1 93 6a 9d ca be
       -1.6006156354952274e-06 -3.1727442131631838e-06
000060 d2 d7 fc 7d 05 c0 dd be 7c 48 2e 5a a5 6f c1 3e
       -7.092972708557968e-06 2.078547099279103e-06
000070 0e 2e 38 ea 78 9c d0 3e fe 96 27 41 68 65 b0 3e
       3.96042347318048e-06 9.772850303400834e-07
000080 84 c9 69 46 fd 31 c0 3e 59 a9 2a 0c c6 22 b2 be
       1.930626740525775e-06 -1.0809799710168254e-06
000090 c9 0b 00 11 f6 90 98 3e 1a 90 fe 15 ff ce f1 3e
       3.6606572084723495e-07 1.6983585169008752e-05
0000a0 ec 24 07 1d 9c 60 a1 3e 22 c8 a8 47 b3 f3 d0 3e
       5.178863436368657e-07 4.041660867802986e-06
0000b0 f7 df 20 de 41 85 b5 3e 56 93 3a 05 60 37 f2 3e
       1.28272392220345e-06 1.7372425942813303e-05
0000c0 8e 8d 61 84 db 06 c3 be 6d ce 90 bf 4f 53 d3 be
       -2.268169768492116e-06 -4.60754289926015e-06
0000d0 fc 4c f1 cc c7 75 b8 be 04 e7 49 49 e7 2c ab 3e
       -1.4579343774648412e-06 8.098901554530636e-07
0000e0 fb f1 de 2c 4b d9 cf 3e eb a6 fc f7 05 e1 9d 3e
       3.796673218452041e-06 4.4523175545212187e-07
0000f0 a8 d5 dd c5 66 e4 d4 be 5d cc 2f b9 e8 28 85 be
       -4.981087014734575e-06 -1.576528033394418e-07

conv_layers.1.lin_r.weight f8 [32, 32]
000000 11 cf da 47 1c f4 c6 3f a4 b9 75 e2 7f 55 d0 3f
       0.1793246603825698 0.2552184783479794
000010 27 a9 3e 3b 47 c4 cb 3f 2c 80 fd 51 35 7c b4 bf
       0.2169274367600533 -0.08002026797976275
000020 fa d3 8e c8 c7 6b 8c 3f 28 c1 96 f8 7e 44 be bf
       0.013877449806253484 -0.11823266572060176
000030 5f 52 b5 a6 c6 b2 c3 3f 28 19 a1 2b 23 77 c2 3f
       0.1538933099751771 0.14426078443848067
000040 b8 0b 61 a8 2a 34 b8 bf 68 08 64 4e b7 0c 77 bf
       -0.09454599963014132 -0.00562736133565709
000050 73 af 86 4d b5 c1 a0 3f 71 51 83 ed 55 eb b0 bf
       0.03272787639011101 -0.0660909371247891
000060 c3 e4 eb df e2 fc c4 3f f2 b7 90 00 1c a5 c9 bf
       0.1639674752584935 -0.2003512385139739
000070 b4 af db 1b 94 f5 b2 bf 4c 0b 49 65 26 ab c9 3f
       -0.0740597312939702 0.20053558297703444
000080 e7 a9 86 ff 83 88 b6 3f ae ed 3d b8 48 46 d0 3f
       0.08802056301525561 0.2542897986638434
000090 25 5e 70 60 a4 62 b8 3f e2 e5 39 c1 e9 7e c0 3f
       0.09525515894380783 0.1288730805861596
0000a0 fd ef 89 06 7d dd bc bf 01 59 a7 bf 4e dd c5 bf
       -0.11275464448584667 -0.17081627233591948
0000b0 33 92 ee 02 98 22 b3 3f 6d 2b 82 97 cd 10 ca 3f
       0.07474660941677129 0.20363778970598947
0000c0 7c 7b ff e2 1d f7 b8 3f 66 c4 f5 db 8a 9d c5 bf
       0.0975207022852213 -0.16887031307445283
0000d0 64 d5 e8 ab 39 f2 ad 3f 9f 9e 17 42 02 6c c9 3f
       0.058488657221839074 0.1986086676326879
0000e0 af b3 87 ec a0 ba b8 bf c0 ca 27 dc ff 98 a5 bf
       -0.09659772658024111 -0.04218291819042497
0000f0 b2 a6 f5 de 7a 7e aa bf 67 f5 04 d4 e2 3f b2 3f
       -0.051746215550179456 0.07128732372526302
000100 55 39 34 42 fa 3c 94 bf cf 32 ea c5 14 4a c1 bf
       -0.019763860979815934 -0.13507327712831915
000110 d8 40 05 30 61 c2 9c bf ba b5 cd 48 a5 ff b3 3f
       -0.02808524947732924 0.07811959292822382
000120 f8 73 9f f7 37 e6 c2 3f 4e 1b b6 1b fb 37 c9 3f
       0.14765071478805658 0.1970209012326571
000130 4b 8c b6 b6 13 50 c6 bf 5a 7c f7 b9 8a b4 ac bf
       -0.17431875630890867 -0.05606492538549253
000140 40 2b 17 c5 1e a1 8f 3f aa 49 b6 ec 4e 4d d3 bf
       0.015444031133389324 -0.3015935241357065
000150 7c f9 1a 2f 11 27 a8 3f b4 36 27 f5 db f2 bc bf
       0.04717305850998607 -0.11308073744950314
000160 01 b8 9b f7 94 3c 7e bf b6 11 d8 ff d6 07 b1 3f
       -0.007381994155123196 0.06652587648574734
000170 51 90 fe 1f b9 05 a9 bf ed 67 71 ff 48 ee 8f bf
       -0.048871789126935135 -0.015591211600781885
000180 ba 00 36 48 83 db c7 bf 4a 81 e0 8c ff 68 92 3f
       -0.18638649965214943 0.017978661511848494
000190 54 6f e7 04 bc 25 92 bf 70 5b 11 c4 60 f4 c1 bf
       -0.01772207050258541 -0.1402703244554817
0001a0 c5 4d 6c e2 4a 50 cc bf 8f 2a 5c d4 bb 07 c2 3f
       -0.22120033317388113 0.14086101407186333
0001b0 63 c5 5e 35 35 ac c3 bf 4e 74 1f ae 3b 3f b3 3f
       -0.15369286638228194 0.07518361092611878
0001c0 a9 05 1a 21 bb ae b3 bf f6 df 5e 93 d4 03 b0 bf
       -0.07688493307252621 -0.06255844686427267
0001d0 2e b7 76 e1 65 bf b3 bf 3c f3 bf 3c 1c 6d 58 3f
       -0.0771392512749258 0.0014908576731606634
0001e0 a8 9c 0c 17 57 e3 c6 bf ff e8 6c f3 15 2b a8 bf
       -0.1788128721757165 -0.047203718152063694
0001f0 8c 8f 65 a7 ac b5 94 3f 67 63 21 75 a3 8b c5 3f
       0.020224282948575076 0.16832392901667534
000200 18 e7 e4 05 1f 18 ac 3f ec fb c5 1d 8a 4e 97 bf
       0.05487153002691353 -0.022760541980002033
000210 02 60 81 83 62 67 a1 bf 19 68 39 a0 4e 1f b1 bf
       -0.033991888573552856 -0.06688395892834399
000220 c9 17 2f c0 11 8c a6 bf 0f 26 85 5d 6a 6b 9a 3f
       -0.04403739424701276 0.02580038257409539
000230 7e 46 d0 0d 34 06 8a bf 34 a0 16 f0 a6 cc b4 bf
       -0.012707144424015878 -0.08124774323971523
000240 94 fb c2 92 cc f1 a4 bf 64 50 5c 96 cb 7c b3 3f
       -0.040907280841103205 0.07612297459519507
000250 4e ff 65 6a 73 b6 a1 bf 72 0c 71 9f 7c fc cb bf
       -0.03459511445816919 -0.2186427858851832
000260 de 12 a2 b2 91 4c c4 bf 1f ed 08 d2 ff a9 cb bf
       -0.15858670446700435 -0.21612546687706755
000270 87 b5 82 8d 1f 2c a8 bf 17 fa 97 13 d4 72 b5 bf
       -0.04721163370536901 -0.08378339269982181
000280 be 12 de 56 f8 8e c1 bf 42 d5 aa b5 2b fe ce bf
       -0.13717560044837812 -0.24213167543863717
000290 29 22 98 5b b8 bc cc bf fa 38 12 1f a3 1d a7 3f
       -0.2245092818486836 0.045147988837117084
0002a0 0a 29 c8 a3 51 26 c5 bf fc 3e 1a c2 64 42 bb bf
       -0.16523190018808293 -0.10648183573561804
0002b0 7c d0 ed b6 5f 41 c2 bf 34 23 9b a2 81 8e ca 3f
       -0.14262005264356847 0.20747394981142409
0002c0 ec ab 75 a7 6c 8c d1 bf 3c 26 1e d6 98 97 b6 3f
       -0.2741958270404996 0.08825068690762178
0002d0 06 d2 c9 7e ca d1 d1 3f 4b e3 45 66 e4 1b d2 bf
       0.27842962629009127 -0.28295240390393833
0002e0 80 39 bd c9 64 bf c5 bf 4b a2 2c 57 11 05 b6 bf
       -0.1699033722929464 -0.08601482752113403
0002f0 f5 8b 80 3b 4f 5f c1 bf aa 7f 05 b5 e7 8f a2 3f
       -0.13572111516359056 0.03625415882811407
000300 27 df 66 d7 a1 a6 d5 3f 79 3d 75 8b 8d d5 b2 3f
       0.3382954219373339 0.07357105879531457
000310 f9 26 25 f8 32 44 b2 bf 15 e6 25 30 01 bd cf bf
       -0.07135313566427816 -0.24795546389559378
000320 cd 00 d0 17 25 bf b1 bf 98 bc fb a0 d3 8b b0 bf
       -0.06932288962707674 -0.06463358574159128
000330 44 cb 06 c9 af ad c3 bf 16 43 8d 05 34 63 c2 bf
       -0.15373799625157336 -0.14365244170269226
000340 08 d9 bb 76 f3 65 8a bf 79 32 88 c0 b8 4e aa bf
       -0.012889768658606929 -0.051381848814433924
000350 eb bb 7e d0 23 6e a8 3f 70 38 04 40 84 df 8e bf
       0.047715300751739985 -0.015074761584880941
000360 69 6e 42 86 97 ae b9 bf 34 73 cb 9a 17 4f a5 3f
       -0.10032031085796124 0.04161905064186158
000370 c4 af 02 21 a3 e2 9f 3f 70 ed 14 8d aa 06 c5 bf
       0.031137989892769516 -0.16426593674428203
000380 2e 39 3b cc fd 1d d3 3f 72 db f5 4a 91 8e c8 3f
       0.29870552963702124 0.19185081634688178
000390 fe ce 54 e5 90 2d d2 3f dd 5b df d1 8b 85 c0 bf
       0.28403112788804197 -0.12907550571136897
0003a0 f1 90 3e 45 f3 ef 71 3f 11 26 c1 04 61 c7 b7 bf
       0.004379225039802246 -0.092886031780971
0003b0 4a a0 f6 b9 94 2b 92 3f f1 ab 78 a8 c3 07 d5 3f
       0.017744373178772123 0.32859889461786823
0003c0 48 c5 b8 f8 a4 2f c0 3f 27 69 d4 ed 3a 64 b1 3f
       0.1264539923154564 0.06793564134969597
0003d0 9f b7 16 5c 6c e6 b2 3f 0e dd 24 47 71 4b c9 bf
       0.0738284802270912 -0.19761482213809994
0003e0 77 b7 9a aa db 51 b9 3f f9 b8 32 b5 62 f0 9b bf
       0.09890530505319171 -0.027284185704666595
0003f0 7b 18 d5 d1 0d 62 a7 bf 50 ea bb a1 c8 de b2 3f
       -0.045669967521960474 0.07371190975747166
000400 a8 2f 81 60 73 f5 b4 bf 58 02 8b 3b 71 38 63 3f
       -0.08187028032369759 0.002346249730493615
000410 41 f3 c1 be 0b 54 7c bf df f1 2f 23 dd e5 c7 bf
       -0.0069160898966600945 -0.18670238702897188
000420 8b dc 19 d1 80 ea bc 3f 2c bd b5 1e 0e be b5 3f
       0.11295323472028167 0.08493126153711178
000430 d0 d6 d7 19 f7 c7 69 bf ca 12 5f a2 73 06 c8 bf
       -0.0031471086683677388 -0.18769689014711438
000440 13 f2 02 76 55 14 c0 3f 73 a8 6e 4f 38 8c 62 3f
       0.12562053930550174 0.0022641277132225356
000450 d2 45 d2 b3 41 d8 b1 3f 7d 6e bf 88 4c 84 c2 bf
       0.06970606460733755 -0.14466244389665298
000460 8a 3e 9b cc 87 01 ce bf a2 7c 64 bc 61 0c b9 3f
       -0.2344217061095047 0.09784518098284647
000470 57 c1 b2 6d 87 2c c7 3f 1d 35 b7 74 92 32 a4 3f
       0.18104641777382355 0.03944833445312155
000480 6b 69 a0 29 52 26 ba 3f ce a8 51 8c b8 bc a1 3f
       0.10214723125719664 0.034642951134473784
000490 33 78 af d2 aa 18 b5 3f 52 41 be 45 19 33 bd 3f
       0.08240764278113559 0.11406095459665735
0004a0 f0 d5 b9 45 7a 82 b1 bf 41 bb 97 16 2b e1 9e 3f
       -0.06839718057911859 0.03015582394976524
0004b0 9d 95 63 50 c8 8c c2 bf 4e c2 e9 66 b7 cf c8 bf
       -0.14492134022945616 -0.19383900189451925
0004c0 ca ae 68 2a e6 4c b8 bf f3 de 25 9b 16 0f 2c 3f
       -0.0949233869111438 0.00021407271340100723
0004d0 76 e8 99 93 5d 5c d0 bf bc 2e f0 4c 48 1b b2 bf
       -0.25563754476718914 -0.07072879675268501
0004e0 68 a3 fe 01 93 ea c9 3f 42 90 a2 29 5d 42 97 3f
       0.20247113797565963 0.022714095750999037
0004f0 e6 80 85 77 99 b1 71 3f f7 bd a3 1d 11 9b c0 3f
       0.004319762687686279 0.12973226496931975
000500 18 a8 ff a2 a2 4a a3 3f 9d 5a d8 f0 c8 dd a7 3f
       0.03767879714708061 0.04661395969394742
000510 20 43 c9 a5 54 29 b5 bf 66 2d f1 16 a0 73 ba bf
       -0.08266190574182675 -0.10332680282697523
000520 0a 86 8e c9 51 66 bb 3f c3 a8 cf cb 1a 9e cf 3f
       0.10703002138918563 0.24701247169224957
000530 55 8b 82 c1 2f 03 a7 3f 97 3d 29 b5 00 e1 c3 bf
       0.04494618642026774 -0.1553040394378342
000540 ef d4 66 17 90 aa be 3f a9 ca 80 30 b1 c0 aa bf
       0.11979008265810241 -0.05225137440756573
000550 80 5f b7 af 48 4c b1 bf 9f 7a fc aa ea ef af 3f
       -0.06757025041531328 0.06237729394182633
000560 e2 25 48 b5 85 94 c5 bf a9 46 26 dc 72 44 d0 3f
       -0.16859504081393967 0.25417777537323133
000570 4c 3e ef f5 8d 07 d1 bf 4c 4e d6 88 82 72 c6 bf
       -0.26608609215779633 -0.17536956483364674
000580 26 6b 87 3d 2c 66 d1 bf f1 33 0f e2 9e 7b bc 3f
       -0.27186113365830733 0.11126130122211443
000590 86 0d a8 4c 32 08 af 3f a8 7e e0 98 7f c8 ac 3f
       0.06060940919635542 0.05621718159841055
0005a0 63 ba c1 c8 dd 51 a6 bf 68 4d ad 48 9e 4c b0 3f
       -0.043593340641440624 0.06366910242404844
0005b0 d4 3c 1a e1 7a 45 c7 3f a3 4e b3 21 53 11 bf bf
       0.18180786124546577 -0.12135810444606902
0005c0 01 bd 90 39 ce cf b8 3f 4f 6b 2a 37 d4 b0 b4 bf
       0.09692086129574663 -0.0808231959039578
0005d0 4e 09 ba 1c 6c 7e a9 bf 6d f5 1b 2c 57 81 b7 bf
       -0.04979265070598392 -0.09181732966313456
0005e0 5e 1f f3 1e c0 e7 c3 bf 47 42 65 8d 52 43 ba 3f
       -0.15550996314254467 0.10258975936927427
0005f0 91 de 16 e5 88 93 ba 3f fb 4f 2e a1 6c c9 a2 3f
       0.10381370156289395 0.03669299571552639
000600 e2 25 7f 36 50 06 c6 3f 14 1f 20 23 a8 d2 aa bf
       0.1720676675889044 -0.05238843373086702
000610 67 cc 29 f0 8f 46 c5 3f 12 db fd 98 e2 08 c7 bf
       0.16621588923189565 -0.17995865316671505
000620 2b 50 c6 e0 ab 02 cc bf 53 88 4c e0 b7 a5 ab 3f
       -0.21883152461362107 0.05399870503448825
000630 42 b3 25 dd c4 09 bc bf c3 54 64 1a 3e 44 b8 bf
       -0.10952406310179888 -0.09479129928907341
000640 c7 df ab 48 38 5e c6 3f 2b 57 fc e8 b3 97 ba 3f
       0.17475036190421475 0.10387730062606397
000650 6c b4 b8 43 24 ea b3 3f 1a 75 cf 0c 79 96 b8 bf
       0.07779146817547805 -0.09604603350404198
000660 a5 7d 3b 90 de 99 b4 bf 2a d3 e2 2f 4c f9 96 bf
       -0.08047286053942189 -0.022435369894725422
000670 64 0c bf 95 46 0f d7 bf 1c bf f5 88 cc 40 a9 3f
       -0.36030735610638076 0.04932250186800344
000680 ae eb 97 6e 20 9e cd bf 85 27 3c b1 40 6e b3 3f
       -0.23138814354009923 0.07590107275987464
000690 89 1a e8 74 95 fa aa bf 0d 4e 21 d1 3d eb b0 bf
       -0.05269305278857412 -0.06608950000491394
0006a0 cf da e9 95 b0 1d c9 bf 59 ca 89 dd 4c b6 bb 3f
       -0.196218560409497 0.10825043114326983
0006b0 2d a6 15 08 ad fe 84 3f 39 f0 09 0d 73 1f ad 3f
       0.010251380738469507 0.056880565015461966
0006c0 a2 7e 22 b2 84 90 bf bf 48 01 ab 84 10 5e a1 bf
       -0.12329892491333763 -0.03392078036768226
0006d0 1d f4 14 60 d9 c2 bd bf 1f af 4b 98 05 25 c5 bf
       -0.11625441165684021 -0.16519231735525694
0006e0 b7 54 af d0 6b bb b2 3f 5f c1 d7 c3 51 f6 ce 3f
       0.07317231983991489 0.24189207136761134
0006f0 6e 16 a8 b6 7c 71 bb 3f c3 71 98 97 25 7c b0 3f
       0.10720042666806659 0.06439433051168124
000700 0a 82 89 18 cc e9 a8 bf 2b ad a6 f9 86 18 c2 3f
       -0.04865873145604745 0.14137351217264302
000710 b9 06 0c a4 5f 10 c7 3f 4b 08 49 5d fe 74 a7 bf
       0.18018718252283408 -0.04581446541534769
000720 b6 46 bc 58 36 ff af bf 61 64 de 2a e7 9b b3 3f
       -0.062493990261044116 0.07659764095878209
000730 a3 6e 84 c4 7a 0e ac bf 62 62 5d 18 df 42 c5 bf
       -0.05479797028439506 -0.16610325517355579
000740 68 5c 6f 1e 76 31 b1 3f 8a a4 10 06 8e d7 b0 bf
       0.06716097109834751 -0.06578910492011594
000750 ca 6a 7e a7 8f ac 9b 3f b9 6f af 20 88 9f 9f 3f
       0.027025456045161524 0.03088200282569151
000760 a9 5d cf 68 4a ec af bf 90 8e 1c 03 2c e3 c3 bf
       -0.062349629682724235 -0.15537023689204377
000770 6e 98 d7 67 81 5a 90 3f 63 74 bf 64 07 65 93 3f
       0.015970251048110055 0.018940082096254317
000780 7f 01 90 17 63 86 a5 bf 10 96 11 12 40 a6 c4 3f
       -0.04204091704014256 0.1613235557771735
000790 0f 62 55 a6 c4 09 97 3f b7 7a f4 6e 40 21 80 3f
       0.022498200084870187 0.00787592257125645
0007a0 55 c1 10 2c 35 b8 af 3f cb eb 79 4c ad 89 c2 3f
       0.06195226824673009 0.14482656702224825
0007b0 46 c2 13 6f 73 03 c6 bf d4 0f ad d0 fb 41 b4 3f
       -0.17198031352701743 0.07913183064107382
0007c0 08 ab 33 24 3b 71 bf bf e2 38 62 b8 6a ae ba 3f
       -0.12282151826699927 0.10422389031939219
0007d0 40 b2 f7 11 91 56 be bf 36 f4 df 91 61 44 b7 bf
       -0.11850840271626684 -0.09088716327092147
0007e0 09 03 9e e6 0f e9 94 bf 98 78 c6 fa d8 fa d3 bf
       -0.02042031140399828 -0.31218552102826314
0007f0 8f 09 e9 63 66 d3 86 bf da 80 5c 7c a6 3a d1 bf
       -0.011145400928516817 -0.26920473236715525
