runs/height_prediction_5k/model_best.pt (torch, 117483 bytes, 16 tensors)

weight f8 [32, 3]
00000000: 4098 1563 83d5 d0bf 3227 258b f365 d63f
00000010: a638 6ee0 0385 ec3f 29be 6268 a8fe 08c0
00000020: ac11 dd6d 15fa ae3f 9eb3 7e2e c693 d13f
00000030: f6de b02d 417d ad2c c9a7 e672 60dc 62ac
00000040: 79b1 5fed c06e 9732 0881 1d89 ed8e 942a
00000050: 789e e6c4 a984 962a 6923 4fcd 804e 942a
00000060: 9540 ab9a 0a82 f2bf ab9a 7ecd 2d4e e23f
00000070: 3fb5 ec15 6218 eb3f 36e3 dfa5 1a71 edbf
00000080: 77ff 58d6 7aaa ecbf 7a65 2d1c 5c00 dc3f
00000090: dcb3 ecaa 958e d4bf cc4b 8ec5 3e62 c3bf
000000a0: 1082 6d59 bd1a c33f 25e1 58ca 6915 ea3f
000000b0: cc6a c1d1 5162 8dbf 5509 6c25 a127 bebf
000000c0: 8563 c659 d2be 3a38 e557 4319 afe9 b63a
000000d0: 4050 6454 9943 0f3c 46ac ece3 f86b db3f
000000e0: 2700 c32c 9420 b83f a2a0 61e2 566b ec3f
000000f0: 3706 1407 10e0 f63f d80f 74b9 5029 fa3f
00000100: 02a1 e858 ff12 f3bf f091 0f27 8f9e a4a2
00000110: d79d 9ba9 43af 5a24 86d2 cdb3 fbf3 2cae
00000120: 8100 3122 0776 fcbf baf5 8ca8 86a5 e2bf
00000130: 1402 c2b5 b18a f73f 9df5 bc2e 4200 c5bf
00000140: 690d 71d8 1c16 a13f 7cfd 1fc6 0f99 943f
00000150: a8b3 35c8 ffa7 f011 7b9c 6803 576a 2b95
00000160: 94a6 992e 0509 a496 b5ef ff67 89b6 03c0
00000170: 1de0 e89c 2180 b1bf 9bb7 3d68 48a9 f53f
00000180: 9b5e 4c7a 5fa8 f93f a5a7 42d6 65ca bc3f
00000190: 78a4 f4c0 d886 f8bf fe91 7b39 0fd1 ecbf
000001a0: 1ad4 a49d 9f91 c6bf 9826 0757 b1a7 ee3f
000001b0: 9a85 b27b a37a f93f d1f1 f800 02ac bcbf
000001c0: 12cb c6f3 1045 db3f 9943 1ade 834e 63bf
000001d0: bc00 1701 7b94 99bf 4de4 32dc 3594 a0bf
000001e0: d166 4e2e b6a5 0240 47dc 0387 ad64 ba3f
000001f0: a61f 244e d11c 703f 9442 1837 00b9 aba6
00000200: ce68 e438 3269 7da8 c7c6 14f8 f268 2436
00000210: 635c c405 aaea b83f 156f 18f0 f022 aa3f
00000220: 0473 404d 08b2 81bf 11c3 76bd b302 633f
00000230: 9303 e99f add8 823f 96ae 7da9 e99e 933f
00000240: 5671 f9e6 fce7 f13f d640 f6c9 a2a6 a9bf
00000250: e191 2775 7a2f c8bf f599 04fc 9dbb 07c0
00000260: 965c 928e c658 d7bf ea3f 42bb 8c8c f13f
00000270: 21ec d48f 0844 0140 de9a efbf c922 d33f
00000280: 5b81 95e3 6960 e83f 302f 8226 4b8b 983f
00000290: 0828 2620 42c3 9e3f f08e 2986 1f79 b33f
000002a0: 8304 4b8f d91c 0140 fd80 8e47 a483 e03f
000002b0: 0dd0 7bde 45ae d8bf fafa a8a9 7b62 fbbf
000002c0: e13d 9f3a c586 e53f e50d 2d16 2898 f9bf
000002d0: 159d 648d 80bd ecbf adce 798c beaf fabf
000002e0: 8566 94b9 de55 f93f 78c4 288f 043a e93f
000002f0: 8eec 566b 408a a2bf 9a38 440f 036e c0bf
-0.26303181339460835 0.34997261608497177 0.8912372001084534 -3.1243446498044887 0.06050173727138328 0.2746444181491884 1.7671583386233076e-93 -7.064030399136381e-95
5.562653457829309e-65 1.4341974736680694e-103 1.5709250706889177e-103 1.4166411243191027e-103 -1.1567483941799186 0.5720433248105413 0.8467264583793294 -0.9200566520440592
-0.8958105265119077 0.43752196075146055 -0.32120267574174277 -0.1514357056263108 0.14925352923002366 0.8151139213651147 -0.014347686017733528 -0.11779219783423873
7.859765828806975e-38 7.403534037757896e-26 2.1185350006719182e-19 0.4284651017976028 0.09424711315932709 0.8881029531012425 1.4297027851574862 1.6350867504379405
-1.1921380494114264 -8.454491296610855e-142 1.46853079266766e-133 -2.910889468208055e-86 -1.7788153968431575 -0.5827058116917023 1.4713608837047376 -0.16407038957724476
0.03337183134183414 0.020115133731449117 2.879919527849434e-222 -1.067400542818031e-206 -1.3087217833793354e-199 -2.464129269121225 -0.06836137848665698 1.3538288185040759
1.6036066796567983 0.1124633453461273 -1.5329215562180973 -0.9005199549397387 -0.17631907651380702 0.9579703044666585 1.5924410659721162 -0.11199963115445334
0.42609046751310686 -0.0023567748583634526 -0.02498047060157725 -0.03238075554822526 2.330913888709667 0.1030987219454441 0.003933732603634532 -2.0968466243968127e-122
-1.1942913742573936e-113 6.982529780471724e-48 0.09733069077297922 0.05104782992222404 -0.00864035115960738 0.002320624403829526 0.009202343409130431 0.019160891504198384
1.1191376707493723 -0.050099455979877014 -0.18894892425954793 -2.96660992516558 -0.36479343340892834 1.0968138994976422 2.1582194554189447 0.2989982962011889
0.7617692418098544 0.023968862748503017 0.030041726314756573 0.07606694245765389 2.139086837269646 0.516069545516103 -0.38563677527349755 -1.7115437152239665
0.6727014679872206 -1.5996476045846688 -0.8981325875837763 -1.6679063308082889 1.5834643601614584 0.7883322521285114 -0.036211026289913226 -0.12835729833063142

bias f8 [32]
00000000: b933 befc 845a d5bd 2542 6127 711e c43e
00000010: 7636 2fe3 2a13 213f 82b2 163f 6cb9 fc3d
00000020: a36b 0e65 075b f43d 5299 60c3 6f6d 35bf
00000030: 2204 1576 78e1 e13e e3d5 bfc6 7121 3a3f
00000040: 3057 2399 dfa0 803e 0e85 bbcd 9d17 8e3e
00000050: 4f16 6dd6 c0dc c7be 958c 3fd6 6342 79bd
00000060: 5f15 3e00 b057 87be 9a6b 7300 0740 f83d
00000070: d04f 1ed7 1dee d0bd 7adc dce2 5b87 623e
00000080: 4a70 ab15 9040 ecbe 7423 44e7 3a21 e03e
00000090: 0b1f 2e8f 1945 dfbe fd6d 47e0 8fc1 a13d
000000a0: 79e2 f405 cbf5 c1be c77f 3f01 ffb0 65bd
000000b0: 50f6 6f56 9254 c8be 950e 124f 4565 90be
000000c0: 20ef b6b1 b812 323e 8a82 c475 b25e 393e
000000d0: 259d 3f11 a48c 54be 3ae7 7048 a872 1bbf
000000e0: bb7f 0876 5e3b 8ebe b7fd f129 6869 16be
000000f0: 4b11 a693 d152 e63e cd9f a132 0713 f83d
-7.768391415015357e-11 2.398361455248587e-06 0.00013027094391164826 4.1799369442154416e-10 2.96212697648299e-10 -0.00032695749848911826 8.526203319038766e-06 0.0003987219595268083
1.238913225956258e-07 2.2420474620532494e-07 -2.844609912430383e-06 -1.4358270101585821e-12 -1.7391539597012056e-07 3.528854989911899e-10 -6.159150080543967e-11 3.4512478526453805e-08
-1.3471698073024133e-05 7.691290399696015e-06 -7.455330193979551e-06 8.07454017599747e-12 -2.1410142349266486e-06 -6.165064140077483e-13 -2.9004046839798447e-06 -2.443133118661711e-07
4.207978656003784e-09 5.90689261070222e-09 -1.9138100062959328e-08 -0.00010470535390618994 -2.2524528288467805e-07 -1.3045352921003868e-09 1.0644679254275541e-05 3.5032758866708533e-10

weight f8 [32, 3]
00000000: 0ed8 613c 46f4 953f cb11 2200 751f fd3f
00000010: 3184 57a2 7e72 f73f a593 5c2a b8c4 f03f
00000020: a44d 0e0c af2e fdbf b016 72c8 f903 dbbf
00000030: 25fa 4aa2 477e 7438 96ad 11ce e6f8 c7b0
00000040: efb0 eafb bdea 4a2f 52ee dfe9 0f4f 45aa
00000050: 1f97 058b c597 522a 5edc 95e7 40bc 51aa
00000060: 452c c607 a707 b7bf 0770 896f dc93 f13f
00000070: 579a b9de 41ff 02c0 db08 3599 fee8 e73f
00000080: 87f7 366c bcd0 0240 2f4d ecde 30a2 f2bf
00000090: 233c 66bf 8b2c b93f d6bf b12c d7d2 02c0
000000a0: de37 e4bf 6044 fabf 8f96 b8c8 6f4d f53f
000000b0: 78da 0e60 532b f3bf caae bc4f d10d 0240
000000c0: 587d cb9b 4805 b33d 646d a914 adda d0b9
000000d0: d83c 8a9c 9d60 be3b 14ea edcd b4b4 e93f
000000e0: b45e f833 2716 0840 127f e7b9 5169 e3bf
000000f0: dc1e 3443 8304 d23f 3eb8 d4f2 6d2f 0040
00000100: fae8 57e1 e62b d3bf 4248 d786 fceb a328
00000110: 01c5 127f dd89 1aa6 2b57 18fd 023d d622
00000120: a08b dbca 65ea f3bf ca82 33f1 43f9 e4bf
00000130: 7bd2 5a34 1a50 fdbf 7676 4ee7 75a4 ab3f
00000140: b008 fed8 c0c1 d33f 3d4b cf80 b486 f53f
00000150: aa43 7e35 4b53 f616 3719 7186 b083 979e
00000160: 1d86 c3ba 39f0 7f1c 1f61 fced 402b f1bf
00000170: 4ff7 43ac 0cc6 e33f a7dd 0372 a607 f5bf
00000180: faad dbea 721e f33f 40af 706c 97b6 e03f
00000190: d679 0070 8119 e53f 35f1 06f2 4f9a 0040
000001a0: da67 a301 7c73 00c0 54bf 0662 f300 d9bf
000001b0: 307f 15d8 f1f1 f3bf c91e c23f 213f f4bf
000001c0: 987d fb98 bee8 0ac0 f5f9 67e3 4001 91bf
000001d0: ccfa 7e75 24e8 523f bf67 0aed d7ad 853f
000001e0: 98fe 9d40 e056 00c0 109d a3c1 2cbe f63f
000001f0: ebaa ffee ac5d b03f 9940 aba6 836f 9430
00000200: 8483 d41a 362a e7a2 e0ad 3866 2823 89a6
00000210: 7b5a dc77 fb8c 81bf 211e ed1b 12f4 91bf
00000220: 248c 9c82 5a3d a63f 6f90 0a7a aa27 983f
00000230: d8f9 9e91 21e2 103f 913f 0f9e b4d7 96bf
00000240: 7967 335e 4a12 d4bf ca86 344f a0f4 fb3f
00000250: c930 e541 e149 0ec0 2e08 8f85 fb4b e7bf
00000260: 7df1 9973 8f52 fe3f b4c9 827a a2da 5e3f
00000270: 44b3 9321 49aa fbbf 92b8 4db7 3e22 ecbf
00000280: d1be 793d fba4 fcbf b5e8 736e 92c5 b0bf
00000290: bc80 ba35 63a7 a53f eafe 4ec5 1b71 c03f
000002a0: ca36 3bd0 38a2 ebbf 82c8 ab3c 691a 0cc0
000002b0: 4330 4d73 c750 babf 4f35 858e 0569 0140
000002c0: 614e e89b 9f19 ad3f fc4b 1bfa 78e7 d4bf
000002d0: 4a57 90d0 2e87 ed3f dd09 72b3 efba 853f
000002e0: da58 861b 27ea e33f a7ca 7d98 daf0 f03f
000002f0: 6a9e aaa9 0d23 f23f 90f2 a1da 4ee0 0640
0.021439645228802866 1.820179939765796 1.4654527989844264 1.04802719638358 -1.8238974066669948 -0.4221176583745132 9.635894205329443e-37 -1.0599863293401064e-73
7.094098384722645e-81 -4.645487122445336e-105 8.106766617675178e-105 -7.732886884001463e-105 -0.08996051730916672 1.098598895731813 -2.3746373558417804 0.7471917145087689
2.3519218878054207 -1.1645973880702731 0.09833596632800883 -2.352949475454788 -1.6416938300858344 1.3314054337182915 -1.1980775596872757 2.2567468862015163
1.7299170548459242e-11 -3.323905557851297e-30 6.432665713384848e-21 0.803308870511787 3.0108169613048066 -0.6066063528960248 0.28152543604708824 2.023158928982439
-0.2995545578593376 6.471734468404094e-113 -3.9204757694092246e-125 7.294644757788935e-141 -1.2447259830594035 -0.6554279051743717 -1.8320562405689589 0.053989109502464425
0.3087007636132837 1.3453869849806346 4.666609447551728e-198 -2.613343285078189e-161 2.0661192117257785e-171 -1.073059968597654 0.6179259647903822 -1.3143677190508727
1.194933812536759 0.522289001271453 0.6593634784256277 2.0753477962845417 -2.0563888671867803 -0.3906830270088808 -1.2465685311107784 -1.2654125681455517
-3.363644786047825 -0.016606344108362554 0.0011539798779122588 0.01058548633709566 -2.0424199150291535 1.4214294017818396 0.06392937502793543 1.1295059741072675e-74
-1.5197153137257127e-140 -4.75325395677823e-123 -0.008569683642730688 -0.017532618479235155 0.04343684048060251 0.02358881349449898 6.440477264300166e-05 -0.022307226321401755
-0.3136163635186829 1.74722319545292 -3.786074175650445 -0.7280252083367083 1.8951563373258005 0.0018831812576932507 -1.7290736495589991 -0.8791802959583654
-1.7902786637677546 -0.06551470944023914 0.042292690571458874 0.12845179685790892 -0.8635524813668891 -3.5128960361408312 -0.10279509129503688 2.1762801298524788
0.05683611658255639 -0.32662796425319107 0.9227518151771872 0.010610459007016121 0.6223331010430926 1.0588022190756108 1.133557951698004 2.8595254021332224

weight f8 [128, 32]
00000000: 1054 2d48 e0f4 933f 7f42 f847 496a 8b3f
00000010: 67c3 7f31 5de1 be8f c728 a592 115b b82d
00000020: 7312 f35a efe6 aabf e8b0 24ad 9417 a9bf
00000030: 040a 2429 3576 a0bf e718 6b6e ac47 96bf
00000040: 2e69 4d68 2fb3 431a 862d e512 9bb6 89bf
00000050: 11ae a22d 3796 7d3f 2638 019b a1ef e79a
00000060: cf5c 3e27 7c43 b7bf fc9c 461b 97bd 743f
00000070: 8ae5 d912 902b 4b08 563a c6ec f0e7 a8bf
00000080: 5440 8584 d25c fb3e f3f3 f8cf 5efb 873f
00000090: 1f71 6808 2dd5 afbf 2512 e7eb 5838 c136
000000a0: 898c 65df 40ff 8d3f 8e73 bb27 615b d219
000000b0: 9589 d85b 83a6 25b3 2ce7 096f fef7 b2b1
000000c0: 00a5 18a6 70ed 8fbf e406 85a6 e6d4 7dbf
000000d0: e67f 55f0 fa53 b2bf e3dc c279 e5a9 6abc
000000e0: 86f1 9c21 0b71 763f 2a9d 08d6 7b2e 99bf
000000f0: 45f9 b700 46d6 413f 8539 6ef8 0098 86bf
00000100: d984 9a50 5f8d 8dbf 2f32 bcfd d6fd 78bf
00000110: df3d 97e9 325e 2112 7a0f b75d c484 ff2d
00000120: a8dc a782 6024 aa3f 88ad d3d0 5688 af3f
00000130: ba57 43e0 fea6 93bf 8fff e584 a868 9bbf
00000140: ed9e 0bba fd30 6d1a f804 4d82 bbbc 923f
00000150: f342 bf92 e611 7a3f 727e 95b0 2f32 d81a
00000160: fa75 845b 56fd a03f 2525 eb66 a57e 863f
00000170: d7f3 3f86 7397 0804 a208 72f6 7805 683f
00000180: 206b 9570 97c3 fc3e 3bf6 4389 b8b2 97bf
00000190: 45cd 736d 7d59 88bf e39b 203a 7514 0237
000001a0: 0146 bfaa 607b 873f 30ca 5466 1b10 c219
000001b0: 4708 f9b5 0cea dab0 c0f2 bef0 cdad b831
000001c0: 516f a0e3 30ad 823f d8b9 c828 e4b6 78bf
000001d0: c1a9 41f2 60af b43f de3e 6b49 5a55 9d3e
000001e0: cfc0 a177 80e1 973f 428a 742a 5604 ac3f
000001f0: 74e9 2736 948e a8bf 4095 d343 5354 873f
00000200: d13e 1216 85fc 453f c9b4 cf75 6e67 613f
00000210: 5886 c6a1 7d12 f392 4e39 7c17 b794 f0ad
00000220: 2559 c77a 07b9 8a3f d4df 711b 2606 a0bf
00000230: d2f4 145c e6e0 a6bf e08a fe14 443b 8a3f
00000240: bf56 48d6 4a4e b39a cb74 4b44 2765 913f
00000250: d7d9 a737 9325 8a3f bfa8 1ca7 ae60 b39a
00000260: 74b7 4ba0 1f16 a73f 3d52 3534 c493 43bf
00000270: d12d d1e0 31fe 538d 055d 58bf a0da 653f
00000280: 36a3 13cd 1fc2 13bf 92a5 3517 94ad 79bf
00000290: 0498 ca8d 54ec 973f 8528 0dd1 077b c736
000002a0: 30d2 2d60 cc31 b1bf bb4d e747 8b66 b799
000002b0: 1766 0b05 c256 2434 ef2c 4b7e b7d3 c031
000002c0: 3372 adfa 6d7e 8fbf be39 fc80 c003 a6bf
000002d0: 8a4e 7185 0212 a53f f61f 1de0 32ec 9a3e
000002e0: dff7 2ec2 cbb9 9bbf d43d b96f 46a6 7d3f
000002f0: 37a2 c46e e034 673f 64ec c5b2 b09b 7d3f
00000300: e934 e3e3 e74c 90bf c9f4 1db4 5e75 9a3f
00000310: 964d 4d79 c19a de8e 3d58 1659 3b84 fead
00000320: feed 5d50 2a61 74bf 58ce 623c 3128 90bf
00000330: d67c 27b2 a750 a73f 7a79 b1f3 a02c 6bbf
00000340: 700f b8e6 ed8b 8099 4f00 eae5 1235 a5bf
00000350: 6677 76d6 0912 b0bf d797 784f c6e8 c11a
00000360: 1fe9 1a0a f4cd b03f db9d 3893 33aa 823f
00000370: aebd 9dd5 0ff8 a28a 5df5 67b8 2177 783f
00000380: 6e8f c153 a94d 18bf 947f 05ca 2853 8abf
00000390: 7e85 07a5 880c aa3f 8cc2 76e3 964e 0bb7
000003a0: 09f2 d08b 0fd0 77bf ff95 36dd 5549 c419
000003b0: 2f69 0fc7 1bc6 3133 e227 25d7 9492 d4b1
000003c0: 5c5f f6d8 95c4 7bbf 60a2 5935 3ebf 95bf
000003d0: 91eb 49c0 f9d2 aa3f 9502 ee14 a75c b33e
000003e0: 792a 1745 8706 a83f 84c3 d550 63dc 74bf
000003f0: 1df5 f2ed 2571 9dbf d0e9 f310 26df 8a3f
00000400: 7055 e125 a5da d6bf d95e 739d b7d9 df3f
00000410: ca99 a7c3 9c6f c53c 2c10 3705 f1f5 2e2e
00000420: 9fee 96db 6745 e43f 3da7 9645 917e d2bf
00000430: 68ce a2f5 6836 02c0 bc6f a979 76a3 05c0
00000440: 78dd ca50 60ad fa3d 06c0 2839 e5e9 fe3f
00000450: cb9c f705 239c f1bf 1f42 da0e fbe2 4432
00000460: 1604 2926 4553 fdbf 3e10 5885 73ef da3f
00000470: 7229 3347 b4a2 b830 2a46 3bfa c782 c6bf
00000480: d91f 0f50 2601 583f 13dd 9281 1180 e43f
00000490: 8d81 2b56 f62c febf f5f4 e78a a06f 2d3f
000004a0: 393d 7035 4147 d63f feeb a5e4 9ae1 06b5
000004b0: 45b6 c2f2 d79e 9ebf 5fe5 e27e 4711 6a3f
000004c0: 6ded a03a e823 03c0 40f4 7866 d6a0 01c0
000004d0: 425f 20f3 5ce6 0840 543e 7787 e287 af3f
000004e0: 8b22 6fa2 4dcd e23f 4d88 792d 48c5 fb3f
000004f0: ca88 359f 6bd9 f0bf 034f a464 7d67 d53f
00000500: 107c 54ba 3d29 78bf 83f2 ebc4 4fe4 953f
00000510: f22d 4e02 4552 3314 a1f5 80d4 0d9d 032e
00000520: 3a2e 8481 d7da a1bf 5cb5 e1e8 e4c4 b6bf
00000530: 7db4 fd9e c681 aa3f 0925 8e14 9c26 91bf
00000540: 6b19 511c 54b0 089c 05e3 40db 063f a4bf
00000550: 4d9e c689 e9e3 86bf 181a ed12 54cb fe1a
00000560: 1f45 858a 6700 923f 3cb9 0736 f38b 89bf
00000570: b4da 90fc a1e5 880b db29 0f62 b3e3 9bbf
00000580: 50a9 377b 0d73 12bf e6df da15 8bcb 6abf
00000590: dd7c 99c4 e89f ac3f f4b8 3741 319c ccb6
000005a0: 07d9 00f5 c347 863f 9209 6b24 c41f 9299
000005b0: 901a d7e5 b982 d5b2 83a9 b8b2 b75b a331
000005c0: 4419 18f0 e40c a43f 61f5 912f a3aa 863f
000005d0: 17fe 8cc8 f15c 9fbf 71d9 b27c 4f89 a0bd
000005e0: 03e1 a221 a6e8 a33f aac1 c210 8495 b0bf
000005f0: a6b7 9bb1 5337 a4bf 3102 6a83 4ffc 583f
00000600: fd6a 3e45 e83c 94bf dd49 e85d 9063 a03f
00000610: 8342 40ab 5af0 dd16 275b 25b6 fc83 0a2e
00000620: 95c8 0beb baf4 733f 8108 1b81 d44c a33f
00000630: 32f0 c954 4000 70bf 46a3 671f 0fd0 96bf
00000640: 5c25 ca98 9011 859b 7589 7e08 94fa 843f
00000650: f4a2 2627 c9eb 5ebf b7fe c5f7 31b2 df9a
00000660: ca0b da16 d6b9 a5bf 1713 bd64 c59f 8f3f
00000670: 24a9 1c6d c92c 3384 50ab c6d5 f6e9 a5bf
00000680: 93a0 032a 254d db3e ed29 df8d 8718 7fbf
00000690: 3e41 c3c1 f5d4 a83f f5b6 2aeb 834e bd36
000006a0: 1ea3 90e1 241a a43f 11d9 edb0 6611 bf99
000006b0: 82e0 a787 7237 32b1 9d1a 3b81 f26e ddb1
000006c0: 5b6a dbbe d7b3 9e3f a57d f8c5 4971 903f
000006d0: aa8a ba65 4887 973f 293a d1a0 ccfb 03be
000006e0: b4d1 639d 3206 803f dae5 aed3 0c26 71bf
000006f0: cbd6 d6c1 d98c 96bf a8d3 89cc a86e 853f
00000700: 2d36 b7d2 2891 97bf 5e5d 0519 5e2d 81bf
00000710: 7910 ce31 8c9e 7393 4b42 f71b 375f 07ae
00000720: 4137 5f6d 4301 b53f 56d7 86a5 ac5c ac3f
00000730: 65a1 5b1a 334d 95bf cb2b fc7b 0bc3 90bf
00000740: 2e25 8a1d 79df 2e18 39b7 0204 d82d a13f
00000750: 77ee 70a5 3772 86bf 8693 5d9d 7dc7 9a1a
00000760: 4f6e 599d 6046 a13f 1467 d2aa da20 86bf
00000770: adda fa26 1c59 f009 cf65 b187 b241 883f
00000780: d122 1889 2e4a 3d3f 4583 f35d b08d 91bf
00000790: 045d 6bf7 a68c 7f3f 52d4 9447 e764 f2b6
000007a0: 1c89 5763 1c50 903f 5e8b b4cc 3680 da99
000007b0: eab7 07c2 3fed 2134 6dd8 a879 fac0 78b1
000007c0: 4fdf 1ce5 3783 963f f8a7 105c 2d3d 59bf
000007d0: e0a0 62f8 87ee 81bf 57f4 50c2 cfaa b33e
000007e0: 9837 caf5 679e 86bf dcf5 d8ad 6ab9 a13f
000007f0: 7ace c955 d1c9 a1bf ac2b f830 cdbc 593f
0.019488815694177986 0.013386318692057529 -7.769718297914943e-233 1.913033420958851e-88 -0.0525431440851535 -0.04900803197446796 -0.03215185286719094 -0.02175778793277852
3.709006396909877e-182 -0.012555324091087849 0.0072233348275108225 -4.614718852205252e-179 -0.09087348898025314 0.005063619861551457 1.0285992202430868e-268 -0.04864457025825135
2.609499668554422e-05 0.011709919664207624 -0.06217327811848094 6.03262731561377e-45 0.014647013490224363 2.700120935647298e-184 -2.6314654407341393e-62 -2.748395137654395e-69
-0.015589599675041033 -0.007283116320026404 -0.07159393661049726 -1.1563518272356206e-17 0.005478900415081594 -0.024591383875443608 0.0005443422136861906 -0.01103211172246855
-0.014429802558256476 -0.006101455506506911 2.4023822751301415e-221 3.9610331622605205e-87 0.05105878443640083 0.061587059966622226 -0.019191725194864985 -0.02676642714641236
2.1984020693374055e-181 0.018298082187588854 0.0063647276655991345 2.3324207162654578e-179 0.0331828104701621 0.010983745768856476 3.154286060445e-289 0.0029322969963355297
2.743151620641503e-05 -0.023142703416843196 -0.011889438536377592 1.0134142145266371e-43 0.011465792856969694 1.3284358251621396e-184 -2.3801452057966167e-73 3.5757506015571413e-69
0.009119398066154057 -0.006033793685260545 0.08080106653657194 4.371018546391241e-07 0.023321158696888496 0.054720585520290146 -0.0479627910717281 0.011391306407356638
0.0006709718546904169 0.002124515287951743 -2.1611484668357593e-217 -2.0837703660710774e-87 0.013048227724465076 -0.03129691205043597 -0.04468459962888861 0.012808353319831267
-4.652550183787729e-180 0.016987432044392386 0.012766981254554928 -4.669861979857782e-180 0.04509066421256494 -0.0005974491145175964 -1.8300391410532583e-244 0.0026677264784315
-7.537192438501487e-05 -0.006269052962445969 0.02336246600557247 8.225827984153306e-45 -0.06716611240501247 -8.604962317474261e-185 1.6200866947158395e-57 4.876162579898843e-69
-0.015377864086695591 -0.042997375245352285 0.04115302924097104 4.0117876675240266e-07 -0.027075942732828536 0.007238650457636681 0.0028328307581839923 0.0072285558966270515
-0.015918372425223124 0.02583835577342056 -4.6999032986719793e-237 -3.835097621678571e-87 -0.004975476540376443 -0.015778321562449044 0.04553722429022293 -0.003317179068786644
-7.605739065587698e-186 -0.041420546117479355 -0.06277524457843028 8.631983989354551e-180 0.0656425976439192 0.00911369603188821 -1.9739582390083203e-257 0.005972987861693949
-9.270997992555176e-05 -0.012853926339346157 0.05087687506216819 -1.5306097191577217e-43 -0.005813656546760367 1.491966505377144e-184 4.32058635708722e-62 -1.1923117768010993e-68
-0.00677927526648844 -0.021237346655114897 0.052390866015193834 1.154060629921101e-06 0.04692480772390168 -0.005092990829653202 -0.028751938484437568 0.013120934860570893
-0.3570950384067464 0.49766340614358523 5.949681242962154e-16 3.1127350043520323e-86 0.6334723748072583 -0.2889750651908008 -2.276567381888345 -2.704815817340174
3.882050937588035e-10 1.932103369977996 -1.1006193383307614 1.5494573189780284e-66 -1.8328296175607242 0.42086494466662205 5.446576059697742e-74 -0.17586612432801135
0.0014651178500901722 0.6406333475814868 -1.885977112389898 0.00022457918880994907 0.3480990430698117 -2.9861450323148053e-53 -0.02990281504815175 0.0031820675277144795
-2.392532785450092 -2.2035339360868704 3.112481975007456 0.06158359435687247 0.5875614330808089 1.7356645370823742 -1.05308115187704 0.3344415171461465
-0.0058987056011394895 0.02137875213064656 2.2957303118548874e-211 4.929764699428555e-87 -0.034872755584811135 -0.08894186673724874 0.051771361263356554 -0.016748846773713164
-1.2477632793546024e-173 -0.039543356193865654 -0.011176895634732587 1.1873868592202454e-178 0.017579667882562263 -0.012473964773530903 4.2448341478533877e-253 -0.027235796794949124
-7.037896903453367e-05 -0.0032708851348068778 0.05590751075646392 -1.0022831605948198e-44 0.010879069246680929 -1.6661680770356397e-185 -8.170233022075747e-64 1.4024183727081017e-69
0.03916087561451545 0.011067652596689017 -0.03062799250187539 -7.519870053762818e-12 0.03888434563254075 -0.06478143128584316 -0.03948461096830096 0.0015249992844986843
-0.019763592935855268 0.0320096125252751 1.5645104587222131e-198 6.664572676365536e-87 0.004872064732568533 0.03769554210659099 -0.003906489652418842 -0.0222780573766699
-4.1593788898798256e-176 0.010243565091347698 -0.0018872703918565966 -3.055400026626063e-179 -0.04243344334556516 0.015441457878873117 -1.967607046602112e-288 -0.04280063018389646
6.509148676260692e-06 -0.007591752537289481 0.048499755766558725 5.133429286342124e-45 0.03926196340063924 -1.1424457666711391e-184 -1.0310225316502978e-71 -1.7058516120865884e-68
0.029982920669548423 0.016057160099192242 0.022977000435853746 -5.815990481184101e-10 0.007824321201476227 -0.004186678032902924 -0.022021677452093862 0.010464972250000162
-0.02301467691522967 -0.008387313021258332 -5.69124397644041e-215 -5.874432597151764e-87 0.08205052776540091 0.055394549566172444 -0.020802305682907547 -0.016369037096449362
3.3833801260810425e-192 0.03355288552243824 -0.010960039841044307 1.6133967949884734e-180 0.03374006195801071 -0.010804851854391319 8.306741056441963e-261 0.011844057813663959
0.00044692646142200943 -0.0171420628875041 0.0077024957779123805 -5.155139963682478e-44 0.015930598796225146 -3.898003634177436e-184 1.427948348976758e-57 -2.2416266754220656e-70
0.021984933241781687 -0.001540464684021801 -0.008755743281952666 1.1722584159067691e-06 -0.01104432314721375 0.034617742272967184 -0.03474287197323363 0.001570892698398589

bias f8 [128]
00000000: 2b43 ed1f d317 59bf fc28 8340 d8a1 80bf
00000010: 3dda da16 c7c2 95bf cb44 9734 6d49 89bf
00000020: 85eb f801 a1e1 d5bf 0962 1f3f 9287 793f
00000030: 5425 3c90 cd06 7e3f 5111 a088 2e35 9fbf
00000040: 47ec b76b 9c64 373f 03ab 92e0 38ab a5bf
00000050: 9016 d716 5c0e 933f 140e e628 849f 86bf
00000060: f17a bcdf 1616 a9bf 1435 8119 8602 67bf
00000070: c82d 384a c4a3 933f e4e8 4b72 b370 8ebf
00000080: c65d 92aa 5ab3 d7bf 03d9 d60c 1346 d7bf
00000090: 6b14 4cb2 1bb8 7dbf f25c ccc4 1cd8 853f
000000a0: 3fd3 e9e7 024b 93bf 5b19 9db8 e95b 88bf
000000b0: 4ec2 3fe2 5c77 8bbf e7df 0ee1 4a73 69bf
000000c0: 1458 c766 ff56 a1bf c339 ea5d 8e41 6f3f
000000d0: 5759 dab3 5ea6 5bbf dd64 c551 9aac 933f
000000e0: f38d 1702 5e05 9abf 2bc2 73b1 4045 77bf
000000f0: bba7 0020 6df2 7dbf 2f7e 3dea d666 5d3f
00000100: d129 97db 767d 793f eecb 5230 d214 9d3f
00000110: 845b 0947 620e 9cbf 2ea0 3258 c746 8f3f
00000120: 312a e13c 34cf a0bf 90dc f094 05ea 6dbf
00000130: bd04 82b6 a49f 91bf d11c 11d7 0c65 75bf
00000140: c560 7c87 1e6e 823f 844a 6fe1 ce72 813f
00000150: a791 bab9 d27f 7bbf 8a2f 5f9d e109 abbf
00000160: a777 c8ab 1087 233f 1fb7 0859 3841 a33f
00000170: 7e40 2f7e b88f 99bf 7da2 e3e0 f3fd 7dbf
00000180: 8d24 0508 4476 a33f 202a b901 cdbd 813f
00000190: ff60 6ca9 940d 733f d684 8376 0902 a5bf
000001a0: 7495 7d28 1e77 853f e207 736d ee11 c43f
000001b0: c563 0550 8524 cebf d1ea de0c 3d83 823f
000001c0: db3b 92c9 1a0c 6bbf b251 5844 8581 8dbf
000001d0: 0ffd 5e0a 4333 8abf 3165 2323 5151 8d3f
000001e0: 4539 997e f5d9 81bf 9d95 e405 fdea 84bf
000001f0: a68a 9589 648d a0bf 2038 ca89 9629 673f
00000200: 157e 35d9 ff92 d7bf d842 4167 6aa5 683f
00000210: 0de2 f8f4 fcf0 83bf ded5 1362 2490 9d3f
00000220: 3062 dd93 9901 923f 998f 7d98 f7b7 91bf
00000230: 7b56 bf71 a4c0 76bf 90b0 5e29 bf58 973f
00000240: 8c0f c2b9 5218 b63f dee1 52d1 8579 b63f
00000250: ce70 495c 04bf 8f3f da1a e0aa 5f37 93bf
00000260: 8c25 b52e be6b 963f 1048 ffe4 7aac 963f
00000270: 3afa 9a05 524b 8abf 85e4 71cd 2134 98bf
00000280: c5b4 ec02 4acc 843f b879 449e 218b a33f
00000290: 54d0 eb44 9f9c 79bf ae07 7a27 b610 4abf
000002a0: 2ba1 ad10 8344 79bf 7986 e14c 0082 913f
000002b0: 04b8 9b5f 20e4 63bf 518b c231 f1c6 53bf
000002c0: 5c2a 6ef5 8a9c 82bf 6281 a802 d67b 903f
000002d0: f28e 3f52 68e6 933f 0861 5ff8 2acc 93bf
000002e0: b746 edd9 ef17 a0bf 0548 630f 260d 883f
000002f0: a912 7bac cff8 5d3f f528 0583 77f5 a4bf
00000300: a74d ee86 7bd3 993f b8a8 b892 3c64 933f
00000310: 8e4a 1555 a9be 843f bcd7 bbc0 8c3f 763f
00000320: 4438 09c3 f69a 933f 88ea 93a1 cfea 5fbf
00000330: 8326 915e 4b57 98bf 63db 3ce3 d131 9ebf
00000340: 137f 2688 0dbb 76bf a96e 6ad1 0f31 9b3f
00000350: 43a2 0203 13c2 85bf ae83 bcef 1f5d a93f
00000360: 5963 a9d1 81d2 8f3f 1286 9e54 002f 71bf
00000370: 0ce2 4494 01e2 85bf cf32 8928 0553 a2bf
00000380: de45 ebfc c313 853f 7d66 8545 12f6 80bf
00000390: 090a 5d2a 0c0b a33f 9c32 a0f8 02e1 933f
000003a0: 3f0b 9e84 ecf2 563f a2d0 94a2 efab 76bf
000003b0: cfeb 0595 a2f0 8abf aa24 2166 b5d6 78bf
000003c0: 27ba f657 9a46 afbf e6f6 6e10 9a5e 363f
000003d0: 063f 9d87 5b92 a93f 059b f42c f590 90bf
000003e0: 0090 19d2 cbaa 8e3f 6c3f ac10 d22c 853f
000003f0: 8352 6631 c4ba 86bf 9c71 4300 70d6 43bf
-0.001531559158781624 -0.008121194332848074 -0.02125083043093866 -0.012347081344076824 -0.3418962973843736 0.006232806468652993 0.007330706579304309 -0.030476309861130094
0.00035694903246480777 -0.04232194653862644 0.018609465498022504 -0.011046440599563424 -0.048996653377107686 -0.002808820641837637 0.019179408102031364 -0.014863397527268458
-0.37032190949818433 -0.3636520028479852 -0.007255657376622353 0.010666107898528374 -0.018840833096379624 -0.011894060083829918 -0.013411260275433847 -0.0031067335589476277
-0.03386686448691037 0.003815439281715545 -0.0016876149015040054 0.019213114968214085 -0.02541109931725134 -0.005681278903680235 -0.007311273831911376 0.0017945383815102347
0.006223167694268076 0.0283997385019567 -0.027398620210387317 0.015271718386728219 -0.03283084147604532 -0.003651629354432702 -0.01721055377902724 -0.0052233220640751235
0.008999098310184537 0.008519760374757775 -0.006713698526855805 -0.05280976339380945 0.00014898375037913672 0.03760696493951187 -0.02496231336755316 -0.007322266245161854
0.0380116710462711 0.008662797560778535 0.004651623449511754 -0.04103116580677983 0.010481105433153039 0.1567972216053582 -0.2354895249107171 0.009039380030903573
-0.003301670378796013 -0.014407197139953396 -0.01279308677101068 0.014315256008944207 -0.008716504980068715 -0.01021382974847534 -0.032328740878047754 0.0028274479103123223
-0.3683471318417742 0.0030085638227678006 -0.009736992097814779 0.0288701710569138 0.017584228181791228 -0.017303341562537964 -0.005554811821601664 0.022799479389207067
0.08630864176853786 0.08779178963130316 0.015501054827091212 -0.018765921406180698 0.02189538154678909 0.02214233420074413 -0.012838974758207933 -0.023636367954598576
0.010155275549175955 0.03817086274124243 -0.0062528821424515275 -0.0007954492020447645 -0.006168853734245065 0.017097477619591992 -0.002428115109856856 -0.0012070994771781927
-0.009087644209803951 0.016097396766896373 0.019433622379337608 -0.01933352604814423 -0.03143262419929498 0.011743829102133682 0.0018293407501214587 -0.040935263389274036
0.025220804319884185 0.018937059836539233 0.010129282864601376 0.005431699577220724 0.01914582791715015 -0.0019480731628493137 -0.023770501753722428 -0.02948692273568144
-0.005549481257190586 0.02655434337303456 -0.01062407353340789 0.0495386104723886 0.015538229189745388 -0.004195214549243003 -0.01068497880679422 -0.0357896434767092
0.010291606098152547 -0.008281843897452785 0.03719366089946525 0.019413038659012657 0.0014006910082293292 -0.00553506476835622 -0.013154287503075594 -0.006064137067434286
-0.061085532415166725 0.00034133206684914955 0.04994474440047551 -0.016177969807496435 0.014974205350149816 0.010339394697012692 -0.011098416097220514 -0.0006053969268822626

weight f8 [128, 32]
00000000: e53d 61dd ac2d b73f 0b38 a0d0 364d 9bbf
00000010: 0b1a f632 952f 3c15 8c81 9407 2b32 0f2e
00000020: 9180 db14 4092 b1bf 3f26 a40a 4b0e 70bf
00000030: 7fc5 46f5 d07a b1bf 8040 e447 213c 883f
00000040: 8b3b a645 25f2 28a1 4df6 4802 4f1f a03f
00000050: 5c00 023b 5474 7dbf ec10 d5e5 e350 bd1a
00000060: fc62 8a57 1133 c3bf 5f4e 457c 8a51 a63f
00000070: 1c04 106e 7ff0 9910 2849 6f0c 7f09 bdbf
00000080: f8c6 e861 6a33 abbf 72c5 ce9f 7f3d 5c3f
00000090: 943e 5838 bbc2 b2bf cce0 6f21 e825 47be
000000a0: 63f7 b0ff 7715 4fbf e30a 8b1c 88dd c61d
000000b0: e825 88b8 43c9 f43e 05f7 d5d3 2ddb d234
000000c0: 040c 0f15 9167 463f 288c 08df 57cd a43f
000000d0: d18a f142 054c 853f aea2 f41d 7a8f 7dbe
000000e0: 66fb 0405 410c a4bf 1850 4bb8 edf2 82bf
000000f0: 506c 949f a93d a43f c836 3ae5 329c 943f
00000100: ba96 c9a6 2228 98bf 4bba 7403 c5e1 85bf
00000110: 600d 2f6e 7ee6 b098 b765 ffdc 26d7 0f2e
00000120: 1ad7 4e53 a048 a33f b495 e9d2 a607 4b3f
00000130: c488 4292 b6f6 a8bf 5ea6 adc3 ceb7 b4bf
00000140: accb 1c71 c7a6 08a0 11ce 6541 506c a3bf
00000150: c4a6 73b0 9e93 ae3f b4d6 77d9 efd8 b39a
00000160: 37f6 320c cf04 b43f 99b1 bccf 0db6 87bf
00000170: 0978 da85 5779 6e8c 6025 d129 5175 823f
00000180: 3c95 a401 9dc4 9b3f 7382 d702 a3cc a6bf
00000190: 1658 5d89 2ca2 71bf c75d 41bb 93ec f23e
000001a0: 720c b994 6d2f 4cbf a8f3 1c15 1c7b a59c
000001b0: 39db 398f f660 a3be 245a d4bd b73a c534
000001c0: a980 d1e1 0fe7 88bf 26b8 aacd 553e aabf
000001d0: b8f1 ea60 910f a23f 2288 21c1 8a15 2d3f
000001e0: e04f 4e5f bfb8 af3f 1031 d894 e342 8d3f
000001f0: 04b2 5f04 2c30 bbbf fa55 de5d ac6a aabf
00000200: 09af d647 b852 a5bf f035 c6ec 6143 b23f
00000210: fd63 875b 0a5b a599 6181 502d 91d8 102e
00000220: 2dca 9866 b4b7 9fbf 1654 c8f3 4107 95bf
00000230: e56c cdf5 5a18 b1bf 4354 bc12 47f5 b93f
00000240: af6b 733e 0203 87a1 4f10 62e3 f8c0 a33f
00000250: ca72 e5f5 0077 83bf dec4 a78b 537c a41a
00000260: 989b 2a89 c4f9 6dbf 948a 9797 fe96 873f
00000270: 5c07 fe61 6988 2216 6035 6125 62bc 793f
00000280: f103 0663 7aa9 acbf e4f7 cf70 afbb a53f
00000290: 62c5 fc18 3f22 a23f e675 c3fd 6801 cbbe
000002a0: e08e 2aaa af3d aabf ab3e 0f8e ad03 df9b
000002b0: 9c53 f4d8 ceed 0e3f 2295 49f8 3f21 9038
000002c0: 33dd a6f3 28d2 8f3f daf2 2e18 5d06 adbf
000002d0: 3301 3cb9 70ad a1bf 3219 41e9 9d93 f73e
000002e0: cc88 587c 13ba b2bf ad2f 1d42 8f7a 803f
000002f0: 2656 b95b beb5 bf3f d311 235c 6dde a5bf
00000300: 9447 3f7a 2a47 b9bf 73e4 b633 ae93 743f
00000310: c209 f69d 5d3f e893 355d e971 54ee f82d
00000320: 4995 1ec9 d160 b03f cac7 ff8a bd02 a2bf
00000330: 2367 e7d8 a63a b63f 596b f15b 845f 83bf
00000340: 0c87 f3f4 3c47 06a1 6fcb 07d1 2764 afbf
00000350: 1644 d393 5e5e 8abf 0076 97eb af92 841a
00000360: 23e8 1ebf c4e7 c33f 619d 97d1 254c a83f
00000370: 4347 8033 a227 2913 e1d8 8370 ed72 ac3f
00000380: 5f9e 5038 b523 9c3f 5248 0677 7b38 8bbf
00000390: d15f 26eb 4b1b b93f f965 4174 4f77 e43e
000003a0: a3f9 4e6e 1308 70bf 9487 519c 83fa ff1b
000003b0: 463f 2c9d d8ac f1be f93c 79e1 3846 25b8
000003c0: e26e ef00 dd2c a4bf e655 c01d 7d22 9dbf
000003d0: a27f 64cf bcb3 a13f f991 3753 6214 1e3f
000003e0: dc21 886b d1a2 a33f 9609 a6c0 13f4 9abf
000003f0: 0ffd 2095 53ff b8bf 93a8 8dfb a5ef 9abf
00000400: be37 7e5f 425e ca3f 0dc1 f0e9 ce46 f53f
00000410: c54c 18ae d4be 363e 5ee9 9e71 ad79 2eae
00000420: d20d 8a5a 39bb c6bf 7c1d 8500 d7df ed3f
00000430: c58e 56f9 471b 26c0 1ce6 db02 0ecc e33f
00000440: 93c0 70f9 9717 de3e f81c ba9f 74db d3bf
00000450: fce1 1b13 5269 e2bf f8fd 00a0 5411 2abb
00000460: d008 f586 10f7 dd3f 83aa 78e8 76dd f83f
00000470: c81b b349 5511 b8b9 6b9a 6406 7944 fa3f
00000480: 86be 48d7 f8a4 0640 0bcb 1adf 57fb bc3f
00000490: 6543 ffdc 2fc5 01c0 a5ce 5d1a 62b8 b33f
000004a0: db3a 8752 cdae dabf 1b5f 0d0f 7fbd f93b
000004b0: 491f 3147 36e7 bebf c491 7dcd b4cd ac3f
000004c0: 64a4 beab 27d1 0fc0 abea 7f3c 3a8a e13f
000004d0: 90d3 31e1 4732 e33f d617 5dcc f981 b23f
000004e0: b561 7a12 6fee 00c0 275f 3bb5 b459 cfbf
000004f0: dbea 5020 16bf 8dbf 1183 27e6 7d86 acbf
00000500: b66a 56d4 c62f 8a3f 112b a31c 87aa a43f
00000510: d5e1 b666 5a85 9e1a b139 5ead b684 082e
00000520: bc27 b5ab 4836 7dbf 53c3 7f57 0897 a8bf
00000530: 4053 ba56 147e b63f c801 7ece 24e1 893f
00000540: 6b2b 467f f4c6 2fa2 e05a 8a05 7dcb 97bf
00000550: e934 d3f5 d773 abbf 93fe a745 6f6c d39a
00000560: b066 337d 360f ab3f 322a 4724 8a66 93bf
00000570: 36da 3fbc 281d 4394 779a a539 eb81 8dbf
00000580: 950f da48 25d6 a7bf 31b2 784d 37cf 9c3f
00000590: 5b6e 8867 0221 b73f c308 6d7b ac17 55be
000005a0: ea2a 0669 5916 a73f ab6d 9231 b350 949c
000005b0: ec14 2882 83bc 00bf 4e84 85df 58fe 4539
000005c0: 482f 2d40 f2d2 a03f 7d83 0bdb 2317 8d3f
000005d0: a2c1 4f2d 7f4a 44bf 3343 8456 989d 793e
000005e0: 218b 0791 9791 82bf 4f26 678e b0c9 8e3f
000005f0: 9671 0324 f9c1 84bf 9826 7fec bb6a a7bf
00000600: 6d65 dffa 2388 97bf 09c5 75ce 5658 933f
00000610: 7166 7e9e bff2 e11c da16 bd51 5e94 f1ad
00000620: 5100 6853 b368 9b3f 61ec 5e04 51ff a23f
00000630: 25db 9b4f 2c2f a33f 2594 1976 039a 96bf
00000640: 3740 91a6 1293 49a1 f6ed 871f f833 9dbf
00000650: 6147 ea54 63ad 79bf 897c 855d ce98 c39a
00000660: d780 8e8d cfb0 afbf 0fc2 36d7 f72f 91bf
00000670: 488e 8b33 b68f 720d 9e74 16bc d23a a3bf
00000680: 4866 88e3 790c 933f 2aed 8037 678f 7e3f
00000690: 1e7e 3b6d 036e 893f 6de1 5530 e790 cc3e
000006a0: 5a71 7b70 c998 993f ca6f 7c58 9df2 709b
000006b0: 4dde 44a2 9eaa c23e 3ffa b012 47ff 1239
000006c0: 0de9 a758 b576 aa3f 36f5 4307 c2d0 983f
000006d0: 8ca2 afac 0ef1 a2bf 2932 a384 96c5 e3be
000006e0: cda6 0be5 543b aa3f 08b4 7dca 3c30 853f
000006f0: 119e d696 15e2 8fbf c258 5412 2717 a8bf
00000700: c666 7ce8 4f0a b0bf ff1e ca6f c587 88bf
00000710: 3ed5 44ef 6fde 9219 c895 51f7 4d9f 0f2e
00000720: e7a9 0fb0 ded2 983f 4f64 ead3 cc4c 8d3f
00000730: 2f5d 5717 4908 843f b8b0 22c2 220d 94bf
00000740: a889 c8c9 bb34 d99f f4a8 2b9c 9a9d 87bf
00000750: c941 a170 8de8 933f 37f1 f1bd fffa c81a
00000760: 7ee2 4173 9952 933f e611 fbb0 d5cb 9abf
00000770: dddb 7cb3 45a0 a912 06d7 287c 6850 7abf
00000780: ecb5 3244 7c48 76bf bab9 2db2 7868 ab3f
00000790: e2b7 5ac5 ca66 7c3f b5c1 b888 3fca fa3b
000007a0: eeb0 87f5 cad4 933f 0614 b96c 5e26 011a
000007b0: 07ad f0d0 a523 043f 0723 f56d 6c39 b531
000007c0: 3e35 0beb d10f a33f 1d6e 05ce e26f 97bf
000007d0: c40b 4e53 e3a4 a4bf c4a3 bff2 dc28 313f
000007e0: e8e7 189c 735b 933f 9445 03f7 dcb4 82bf
000007f0: c92c 9459 bbd2 773f 6059 1395 2829 b1bf
0.090540699050727 -0.026661735995780627 2.1947973798119643e-206 7.840969111192394e-87 -0.0686378527566396 -0.0039198809920520375 -0.06828027713961225 0.011833438879449654
-6.0966463742994464e-149 0.03148886587994735 -0.007191018128764961 7.064915640765953e-180 -0.14999596380655322 0.04359085814453744 1.0693108515293912e-228 -0.11342615178663051
-0.05312664456540789 0.0017236467676691983 -0.0732838642654719 -1.0779161603220008e-08 -0.0009486041957484755 3.102061455108668e-165 1.982325514585616e-05 3.0760559360667634e-54
0.0006837328347660825 0.04062914464545769 0.01039890394730972 -1.1012128408163397e-07 -0.03915599046967237 -0.009252412020408982 0.03953294823642095 0.02012710117428787
-0.023590604238413283 -0.010684527557342302 -9.482849710000534e-190 8.002953216686854e-87 0.03766346947615613 0.000824886757823043 -0.04875727210425532 -0.08092968251517038
-2.298239286192394e-154 -0.037935741408457464 0.05972000030471983 -4.7830667178453935e-180 0.0781983761580357 -0.011577709104664534 -8.51261398262485e-249 0.009012827004101609
0.027117207741999425 -0.04453000459375724 -0.004305051775949328 1.8047455981521647e-05 -0.0008601460517144845 -1.1116930357949185e-170 -5.775321185304018e-07 1.7316009742778262e-54
-0.01215946586506818 -0.05125682960111559 0.03527502353742612 0.00022189444331660683 0.0619563869323938 0.01428773687350618 -0.10620379549772713 -0.05159510274749475
-0.041646727341996544 0.07134067564603419 -3.926494540498789e-185 8.468317983179045e-87 -0.030974215280546048 -0.020535498146347995 -0.06677788258587077 0.1013988896123275
-3.5993313790380607e-147 0.03858163619682441 -0.009504325393828412 2.468438720561781e-180 -0.0036591375913590067 0.011518467904300146 4.72884758586978e-202 0.006283172018880151
-0.055980515086964895 0.042447550316850685 0.0354175298692876 -3.2193074571546116e-06 -0.05125187828278199 -1.9593203314267747e-174 5.899226663977979e-05 3.033693693622202e-36
0.01553756707731555 -0.05668917579848705 -0.03452636967813518 2.2484424860879852e-05 -0.07315179620539708 0.008046263890399386 0.12386693705897098 -0.042712609765235186
-0.09874215588140905 0.005023651577567556 -9.003273441395513e-213 3.1331453824577687e-87 0.06397734794753264 -0.03517715760962366 0.08683245463853644 -0.009459528022650753
-1.361174179692312e-149 -0.061311001078044984 -0.012875307928341722 6.197409218297668e-181 0.15551051456515194 0.04745596107005202 2.2803122408395942e-216 0.055564327225441586
0.02747996479243253 -0.013291325158920984 0.09807276240314812 9.758976041651472e-06 -0.003913951780246813 8.080934078516377e-174 -1.685636545817263e-05 -3.125978231543721e-38
-0.039404779781504265 -0.028451876583934686 0.03457441360137571 0.00011474466446476779 0.03835157811778675 -0.026321705468498623 -0.09764597311822264 -0.02630481098041366
0.20600156462427138 1.3297871721552526 5.295833745074272e-09 -3.063933128566004e-86 -0.177588624199514 0.933574200645054 -11.053283492866635 0.61865902479548
7.174530671824733e-06 -0.3102695045312909 -0.5753565190526042 -1.0781347003393902e-23 0.46820462397967066 1.5540684777176075 -1.1866296022134447e-30 1.6417169809079961
2.8305527514529016 0.11321019360438471 -2.221282698192612 0.07703221458160188 -0.41691906985663046 8.721125768367666e-20 -0.12071551549990746 0.05625691421917936
-3.9771264474443786 0.548123472369601 0.5998877905209259 0.07229577292773057 -2.1164227908704683 -0.24492510651793362 -0.014524624692162138 -0.05571359095097795
0.012786439280536892 0.04036352371766417 1.8388237227111181e-180 6.162594726658991e-87 -0.007131847257662412 -0.04802728717903073 0.08786131970766764 0.012636458922998708
-5.089642506191313e-144 -0.02323718401256769 -0.05361819148820663 -1.8723701651427872e-179 0.05285043981866744 -0.018945845092995302 -4.542159931760542e-211 -0.01440795678781835
-0.04655567659668162 0.028134216407283034 0.09034743335399169 -1.9643898698013803e-08 0.04509238631279351 -5.2568345259852905e-171 -3.192211467610028e-05 8.471604839083207e-33
0.03285939248470854 0.014204292413923398 -0.0006192322713314722 9.542556756262374e-08 -0.009066757310340958 0.015033130021851053 -0.010135599528830846 -0.04573619138643642
-0.022980272471476427 0.01889167437679354 1.4861896426177453e-169 -2.2092729274377535e-87 0.026766588178361698 0.037104160102409585 0.03746927711283935 -0.02207188995670974
-2.5001113670652464e-148 -0.028518559383867235 -0.0062688713211559175 -9.44539118340665e-180 -0.06189583399759762 -0.01678454638539689 6.796004231508192e-244 -0.037558160266806015
0.018602280151844647 0.0074609786898307915 0.012416865130432216 3.4053358627905864e-06 0.024996898165100624 -1.6729141739734956e-176 2.2252181840728514e-06 9.146808606910765e-34
0.05168692309594478 0.02423384827942706 -0.03699537141784956 -9.427942263684035e-06 0.05123391433683153 0.010345911912475372 -0.015567940393181908 -0.047051640498624106
-0.06265735078741405 -0.011977713083310968 1.73463920848719e-185 7.948121338142219e-87 0.024241904731676114 0.014306640832091015 0.009781428360766313 -0.019581359004107596
-2.9374197660241067e-155 -0.011531074419924604 0.019441804885276946 1.2040183678383881e-179 0.018869779262305368 -0.026168192793891175 9.074340258031078e-219 -0.00642433943226251
-0.0054402212291910605 0.053531429052657356 0.006933967660797765 9.076815888860914e-20 0.019366427646603172 2.018058223393015e-183 3.8412568862911506e-05 3.0752087496043783e-69
0.037230071966045206 -0.022887748550927 -0.04032049552826991 0.0002618350433736783 0.018903547670767212 -0.009134031570655655 0.0058162039142743505 -0.06703427924671734

weight f8 [32]
00000000: d5c9 a0f1 a8ca ee3f a2a3 0d63 8a98 f23f
00000010: 0ec8 6f0e cb37 093f 2d77 5491 06b9 152b
00000020: 991b 9c30 485b f63f fc52 b671 8ce6 f13f
00000030: 8ce0 45a1 ed52 0040 2ffb 0826 52c5 f33f
00000040: 68e7 b680 d12e 18bf 21cd 742b cfaa f63f
00000050: f25a 4fff d86c f23f d589 28c2 2dca 51be
00000060: deef 65b3 1c9b 0640 9272 5ae2 756e f13f
00000070: 6ecf 101e 00cf 2cb2 130b 2a2c df14 f23f
00000080: eefe 0c8c ce63 f13f 28c8 407e e99e f23f
00000090: ce02 3b31 7759 f93f 8f32 876f e162 a23f
000000a0: c8a2 cc18 f170 f53f 1059 9805 e64c 62bf
000000b0: 1d34 7a57 1cad 8c3f f7f2 b937 5f9d 87bf
000000c0: 5737 f973 b85b fa3f 5103 aa2d cda1 f53f
000000d0: 5a8d ea0b fde6 f83f 7b21 e6d6 3825 9dbf
000000e0: 59e3 cfe0 c2f9 f53f 7c6b ad22 4850 ef3f
000000f0: 5a1b 3e04 c2fe f03f 4a36 2fe0 4aef f73f
0.9622387618349487 1.16224135105788 4.80994074719827e-05 3.8795057411679907e-101 1.397285642511383 1.1187862817652663 2.040492305703145 1.23567404611067
-9.225038245732969e-05 1.4167014787206613 1.1515741322561408 -1.656800575391155e-08 2.825738336132402 1.089467891876812 -5.3428509888625145e-67 1.1300956463971417
1.0868669005139355 1.1637968951950004 1.5843421862665994 0.03591064917018116 1.3400736778950648 -0.0022339336981175364 0.014002057475659463 -0.011530631912358908
1.6473927049841757 1.3520023139719408 1.5563936677434271 -0.028462303272620098 1.3734768659325793 0.9785500218671213 1.0621967473723175 1.495921016426467

bias f8 [32]
00000000: 9494 c2d1 e62d f6bf 6f77 5e96 6bbc edbf
00000010: 5469 bf91 f7de 85bf 61f9 e410 6ebf c3bd
00000020: d74d 7c45 5d85 00c0 849b f745 11f6 f3bf
00000030: a9c8 8600 5797 0cc0 d993 7c59 600d f4bf
00000040: c03b 2028 aa4c 8abf 2593 07e7 75ce f8bf
00000050: 7b3d 180d bda7 fcbf 6966 1df7 23ba 18bf
00000060: 1c0a 287a 929c 12c0 1b3e a3ca 45e7 ffbf
00000070: 74d0 f6ec 8430 19bf f71f e0ee 43d2 fcbf
00000080: 3778 5b30 4faa 02c0 2e23 e1dc a701 e3bf
00000090: feae 0cbc af7c 05c0 4815 94ee ff54 babf
000000a0: 225a ccf4 d3de fbbf 2abe 13d6 5a20 a4bf
000000b0: 73fe 8e5c 5e45 b4bf 0e42 f9ec b41a b3bf
000000c0: a857 39b4 7d38 08c0 478f ccb1 9912 fcbf
000000d0: 5fb4 35eb 6bc8 f9bf 56ca cc05 3bd0 bcbf
000000e0: 746d c62b 3a78 f7bf 5968 8e3d 5aba e8bf
000000f0: 81e2 5edf 346c fcbf bcf4 ad9d 2888 05c0
-1.386206454634963 -0.9292505204100346 -0.010679182181708193 -3.592099023768858e-11 -2.065119307380637 -1.2475750668615726 -3.5738964120037804 -1.2532657142230532
-0.012841538762612958 -1.550405409297306 -1.7909517776023154 -9.432644381259795e-05 -4.652902516073052 -1.9939630427869648 -9.609042466857278e-05 -1.8013343173097363
-2.3331588533319763 -0.5939521135379431 -2.6858820620890347 -0.10285949301404174 -1.7419013559753087 -0.03930934775587176 -0.07918348083239284 -0.07462626252641533
-3.0275835113524927 -1.754541105773528 -1.61143104437658 -0.11255234614945073 -1.4668523511853353 -0.7727481081267441 -1.776417610684945 -2.691483718749252

running_mean f8 [32]
00000000: bae4 3690 bc8e fc3f db44 ed78 b909 e5bf
00000010: 65ca b12d afbd e3be 46e3 f287 14ae c3bd
00000020: 9e15 7057 b3a6 e8bf bcf4 bf85 b90e e13f
00000030: b89b 5b1a 122e fdbf 11c6 9d29 81eb f73f
00000040: 0ba1 8d5f 4e48 81be 395d f244 2d1a f83f
00000050: 8717 b2cc 0f17 ec3f 9a89 b7e7 6def 343d
00000060: cf37 5298 2137 fdbf 3af5 f917 94ce ec3f
00000070: fe89 1fbd 0544 7f3d efb8 0b95 3ab2 eebf
00000080: 6fcb 6347 feb2 ef3f 9025 38ed d6e9 b93f
00000090: 4cb3 5c14 ae4d 06c0 7419 332a 96d8 8abf
000000a0: dc6d a456 f15b c7bf 1df9 9f94 0a50 313d
000000b0: d9b4 c183 5a5d 9c3f aaac 993c ef20 753f
000000c0: 0d83 b135 1e78 f8bf 6521 758e ab14 d43f
000000d0: 4713 21a0 63d7 fcbf b081 1df8 bf85 b43f
000000e0: 4a8a 88ba 512f fbbf f9bf 5fac b549 e03f
000000f0: 163a e869 10cf ea3f bd81 19a8 ecf3 0440
1.7848477967620924 -0.6574370729305444 -9.413220530362155e-06 -3.579771287870247e-11 -0.770349188591968 0.5330474483777361 -1.823747733078319 1.494996225894628
-1.287642559480944e-07 1.5063908284408412 0.8778151510202726 7.437702283188909e-14 -1.8259597730679962 0.9002171009339357 1.7772499954029643e-12 -0.9592564497995947
0.9905997652370909 0.10122435847747213 -2.7879296866216574 -0.01310841861994725 -0.1824933693941223 6.150692913786561e-14 0.027699865619457895 0.005158361929356628
-1.5293256852530164 0.31376160537595005 -1.802585244660081 0.08016586120130031 -1.6990525518855457 0.5089977614097726 0.837776381349445 2.6191037304672293

running_var f8 [32]
00000000: 5718 549c d774 d93f cef5 860a fa17 cc3f
00000010: 82eb b45c 7ba9 e637 30b0 96e0 48db de35
00000020: 27bc f515 6182 e23f 30b8 3389 990e d73f
00000030: 3783 9cbf 555f dc3f 4083 ac5f fd1a e53f
00000040: 849d 8064 11bd 423b 40a8 dc86 3455 e43f
00000050: 7f1f ebfc f078 d13f a11f 76ec 094d 9934
00000060: b849 0d28 b1f8 e03f 95e0 6ae2 28d5 c23f
00000070: a475 52e9 33b9 8235 f4e8 aae4 1e39 d93f
00000080: fc63 b0c1 adb5 cd3f 71db 32ce 7b77 e33f
00000090: beb4 3735 6574 f03f b0c6 24ff 7d54 363f
000000a0: 740e 4d32 d41f ce3f 04c1 d134 44cb d534
000000b0: e20e 30d1 b6f9 423f ecb0 b703 27b0 2b3f
000000c0: db9e 4bf6 3533 f33f bcb7 1f34 a044 d93f
000000d0: bb95 7eaf df49 dd3f 9eb3 731a 5e76 5f3f
000000e0: 4f29 a583 2258 e23f 5c3c 099e 1188 d03f
000000f0: cafd a86d aacc c23f 23d4 5eab f90a eb3f
0.3977564837117646 0.2194817115213667 2.0811795594075548e-39 3.298895206175819e-49 0.5784154347328511 0.36026609800944964 0.44331878387497475 0.6595446461325096
3.100032497576639e-23 0.6354010232946692 0.2730066747576458 2.5796295159002763e-55 0.5303579122794906 0.1471301179460666 6.25542150191781e-51 0.3941113694269369
0.2321068950411983 0.6083354022328945 1.0284168318569722 0.00034072948541839353 0.235346340714489 3.5553136884856617e-54 0.0005790846502126935 0.00021124340297207862
1.2000026341356065 0.3948135861418185 0.45763389719135333 0.0019203108766376663 0.5732586451716005 0.2583049815484111 0.14687090258119745 0.8450897547796824
