runs/age_prediction_5k/model_best.ckpt (torch, 209771 bytes, 64 tensors)

conv_layers.0.lin_l.weight f8 [32, 3]
00000000: 2228 8997 ddf3 c63f 9993 9a25 2cbb c73f
00000010: a1e5 c4b0 4601 ca3f f05e dd84 442f e0bf
00000020: 2ec0 8b79 889f e63f 522c c515 9757 cf3f
00000030: 828e 60be 6e84 c6bf ff3a 1b0e 030b c3bf
00000040: af42 3d8c 33c4 d93f 6778 2f1a 9140 bebf
00000050: a48d 2664 cfcf e2bf 4013 8a62 8858 dcbf
00000060: 02c9 1412 32ac dbbf f633 567b 9079 d5bf
00000070: a36c e2a4 32c1 e0bf 8b30 2edb 8c70 60bf
00000080: e5c2 cbc1 1306 77bf 96d3 4242 2215 b13f
00000090: c0f2 4d78 f492 c73f 0f63 5182 edce d73f
000000a0: 1404 1d35 1d11 8bbf 824d 4742 bb90 d43f
000000b0: ae13 a4b5 4fc6 b5bf 67c7 b962 174e d53f
000000c0: 690f e152 2cbd ee31 2a74 2049 e9e8 f2b1
000000d0: 4ffd dc8d a293 eab1 ced3 9a99 e636 c43f
000000e0: 8067 774c 4be6 be3f feac f2d8 e84d 943f
000000f0: a631 07bc 631e 50aa 57c9 1f36 f882 03af
00000100: 012a 7038 ec29 e039 d116 90c6 1841 c5bf
00000110: 997b 89ac 55ab d4bf 84cc 01c2 383d c0bf
00000120: bfad 00f0 e2a0 a13f 9f1d 76fd d36c bd3f
00000130: 4896 bf2b 3bc3 cb3f b221 4797 b228 bc3f
00000140: 87bf de08 5174 eabf 0dbe 2057 4343 c03f
00000150: 37cd 9f62 7abc 700e 09ae c19e 41c9 489f
00000160: 8bd7 7479 c4fe 990e 696d f95b 7346 e33f
00000170: ef79 16d0 0a13 e53f 42fd 6be6 61c1 c53f
00000180: 1223 1f44 962a e73f 2fda 60e8 352e ca3f
00000190: ba14 08d6 63ff d03f e6ac 71be 6d8a ef3f
000001a0: 4a69 6c7c d0b5 d3bf e5e6 e598 b93a de3f
000001b0: 9a14 5669 8dea a815 67ad 4f38 9be6 b295
000001c0: 124a a1f7 b6ac 8495 047d f449 7501 d13f
000001d0: 3660 d489 2973 e13f 775f c02a ee88 d3bf
000001e0: 8ad0 96ac 44fc cfbf db5d e113 bd23 debf
000001f0: 5201 1746 f421 dabf 17df a2be 1716 d0bf
00000200: 1f0c 7889 a2c8 e1bf 2c8a 15ca 2db3 5f3f
00000210: 972c ae05 3921 cb3f 0700 3118 f78a bf3f
00000220: 989c 449d 7c3d d13f f78f 7616 7da7 d5bf
00000230: 26d2 2654 5d56 b2bf 6b63 a1ea e014 c63f
00000240: 203a e1e7 2e4a a13c eb65 0150 c507 913e
00000250: c589 657b 8d80 0c3f d54f 7053 9624 f2bf
00000260: 9ee3 06a2 1416 b4bf 043a a45b 51b3 e33f
00000270: 9669 a079 aebd d43f 0bef 5d52 1d08 dc3f
00000280: 2a7a 9fa1 6b20 cbbf 8e02 ec28 d454 c6bf
00000290: d59c 4715 53a6 b33f 034c 39ec 2514 8dbf
000002a0: 83c1 360b 00b8 d63f 5b39 e0d8 ae6f cabf
000002b0: 8966 95f4 2583 bdbf db0e 54a8 82c3 cbbd
000002c0: b36b 071c c8db 28be b5b2 2c4d 364f c73e
000002d0: e561 956b f972 e73f d65c d3da cc06 e33f
000002e0: 52bb f337 b201 b13f 228e d9a1 99aa 02bf
000002f0: ae8f 03d6 72fb 573f e6af ec07 dfee 79bf
0.17931718730170682 0.18539954982875598 0.20316394454293366 -0.5057699770941024 0.7069742559378989 0.24486054003714003 -0.17591652198563074 -0.14877355755603358
0.40260018058055896 -0.11817271127026317 -0.587867446524275 -0.44290361044868476 -0.4323849846433775 -0.3355447010479219 -0.5235837192916687 -0.002006793126787148
-0.005621030021516237 0.0667287265558357 0.1841722094940419 0.37200486875876576 -0.013216236289396867 0.32133370850097986 -0.0850572412928858 0.3328913177602914
3.5630353284130414e-68 -4.383773892899501e-68 -3.080576746132643e-68 0.15792543888315297 0.12070150963645965 0.019828451386882932 -7.028000459685105e-105 -3.2139866936784455e-82
6.375479444132298e-30 -0.1660490960641057 -0.322957437985616 -0.12686833832740174 0.03443059138984549 0.11494183481237606 0.21689548145438864 0.10999599641139104
-0.8266987965816818 0.12705270532886495 4.015886316790541e-239 -5.641589608922181e-158 2.49503339609737e-238 0.602349929463725 0.6585744919028097 0.16996406317773888
0.7239486055851521 0.20453523489568812 0.2655877676155104 0.9856480331049198 -0.30797207022410034 0.4723342888970435 2.483448248535283e-204 -3.7677603564612425e-204
-5.151710878443241e-205 0.26571399900599624 0.5453078929886093 -0.3052325646872229 -0.24988611628726104 -0.4709313100952081 -0.4083223995658233 -0.2513484346086314
-0.5557415661754738 0.0019348094141028544 0.21195137765275682 0.1232141908703853 0.2693778549023107 -0.3383476943365617 -0.07163031868442057 0.1725121637016643
1.1997193672820245e-16 2.53772057594991e-07 5.436355370382369e-05 -1.1339324244809081 -0.0784619231771004 0.615639380442929 0.3240772426376223 0.4379952720989741
-0.21192689315553653 -0.1744637679876359 0.07675666112446618 -0.01419858576915623 0.35498047919374914 -0.20653329457895606 -0.11528241368560023 -5.050189870549681e-11
-2.893912859548619e-09 2.778699675151599e-06 0.7327849484673236 0.5945801042497816 0.06643213144319063 -3.5603345378356724e-05 0.0014637586064560715 -0.006331320967358755

conv_layers.0.lin_l.bias f8 [32]
00000000: 70eb 39eb 5466 aebe 626a 728e 4e46 1b3f
00000010: 886a 1a27 6acd c13d 9d60 3153 3c16 b43e
00000020: c50c eebe df17 103e 2533 430e 6040 a83d
00000030: 0ce7 f8d5 7e8b 1abf 3126 3a33 6735 ad3e
00000040: 81c9 7cc4 93d1 22bf 93a1 ff21 4902 01be
00000050: a47f 459a 1b97 823e 5203 4c6d d5aa 863e
00000060: 529f 568e 7ffe e3bd c397 ad58 f104 f3be
00000070: 2e8f cf54 4f47 9b3d 026c d35b a299 f5bd
00000080: f523 3645 efd1 313f 4908 6796 2b3b c2be
00000090: c73e 6497 2840 02bf 9ead 8da5 d5e2 d43e
000000a0: f5b7 42ff 3d8d 293e 8a46 b303 a769 f6bd
000000b0: e7f0 daa9 d26e d03d 80bb e81f 709f 8e3e
000000c0: d809 ca12 212b 153e 1bc0 b0f4 8bc5 643e
000000d0: 7d76 5f0b 4d17 86be 9711 a333 bb8a 8d3e
000000e0: ae48 f662 b8e0 f23d d2aa 153e 48eb 873e
000000f0: a492 d485 9c65 ddbd 10ca 2b39 f29a 99bd
-9.059826510804369e-07 0.00010404448004167893 3.2382378799179164e-11 1.1972700349107884e-06 9.367508953593643e-10 1.1028289779397344e-11 -0.00010126077312913264 8.704842912748227e-07
-0.00014357498934598412 -4.95024968930334e-10 1.3850826719851334e-07 1.68884688143989e-07 -1.454764704266478e-10 -1.8138225225248843e-05 6.2024251404755576e-12 -3.143233137536488e-10
0.0002719124942918699 -2.173320513083398e-06 -3.481029391327671e-05 4.979627726036006e-06 2.9746125511419215e-09 -3.2614777866297244e-10 5.978254910538188e-11 2.2815767404665222e-07
1.2321673223029014e-09 3.8690244418319175e-08 -1.645909201699166e-07 2.2010444828390303e-07 2.747083419786232e-10 1.7821096691001415e-07 -1.0694537049132112e-10 -5.821961743689228e-12

conv_layers.0.lin_r.weight f8 [32, 3]
00000000: 0680 93d4 ac00 e33f a351 0d31 3933 f53f
00000010: 53e2 e1ee 0ddc aebf b3ab 4817 012e d63f
00000020: 4028 807d 06b6 a03f b8de 3e4c 204d f5bf
00000030: 54eb 7c95 a988 b6bf 022a 31a2 b896 c1bf
00000040: 408b 781a 6011 dd3f eef8 3d85 348c ed3f
00000050: b056 5c47 1951 c93f b262 f739 7eca d9bf
00000060: 1969 b9e5 904a e43f 7eae f776 5c21 d0bf
00000070: 7327 5ea9 9967 e3bf e0d6 b3e3 1dad a53f
00000080: cbb0 5f52 a964 6fbf a477 784f bb4c 84bf
00000090: 4781 9164 413b eabf 91c5 cb11 0a95 d7bf
000000a0: ea59 aee5 b86d d3bf fbda 0eba 9248 c03f
000000b0: e15f 91e8 6bcb e43f 9434 33b2 5713 f2bf
000000c0: e0d7 4d73 1d08 e031 41a7 89e7 455d ceb1
000000d0: 5bc8 337b 300e e1b1 309d 4c56 9dd8 e13f
000000e0: abb6 c435 7df8 f03f bd16 f972 2830 e9bf
000000f0: 7042 2c97 91c7 06ad 94db 2d1d fca4 2dbb
00000100: def8 22c9 8205 41b2 bc64 e0b8 0923 e63f
00000110: 92ee 00f9 5259 fd3f 355f 769e 1fa2 d3bf
00000120: a0a0 f7b1 4d49 f5bf 454e 45cb d404 ea3f
00000130: 9e80 1f7b d78b d0bf 6221 1bf2 0681 c0bf
00000140: e35e 5f0f d0d2 ab3f a920 dba0 45ba e63f
00000150: a0b7 8cf4 c1a8 918e 51c4 1e92 7c93 910e
00000160: f874 7315 93ed 3f0e 8bfa 0976 7d65 af3f
00000170: 53d2 d352 1365 f1bf f31e f69d f42b c73f
00000180: fce9 eeef 1868 e5bf fd81 8eef 4bd7 fd3f
00000190: 6455 5035 f02b c3bf 5a9b 3242 4f64 d13f
000001a0: cca8 e5e4 c842 e2bf 0a33 8314 8715 e43f
000001b0: 0f60 8f63 f52a c795 d4d3 d0f8 3fa7 c795
000001c0: ee20 4ca6 2265 c315 beb8 96fb 7b2d f2bf
000001d0: 0650 6ea0 389a e2bf 9c42 ad34 00c9 c3bf
000001e0: 4c50 c158 b12c ef3f 7306 ecec c943 cabf
000001f0: 5a62 b0bd 3b45 e0bf 7f74 0bbc b181 d43f
00000200: ac4b 3ac4 404f f33f 50cc 4d53 f241 e33f
00000210: d787 388b 6a2f a0bf 9619 77d8 c2d4 bf3f
00000220: 7937 c2ef 78bb b4bf 5936 762f 98bf d03f
00000230: 0aa1 16e3 119c ddbf 562b 0816 e1e7 f8bf
00000240: 375f 3744 3c29 4cbe 9c40 a2c3 0b9c e0be
00000250: 858e 8b0a 8de9 77be 7783 8120 32c4 c6bf
00000260: f83e bd63 20a1 e4bf 9744 3a84 7633 d23f
00000270: add5 338d 4c84 e33f 2961 b260 348a f6bf
00000280: 76b4 8879 221f d4bf ed3f 4d4b d8b0 f8bf
00000290: 023c da48 5f44 ddbf 553d d632 6e77 d3bf
000002a0: c50b 6241 0cf3 fdbf 337f 76c8 e060 acbe
000002b0: c205 1df6 ccde ca3f 4b4c 02a5 6b7d 163f
000002c0: b3df d30f c106 4dbf 499b 3853 f624 063f
000002d0: cfc9 67e9 6a43 e13f 08ca 948b 6bb8 d23f
000002e0: 1955 887a 5af7 cf3f 60a5 b97a e6ab 823f
000002f0: 854c 4827 0673 73bf 1d11 e620 dddd 06bf
0.593832411945187 1.3250057140440752 -0.06027263203663282 0.3465578772908728 0.032638743228816214 -1.3313296297400665 -0.08802280330284634 -0.13741214675458485
0.454185510492767 0.9233648874649398 0.19778743729027815 -0.40298419628883686 0.6341022955705596 -0.2520362054626516 -0.6063965137447965 0.04233640102931502
-0.0038321787896987473 -0.009911979067563532 -0.8197333301759863 -0.36847163904084207 -0.30357191495696034 0.12721475682129565 0.6498317282048413 -1.1297223053873369
1.858277435535867e-68 -8.799033282725071e-69 -1.9769404910957324e-68 0.557692211678761 1.0606662845924955 -0.7871286626402348 -8.73648555336067e-92 -1.2260666234883352e-23
-1.2627270440407954e-66 0.6917770968313088 1.8343076445297908 -0.3067702338680534 -1.3303963615271996 0.81308974934877 -0.2585352613805386 -0.12893759557324375
0.05434274852421852 0.7102382795065029 -1.6949414564439767e-238 1.6869664312775655e-238 4.7882358222164515e-240 0.06132118287950047 -1.0871766314932259 0.1810289164825388
-0.6689572035023157 1.8650626523668727 -0.1497783909150413 0.27174741234414557 -0.5706524344107264 0.6276278877863615 -9.236721893574183e-204 -9.430290021093356e-204
7.732573748750345e-204 -1.1361045673070715 -0.581325829831713 -0.1545715577326704 0.9742056592463171 -0.20519374912696584 -0.508451338278131 0.3204159103750683
1.206848875536461 0.6018001200703882 -0.03161175679657873 0.12434022698207622 -0.08098560193522343 0.26169399866998827 -0.4626507489833932 -1.5566111431714567
-1.3113522829186114e-08 -7.920052770310757e-06 -8.908029037638508e-08 -0.17786242091372248 -0.6446687648803779 0.2843910495076413 0.6098997838841363 -1.4087413575380856
-0.3144003092628006 -1.5431750241732474 -0.45729810823917216 -0.30416445698297895 -1.871837859537423 -8.457431172510582e-07 0.20992433564428664 8.57922507313962e-05
-0.0008858149227810502 4.223705982680252e-05 0.5394796904277487 0.29250610953309364 0.24973612769159884 0.009116936321521052 -0.00474836734476292 -4.3614683920475116e-05

conv_layers.1.lin_l.weight f8 [32, 32]
00000000: d6ee 29dc ddb5 4fbf 02bd d96c a7fc 81bf
00000010: 240a e7cf ba66 123f a564 8b5d c6e9 1cbf
00000020: 6887 7d89 ff3b f1be 9466 5146 b5bd 79bd
00000030: b8ab 9768 6772 88bf 117c 3b0e f7ae 38bf
00000040: f165 ff22 56c4 a5ad 9c7e 0fca d1d5 f23e
00000050: da30 10d1 28b1 599a 0b12 fd40 6af3 26bf
00000060: 663f a2d7 286b a6bf 148a e3d0 a00b 2b3f
00000070: 7041 e9c9 6a62 5db6 d877 e309 312d 7fbf
00000080: 3f25 87e5 c77c 90bf 2d6b 1ec6 6c3a 223f
00000090: df84 fb29 7b25 793c d6cd 6a69 2e22 a0bf
000000a0: 1f51 ed78 e1d6 75bf 25d7 179b c992 6dbf
000000b0: 16e6 3f73 08f4 b5be 77db d20c c1fe 98bf
000000c0: 4356 ac4f cbd4 d3b3 90da 4e4e 80f2 94bf
000000d0: e871 7da5 c0e1 25bf d85d 217e 52d4 a6bf
000000e0: cf9d f587 5275 afbf 5255 2dad 6c5c 5b3b
000000f0: 3158 8d4b f231 3d3f 6d80 3dc3 3a30 3538
00000100: 18cf 3050 2b97 b0bf 8945 80d4 00f2 6c3f
00000110: 46bc df7a a0e0 92bf 2641 9256 e2d8 b3bf
00000120: 0ced 3460 555e afbf d5a5 31e0 8392 1cbe
00000130: 0550 fdab 9743 a9bf 58cf fbf0 1a1d b4bf
00000140: 3adb 637c b69d fcad 0c03 85ec 8946 a8bf
00000150: 8611 dcc5 cc62 af1f c116 dbc5 53d0 b4bf
00000160: bfa1 e493 490d cabf e4cd a558 3d58 be3f
00000170: 0d61 f942 cd7d f831 b79e 03ab 184e ae3f
00000180: d68e 198a 4b17 98bf 4689 1f29 a075 aa3f
00000190: c7f0 3f9d aa42 2e3f c6f3 7244 1c51 c03f
000001a0: 1ec4 544c 638d a4bf 58bc c6c9 8e52 a33f
000001b0: 15fa 9fe8 2229 29bf 6aee bce3 3559 c2bf
000001c0: a5f5 9489 e718 97b4 8bb9 886a 7d33 d13f
000001d0: c000 4586 69d9 94bf 10a4 d475 4d20 a1bf
000001e0: 8738 1c73 012f a5bf 073f 967a 0264 0426
000001f0: b8f2 1c4c 1f82 91bf cfc7 212d 197a a1b8
00000200: 1a1f 0520 570e 5331 1b1d 87ba 9631 43b3
00000210: fb5f 5930 e8f3 4c31 4b42 b960 29a6 31b1
00000220: 0903 76c6 523b 4bb1 4c58 a6b5 4f87 5630
00000230: ba71 fd57 6076 c237 bd14 e869 4036 31b1
00000240: 68bb df8e b70f 930f 9d42 5233 e611 3bb1
00000250: 8cc8 660d e714 409f 09ad 8ed4 7031 4631
00000260: d43e c12b e63a c8b8 1d59 1f01 919c 48b1
00000270: 7bbe 62af f545 a539 bc4d 3d47 f2e0 6c35
00000280: de66 957b 693f b032 6037 9e8c 4c1a 53b1
00000290: 41df 72bc 41ad cd36 3b8c b694 287f cb39
000002a0: 62fe 9657 8c7c aab1 332e 1f10 9357 bcb2
000002b0: 692b ddd8 350c df30 73ed ad9e 5c9a 4d37
000002c0: 742c d31f 9ac2 96b0 f2de 0a34 3aa1 52b6
000002d0: dbd2 c67f 0599 5331 a0f2 d207 a490 d23b
000002e0: fc9d a93e 2a78 c13c 0ea3 2886 99b6 f6a4
000002f0: ec32 6c30 3cf1 21b1 50cd ebd6 f0d6 102e
00000300: ad72 4bdf 88fe 6d39 5971 58a1 d3d6 ab13
00000310: 0477 db85 096a 7939 5365 8351 d43a d7b6
00000320: 4df9 7f0d 7720 b8bb 0c4c 1f6c bb2f 293d
00000330: 7356 b374 d2f0 7393 bc72 76fc 62fa a838
00000340: 2572 7f0b 51f7 4836 77a5 9eba 61aa 45bb
00000350: 7534 bf83 c029 92be 3b86 e67f 6f34 f237
00000360: 85f9 b1b1 bc49 533f efc6 f98f 7e5a e23e
00000370: 42a4 d7ba 9927 293e f5ff c114 b529 edbd
00000380: 564e 01f4 ea4d a4b0 718d 70f6 8953 85bc
00000390: 097f 46b9 5af9 eabd 26ac 24ef 2262 8693
000003a0: 0874 8e32 c8d0 abbb 66b2 d937 0c19 fdbd
000003b0: a408 ca2d 7fa1 3521 00d2 5238 a46b a313
000003c0: d764 aaaf 8c5c 3a39 5fd1 4a58 2495 b8a3
000003d0: 29a7 3e66 20e9 1fbb b265 ffdd a217 5d93
000003e0: 411b 271d 2f16 a693 64a8 b4ce c7ef 513e
000003f0: c2d8 18c2 ae78 613e cf1b 203d 037d f0b7
00000400: 111a 2b51 3320 743f 959f 84a2 0bbb 993f
00000410: 03b8 b037 a963 56bf cd1c 87ec 9277 823f
00000420: 5971 dd1a 6593 993f 88a5 ba72 d176 2696
00000430: 9bb8 6a99 d5fc b33f 21d3 c291 a8ac 983f
00000440: 6fd7 6003 d7c7 c40e 38d3 d173 181f 6a3f
00000450: 14d6 d05d 7124 d595 fab7 e0bc eaa8 803f
00000460: 5635 289b eb75 a23f 0716 0545 46ba ad3f
00000470: 269d 6b9c e467 e8bd edd9 eaf4 6bde a33f
00000480: 8c1d 4d66 f1d1 923f ae63 f17a 7292 863f
00000490: 954e 1510 9ff4 d43e 7301 bd07 ea67 b23f
000004a0: 3a73 4dc5 505e 9a3f 0380 1e2c 8370 923f
000004b0: a93f a3be b7d8 fcbe cf75 6448 4256 943f
000004c0: b261 4272 be29 3b96 0cc8 7db9 dc59 b13f
000004d0: 47e2 2427 0fd9 873f 602b 3df3 6bd8 b13f
000004e0: 38a4 4a71 c397 b23f 5617 9baa 85c6 ddbd
000004f0: 6094 e147 b304 67bf ef69 a02b f7c2 6016
00000500: ad9f ca0b 80e0 a0bf da2b e650 98a0 8c3f
00000510: 00d4 f7df c57c 5c3f 96d3 3909 ce96 693f
00000520: 8a67 7a16 7357 863f aae5 716a 6572 d2bd
00000530: 9f3d 5ff3 bada 3f3f 7262 4464 6ab0 833f
00000540: 2a32 5c82 2cd1 9e2d adcc 8d0d 57c6 61bf
00000550: 8ec4 1e1d 67b6 9d1f 7bf3 0daa 5382 9bbf
00000560: 2cc7 8be5 6eea 923f f780 f1b0 09bd 61bf
00000570: a910 f8d9 9d22 d4b1 ec37 3c37 5635 9e3f
00000580: f981 2b5d f07a 9fbf 59db 17e3 0471 7e3f
00000590: b22e c40c ebcf c2b8 3d38 8c25 b4c5 973f
000005a0: 69a6 dd3e 6e02 843f 0b13 02ae 5154 a3bf
000005b0: 289d 83cd 74fa cd3e e23d 0592 3371 883f
000005c0: 32db 4f55 2c46 f6b5 b3e4 b06c 43eb 9d3f
000005d0: 6d37 ebab 1646 883f 5a63 d9fb d7d5 a93f
000005e0: 7518 ee10 3b94 b03f cf25 2af4 71a5 faa5
000005f0: b5f5 5a34 685f 6dbf dace 339b 7ca7 a4b8
00000600: 95ff d534 a3c4 92bf 335a 4512 e3df 81bf
00000610: f3bc 9cc1 86b1 773f 24f6 9bee 078f 7a3f
00000620: f7b2 e7ab dc5e 67bf 2be4 de4e e618 e33d
00000630: 834e 253e 9e94 83bf b42e 96d4 8ae6 793f
00000640: 51c1 51e2 b44d a0ad 545b 4864 35ab 33bf
00000650: 4265 e7bf 051f a91f 9aa2 6f0a 90eb 91bf
00000660: 3900 9dd0 ef7f 82bf 8ca3 7b50 57f9 a43f
00000670: 9f6a ebee db15 5db6 ee10 be73 7d44 b43f
00000680: 87e4 1f79 afa2 95bf 13d8 0e2a 6aad 923f
00000690: c29e ddd4 f7de 3f39 4d20 fce4 87e0 953f
000006a0: fd0d 3f7b 1a7f 81bf b657 5243 6059 a0bf
000006b0: 09d3 3273 754c e23e 6a71 34f3 349e 873f
000006c0: 591c c708 3b5b f1b3 e47a edf6 300a b93f
000006d0: 18a9 c4e9 859b 6a3f 9653 1482 25cb a43f
000006e0: b3fb f9f7 806c b03f 87aa 59aa dbf1 0ca6
000006f0: 4480 ccd9 cfa3 40bf 8e23 de96 190d a238
00000700: b51b 5e85 c797 84b8 cb9a b82e 7ae5 9f35
00000710: 5aff 99b2 af5b 9933 4ce6 83c4 2f70 9cb3
00000720: c623 5aa5 6120 96b3 9616 6d32 4131 10b2
00000730: a5c9 a9d7 d27d d1b3 d466 488a a012 8b33
00000740: 0664 c9d5 622a 1e3d 3102 9ed8 130d 9133
00000750: 0c2b 9e71 669a 459f 3e94 abd8 c890 6c34
00000760: 536c 5b0e 8f70 9234 2942 ae30 fe5c 6d33
00000770: 3e4a dad5 095a c9ba 9f63 f149 7926 65b4
00000780: 15d1 9dbf 5ab8 173a aeaf 8b3d 003c 9033
00000790: f9ee 1f71 aa2f 3b3f 81ac c22f 8621 8534
000007a0: 7ff8 892a 9345 efb4 f36e afe9 b803 1335
000007b0: b03b 0920 c8b9 0133 d488 d809 778e 1039
000007c0: d676 740f 615a a3b2 a7db 1037 d0e4 3ab5
000007d0: 72ea 6f53 937c a0b3 49e6 a7e5 31d9 be38
000007e0: 6d37 aa06 34d8 ac3b ceca 078b 3082 98a5
000007f0: 29cb ccbc a569 81b3 942c e400 d6e5 8db0
-0.0009677251149038067 -0.008782680520396106 7.019534311950758e-05 -0.00011029504038208517 -1.6435974060320142e-05 -1.4632091325721617e-12 -0.011936958197983447 -0.0003766396678041582
-8.548475174621126e-89 1.796267736497871e-05 -9.674333002032584e-182 -0.00017510101360519755 -0.04378631241081514 0.00020634019933314705 -8.042260430209908e-47 -0.00761145740236021
-0.016101001152297952 0.0001390702992097535 2.1811034387793412e-17 -0.03151078259306998 -0.005331879378747822 -0.003610032807723667 -1.3085159027412082e-06 -0.02440930977601449
-4.936401214451738e-59 -0.020456318645040883 -0.0001669452346914201 -0.044588640114564704 -0.06144197377835391 9.05300650460065e-23 0.00044548192413651754 6.226710140379904e-38
-0.06480665881900582 0.0035333648884338692 -0.018435008525497197 -0.07752813924367227 -0.06126658248327929 -1.6631281913937501e-09 -0.04934381460648755 -0.07856911071195094
-3.5962609009605665e-87 -0.047413168069857375 4.572011971832146e-156 -0.08130382137741334 -0.2035304996618503 0.11853392996072604 5.6777313017575995e-68 0.05918957793784101
-0.023526363662667325 0.05167866231910749 0.00023086865132871377 0.12747529356229687 -0.04014120394493424 0.03773924077119578 -0.00019196082240564906 -0.14334748859424745
-2.3549500598935796e-55 0.26876769450873245 -0.02036061174408199 -0.03344957412111438 -0.041374249745886486 1.506132430875896e-125 -0.01709793951089253 -6.57409666182982e-36
4.314129344427376e-71 -9.3314630340633e-62 3.27733647671721e-71 -9.9890189860576e-72 -3.0825227992571325e-71 7.782417665971806e-76 4.238760902871102e-40 -9.741601702908092e-72
1.198996860658548e-233 -1.5321031101166267e-71 -3.660352463951704e-158 2.5121730506497123e-71 -3.645736428410022e-35 -2.785932985592563e-71 5.244268438226818e-31 2.412061308625685e-51
1.542811672937816e-64 -4.324704934629456e-71 1.0396508067721222e-44 2.7113852350760237e-30 -1.9188271431871376e-69 -2.6912421431418052e-64 2.745683368417783e-73 2.654886686797695e-42
-1.2579879347732803e-74 -5.098809029256038e-47 4.4367711389860635e-71 1.5725169128739412e-20 4.848731028939309e-16 -1.279975765514678e-130 -5.077497940040789e-72 8.465124483845419e-87
4.6213499454156746e-32 6.46054749350581e-214 7.83135741273126e-32 -1.6275943090024126e-44 -5.109052143258031e-21 4.474012909153522e-14 -5.784472363493816e-215 9.395706751770337e-36
3.4164970821152513e-47 -3.5842652004648355e-23 -2.7065118834714335e-07 3.343698520469965e-39 0.001177248260119863 8.751627773781699e-06 2.928391271433615e-09 -2.121881649369775e-10
-2.244504706651086e-74 -3.699527471355867e-17 -1.9626197597454732e-10 -1.298608076661504e-214 -2.9450864171716628e-21 -4.234293400718993e-10 1.057293769623764e-148 4.506848190636864e-214
5.077044402348223e-33 -1.3211421280247257e-136 -6.598967882844023e-24 -2.1098015261431642e-215 -5.125580592172713e-214 1.6704800137917444e-08 3.254304937717139e-08 -3.028428055742693e-39
0.00491352124908541 0.025127584261241138 -0.0013665344729463242 0.00901713165593634 0.024976329579076893 -5.731952569790423e-202 0.07807669635323793 0.024096139809176912
1.5956293882828273e-237 0.0031886556230865913 -1.685839778927357e-203 0.00813468350323986 0.03605591076857688 0.05806178658034971 -1.7757579973321582e-10 0.0388063179465695
0.01837899386307877 0.011021513344688785 4.996192957424204e-06 0.0718981045620291 0.025750410120383573 0.018007325713938382 -2.7510217400827635e-05 0.019860301655276132
-1.3861864279975194e-201 0.06777743843647971 0.011644476301271868 0.06970858276797065 0.07262822643191746 -1.0832255461662461e-10 -0.002809858472618873 6.84302236176281e-201
-0.03296280044497677 0.013978185623974616 0.0017387325641469165 0.003123667158258357 0.010908984302023379 -6.710928567301889e-11 0.00048605980134383027 0.009613829789075743
6.0513581035995166e-89 -0.0021697712185698354 2.1641213887145007e-156 -0.026864344839384807 0.018472416649223763 -0.0021653355866392237 -1.1669638442282725e-68 0.029500338670054235
-0.030742412268297745 0.0074320021535559605 -2.83054229763706e-35 0.023215117255908736 0.009770261090767467 -0.03775267838594772 3.57369718183603e-06 0.011934664624873418
-9.525354523543798e-49 0.029217771061870134 0.011852433320566036 0.05045962285357204 0.06476182139712867 -9.840977663327098e-126 -0.0035855326885598456 -7.769263495849614e-36
-0.01832823762879306 -0.008727811808666086 0.005784536735333068 0.0064840612264993915 -0.0028528509130779606 1.3895088503008147e-10 -0.009560810348069331 0.006323377901377537
-6.402848653091826e-89 -0.00030012181767473845 3.659420528620574e-156 -0.017500162732093295 -0.00903308253657552 0.04096482140977917 -7.960411790886556e-47 0.07917007518523508
-0.0211284082106187 0.018239649598136575 6.138125376305334e-33 0.021364329672934713 -0.008543211828402337 -0.03193188497350212 8.725484440177884e-06 0.011532224342368298
-1.7281432452243167e-58 0.0978117564058994 0.0032479873172138844 0.04061238491900736 0.06415563634980863 -2.137970659484053e-125 -0.0005078091522570179 6.79009611947148e-36
-1.936545899542263e-36 2.1312890139423032e-50 3.945103822478339e-60 -4.4242883193141936e-60 -3.442337126397422e-60 -1.5015238417227678e-67 -4.353994483539508e-59 2.1059276558039618e-60
2.6792408828419838e-14 2.6527289180970704e-60 -4.917098147449396e-158 3.6406056013180034e-56 1.8800710151830508e-55 5.7102492491313365e-61 -1.6383160263788004e-25 -2.695548246616465e-56
7.484754776427115e-29 2.5256696620019277e-60 0.00041482840708771635 1.0772336490443457e-55 -1.0202893252740536e-53 4.963026589995147e-53 5.386101739568381e-63 7.97166665054088e-34
-9.188406793308514e-65 -2.8078439531495167e-52 -5.129825345207267e-60 2.3207770011647798e-35 3.054034874138225e-21 -1.4142934233069575e-127 -1.3544925756285374e-60 -8.262477170842907e-75

conv_layers.1.lin_l.bias f8 [32]
00000000: aac9 14db 5fd9 babe 5796 52cb 40ac 53be
00000010: 8c4e 454f 1531 143e 25a9 88c4 b904 f4be
00000020: f924 05af 2a0c f5be bfab 182e f666 b03e
00000030: e7b6 1a7d 52d7 583e de99 d20a a411 f5be
00000040: e204 8504 a9d2 eabd f2af 2a03 066c 0dbe
00000050: d6fc 7339 f1f6 60be d832 6819 10ac 87be
00000060: 4ce1 b4ca edc3 a6bd 687e 815b 4552 afbd
00000070: 8db3 5409 a924 24bf f349 d3da 5842 933e
00000080: 1d3f fc15 a290 28bf d906 ae45 49ff 31bd
00000090: cc77 66d6 8b53 71bd 740b 5e86 6afa 4ebe
000000a0: 4b31 be43 361c cabd 7fa3 1b3a da9a e1be
000000b0: 02e3 08f1 1ee4 85bd 97c4 a67c e4cc 95be
000000c0: 3446 e8ad 58f4 f8be 6d48 72e5 a0dc 273f
000000d0: bd58 43e3 1c06 ab3e 873c c0f4 3d9d 903e
000000e0: 3f56 4d79 f659 7e3e e84f 7781 e429 99be
000000f0: 12a0 6e18 e520 623e 439a 8472 d487 943d
-1.600332194162498e-06 -1.8321782053887598e-08 1.175313455138472e-09 -1.9091090765290968e-05 -2.0072485257292977e-05 9.776469415227873e-07 2.313507946906953e-08 -2.009287770889957e-05
-1.9516222167833663e-10 -8.562919317479018e-10 -3.1599063971330024e-08 -1.763710428401958e-07 -1.0352481315412878e-11 -1.4243310402261207e-11 -0.0001536804526635318 2.869839715427843e-07
-0.00018741587245373832 -6.393894052380067e-14 -9.848891125404492e-13 -1.4425342874862031e-08 -4.7494182603992574e-11 -8.394666852722239e-06 -2.488729607018783e-12 -3.248506998078657e-07
-2.3798444880601506e-05 0.00018205131593568587 8.053743330248736e-07 2.4757126904166744e-07 1.1306783982469809e-07 -3.749675001306079e-07 3.376695461378198e-08 4.6681146702859904e-12

conv_layers.1.lin_r.weight f8 [32, 32]
00000000: 801e cbcf 6f78 97bf 04ea 6c41 d568 a03f
00000010: dd14 4d78 c0f9 ff3e 6707 97c9 ec07 88bf
00000020: 14fa 7b8b d25d a9bf ba36 cda4 8581 d13e
00000030: a1c9 9db0 0472 da3e 0ea8 fec7 fb5a a93f
00000040: d1c7 9712 b515 c9aa bd3d 728e aa1e 923f
00000050: f2dc abc6 df0b c790 5f76 5ff8 004e ab3f
00000060: d1a1 d43f 3095 b63f dabf dfbb 7af5 463f
00000070: 8138 8f0c 30f4 562e 0e64 635f 17ba c0bf
00000080: 3f3e 49e6 c9e2 b63f 6677 f4f9 3b7b b2bf
00000090: 814f cc7c f378 0702 7c96 8b7a 2e62 a0bf
000000a0: a793 50a6 b760 b4bf aae1 f170 f475 96bf
000000b0: bf20 695d eba3 f13e c3c7 a118 10f8 b2bf
000000c0: 5317 d3fb edbd 8d34 cadf b3a7 5193 503f
000000d0: b0d9 13a6 fca8 b6bf 33c4 e14b 2498 73bf
000000e0: e693 3bcb 9c34 af3f 4df9 704a 00b1 22ad
000000f0: 9c61 ca0a 780e 91bf 7f0d 4831 2b5f 17bd
00000100: 9a8d 1b18 5f04 8b3f 6911 36ac a98b d5bf
00000110: f1bd 65b3 cc9d d93f cd3a 30f1 31ac cfbf
00000120: 5f83 81fc d018 b23f 7ca3 bd88 6f88 25bf
00000130: 8fc9 045b c3bb ca3f ec67 9d96 4f59 dfbf
00000140: 290b b8b6 2967 ad2a 5769 bb23 342a d8bf
00000150: 3502 6288 4620 c8ae 4561 8dcc 974d 91bf
00000160: d7b5 7d82 f3fe bbbf 9e30 6d7a 8863 ea3f
00000170: ca4f c57a 5e60 372f efa1 fe12 d7dd a8bf
00000180: b6d1 1302 dd0e cabf 617b 0278 8244 d13f
00000190: ff62 5ddc 720d 5a0f 714e 5ff0 7ca1 ce3f
000001a0: 98c7 3405 29e9 b73f 307a 92cd bba2 e13f
000001b0: d027 2505 5366 6bbf c180 fe85 6912 d03f
000001c0: 4ffe 173a f0db d1b4 e774 4157 1867 eb3f
000001d0: e40c 38a2 4bd1 b23f 1c44 f598 105a d63f
000001e0: c9d4 43fb 4c43 b63f bde9 dd3f f4cd f2b9
000001f0: d8cf 8c05 47c0 bcbf 1253 152f 11c4 33be
00000200: 276c f247 ee8b acbd 2990 bb7c 532a 8cb9
00000210: 9673 77bc 2fc3 65b1 5418 3d69 89b4 d4b4
00000220: 91fd 34ae a295 d433 3d40 73b1 0c11 9032
00000230: 7972 bb91 07e1 1831 fc69 6912 7734 4ab9
00000240: 1bc3 0e12 023b 5c8f 6a1a 7a85 d960 aa3c
00000250: 583f d4f0 e64e f7a6 ba73 5f84 4079 ccbc
00000260: d22d c8c3 23cd 3bbc 0173 e704 7d1a 0231
00000270: dea9 7c66 0486 ef0b 5bc5 244d cdc2 1f3e
00000280: 31f9 8313 dff2 66be 3a60 223e 764a b3bb
00000290: 795f f4b9 6535 e30e d6c1 58c4 e18c 1fb1
000002a0: bf20 6daa 6a1d 73b9 1ab8 b8e6 ff78 94bc
000002b0: 6d27 87e6 f62d 41b1 07d5 f9bf dc9d 6a3a
000002c0: 976c 4fbe 5c2f cdb0 1815 290a 8135 613c
000002d0: a80d 6037 07f2 66bb c301 42c2 2f8c 9533
000002e0: 271b 52fb d8de e636 dcfd 715d 297d d2ac
000002f0: dc20 0860 f5f4 5633 9770 84a8 f53c 73b0
00000300: 6516 c18e 6c62 b593 d423 1a15 9964 7f93
00000310: bbfa 39c6 1edb 8793 19dd c403 b664 b113
00000320: 470e c182 160c a513 f396 f019 e565 7113
00000330: c7d6 85aa e01e 8a13 6d1b b7c1 9320 b413
00000340: 4c93 e5a4 f0b9 2d3f 0f8c 8249 36ab b693
00000350: c807 5af9 0693 1113 0759 194e 5680 b013
00000360: a156 f3e9 54f0 b893 4aa6 e677 a514 8413
00000370: 1ce8 f537 a5a2 dd36 543a 7b4b 4a98 ad93
00000380: cc1f 7284 7093 cb13 86d5 c006 c39c bb13
00000390: d4e8 0b9e 8d26 1ebc 43f7 82cb 1d4f 7193
000003a0: 7fff a9e6 9ab3 ae13 8646 88e7 97da 5513
000003b0: e6d8 1f22 ad80 3293 002f 39f9 e1ca a313
000003c0: 5f80 7a06 3b6b 5593 6fc0 8543 42a4 a313
000003d0: d6f7 3c26 428c 7693 ab7f 88d0 3eb2 a113
000003e0: c37d 8d49 203f af13 eadc ca8e 51fe f4bc
000003f0: d49e 61ff ed32 8a13 3581 b0da 359e 4213
00000400: 0f61 7ae5 b50b 9b3f 216a 42b3 c3ae 853f
00000410: d3ae 8c19 c02d 2e3f 8aca 7b72 27ff 6a3f
00000420: e8c1 102c e7e0 803f b4d9 c25c 50b2 21bf
00000430: 608d c756 7afb 8b3f 1d3b 3446 7c29 b4bf
00000440: dbe1 5acf a795 d38e 8636 598f 596b 87bf
00000450: 8156 df0c 92e3 8d18 b3d3 34e8 1145 87bf
00000460: 3b32 cb94 e880 b3bf f041 7c69 7d09 b33f
00000470: 5243 72e6 1554 cc8c d9ab 9cfa 9223 a63f
00000480: dfd4 6c10 8d10 92bf 2949 2ad6 80e2 8d3f
00000490: 40fc eb1e df87 4d83 80dd b317 07e4 a83f
000004a0: 7426 bd63 43aa 783f 75ab 848f 2e92 a73f
000004b0: ed35 3ae8 7563 3b3f ccc8 8760 e373 afbf
000004c0: 5819 cdd8 766f 2d16 6995 56c8 3c45 a53f
000004d0: 1557 fa31 5de8 9d3f 7ad4 88e2 5c87 8cbf
000004e0: d44e f5fe 5815 64bf ca65 ba22 2b27 6116
000004f0: ec89 d95f 8991 a13f b65d f7cf 88e2 d51b
00000500: 53d5 d20d 9fbd aabf c489 d7e6 4493 abbf
00000510: 3147 4b98 052e 46bf 449a 5304 26d0 75bf
00000520: 2511 b264 7432 7abf c77c 548f 6f62 06bf
00000530: 9324 f08a 39af 2bbf 9d2a 6125 226d 94bf
00000540: 63e0 64a4 0698 7aaa 1ee0 6615 9a2b 7fbf
00000550: 0beb c4d9 75f2 9baa 147f 9923 755a 92bf
00000560: a1de 5985 730f 96bf cf2f 8335 4535 5dbf
00000570: 1e7e 3be1 89f0 ac2e 28fd a38a a135 bc3f
00000580: 6b1b ec30 b29e a2bf cf51 5254 80b1 923f
00000590: d4b9 4bc8 81b1 448f 1f38 7e6d 965d 71bf
000005a0: 2a00 bff2 20f1 69bf de2f eac0 229d a3bf
000005b0: 20a4 9e49 4e5d 15bf 264a dba1 98ca a8bf
000005c0: 60b9 07a4 a42b 4db4 a97b 32f7 6bce ae3f
000005d0: 1827 f739 b4b8 a73f 2e63 cac3 3069 8bbf
000005e0: 5b67 fd51 c00d 96bf 6006 c3fb f0a1 0630
000005f0: c236 b870 8288 9ebf b9b5 e030 d6f6 e2bc
00000600: 2268 d539 c173 aebf a754 cf36 4662 a5bf
00000610: 175a e5d3 1ce6 25bf 569e 4dc1 d38c 623f
00000620: 4346 a3fb dd08 8bbf ee03 c115 e799 01bf
00000630: 5284 fc91 9f37 1ebf 87c5 ee38 c171 a5bf
00000640: e4a0 f612 7b45 9e2a b28f 55a3 f622 96bf
00000650: 8e62 5c3c ea6d c1a5 f930 8ff8 7f9c 62bf
00000660: d84d 1cf8 1c2a 8cbf 1c6c 244d c0d6 7dbf
00000670: 3c81 a434 2aaf 1bba 66d8 f981 1b54 c53f
00000680: 53cc 8b3a e266 b6bf 9d0e a3a4 7705 b63f
00000690: a295 ccc8 5de1 ed8e ca95 410a e470 7fbf
000006a0: ee31 5384 fe14 71bf 440b da97 e564 a7bf
000006b0: a212 90c4 eb84 13bf f9f3 5d82 3904 abbf
000006c0: 5ab7 32a7 def9 9f34 8c1b 5fd2 57df ac3f
000006d0: 3909 65bc 4e04 ac3f 98ed fc44 fa97 86bf
000006e0: 67a1 7118 e1c9 95bf 553e 4e98 c584 34ad
000006f0: a439 0bca f86c 8abf 04ad 9156 c3b0 12bd
00000700: 6191 7a71 4c70 66bb d42b edec 8fa8 223e
00000710: 7c5a 0e22 5143 b6b3 75d2 63dd bbb0 81bd
00000720: e800 3fce 4b8a 69bc d1b9 cbf4 86e2 f239
00000730: c23c 0657 2351 803c da15 7286 4be3 8d3a
00000740: 1bae 030c 0190 7d0f 6119 c038 01b3 76bb
00000750: aec7 2d37 0216 94a0 cba8 f1ef 9274 89b7
00000760: 0d52 ef91 2ece 5c3b e611 7f15 8872 4033
00000770: 2ac8 5535 6a86 853c 5e4f a383 9613 37be
00000780: 084a f2fc 8644 c33b 4aea cc4e e022 eebc
00000790: 1ae8 8985 c965 3f28 8b77 e4ae aaaf a53c
000007a0: 44ba 385f 527a 4bbe 44bc 97f9 df7f 90bb
000007b0: 2586 d09f 954c 5eb3 3cbf d91c 6354 01be
000007c0: 0736 56dd 558f d232 ff86 c751 5419 79bd
000007d0: 49df c4a8 291f d1bd e1dc 843e 552b 913d
000007e0: ecf4 823c effb a53d 665e ba23 1795 1bad
000007f0: 5307 4bc0 8371 64b7 9faa 100b 36ec 0434
-0.02292036729593727 0.03204981254244291 3.0494301898960407e-05 -0.011733865644490483 -0.04954393341721555 4.173742650005129e-06 6.30507089193142e-06 0.04952227417318521
-1.3999806387898922e-102 0.017695107406834987 -7.60039339250588e-228 0.05332949668784858 0.08821393545498003 0.0007006501471078467 1.846192294265799e-85 -0.13067905576352284
0.08939802047938715 -0.07219290592590041 7.009919335595602e-299 -0.03199906583703879 -0.07960079012316489 -0.021934337037664932 1.682311070741525e-05 -0.0740976390968902
1.5162112119485653e-55 0.0010116860783551 -0.08851603560092403 -0.004783765585771471 0.060948276337320625 -2.867433814405653e-91 -0.016656757029154798 -2.075828648114474e-14
0.013191931651312317 -0.33664933984279927 0.40025632399826266 -0.24744247700478753 0.07069116749472702 -0.00016428338528420492 0.20885507530472266 -0.4898261042450247
4.1024457633420517e-103 -0.3775759076067024 -2.4838073375071203e-83 -0.016897556171302303 -0.10935899673287196 0.824650038828185 3.0804884377268353e-81 -0.048567505901988876
-0.20357859231411418 0.26980649680802143 1.0242202550617856e-234 0.2393032239620996 0.09340149285415433 0.5511149420816022 -0.0033446904646199163 0.2511237915550844
-2.9134072246533335e-54 0.8563348488056847 0.07350609503196243 0.34924712121306967 0.0869644273223741 -1.483414136190717e-29 -0.11230892072199994 -4.6021042405155866e-09
-1.2981492832373094e-11 -1.7358228733993507e-31 -9.853686866463812e-71 -3.3776968961219977e-54 5.12390969419516e-59 3.814037202535254e-65 3.5202568241186383e-72 -1.0093776456656684e-32
-1.1098440707715775e-234 1.8303635768902648e-16 -5.6414494327726046e-121 -7.903022875715225e-16 -1.5071129553292495e-18 1.2807751235115095e-72 3.4397598557708432e-251 1.8487303255752694e-09
-4.274531523357451e-08 -4.084999927595329e-21 5.899684133188608e-237 -4.4642120644822456e-72 -5.890236051020378e-32 -7.102878959749757e-17 -1.9446559914681126e-71 2.6875947927185498e-27
-1.290478879535785e-73 7.463214178344744e-18 -1.5184006985280472e-22 3.3522766821560515e-60 3.204839425588324e-44 -8.863652264764158e-93 2.2322023017310925e-61 -2.658298828453898e-75
-9.925252340288321e-214 -9.106581591452242e-215 -1.3840430652805172e-214 8.072863883747022e-214 4.88436151848644e-214 5.046881486772619e-215 1.5154321925587827e-214 9.34173680432952e-214
0.00022679388571158544 -1.0521352294078643e-213 7.965660418269828e-217 7.658816995146529e-214 -1.1574935094279167e-213 1.1650132467521164e-214 2.0763973686668854e-44 -6.867991175710239e-214
2.5597841140885412e-213 1.2815822108809103e-213 -4.086168037173489e-19 -5.021070237051966e-215 7.124819248244211e-214 1.5848628111490066e-215 -3.354570034854757e-216 4.59318541797202e-214
-1.5533154291100096e-215 4.558172454460727e-214 -6.540770384699779e-215 4.106717712943967e-214 7.251296619836628e-214 -4.661478308466711e-15 1.5199765499465795e-214 6.750972817948412e-216
0.026411859637478104 0.010587242992461889 0.00023024530380532388 0.0032954950764801415 0.00824146846034153 -0.00013501387582488605 0.013663249753284645 -0.07875801767316344
-3.0075852763689884e-237 -0.01143522232737416 2.09634797200528e-190 -0.011362209223628605 -0.07618573792132903 0.07436355424238861 -5.064499373458051e-247 0.04324015912273866
-0.01764126217604633 0.014592176948359086 -9.247592405679884e-293 0.048614713328727355 0.0060217506796306115 0.046037154216114574 0.00041791561691514775 -0.06143103173589423
7.51074411831527e-202 0.041543864684437555 0.029206710982712176 -0.013930059111866056 -0.0024515855981607024 7.002821198280414e-201 0.03431348128357911 1.3825698817705922e-174
-0.05222794574494096 -0.053857949427555535 -0.0006768729513970448 -0.00532545900680376 -0.006395773564808392 -4.2695073640291975e-05 -0.00021121575761665466 -0.019947560817210264
-4.6381281708169795e-104 -0.007609941376749444 -1.9496579113521671e-103 -0.017923193261935103 -0.02154331685457456 -0.001782720171877184 7.448413879176818e-84 0.11019334444789719
-0.036367004844627036 0.018255238672809256 -4.067663008401053e-235 -0.004239642723304043 -0.003166736938482036 -0.03830822567860513 -8.1499007505884e-05 -0.04842068649090363
-9.294251454909533e-57 0.06016862289947451 0.04633105475984517 -0.01338422868256969 -0.021536831859840216 2.4432350597763065e-77 -0.029817617540223613 -2.105449791645249e-15
-0.05947688895203408 -0.04176539820734009 -0.00016707517529353295 0.002264417251740795 -0.013200506440998022 -3.357159104711698e-05 -0.00011526977004595984 -0.041883505058090846
2.1118065823322567e-103 -0.021617749899988055 -8.04624328854423e-127 -0.0022718905861208697 -0.013752199479802593 -0.007284880807016083 -8.735605142899664e-29 0.1666292557380899
-0.08750738076541724 0.08602092523056588 -9.177384268975924e-237 -0.007676020413872784 -0.004170412260645835 -0.04569165686282031 -7.445992481798028e-05 -0.05276660648721782
3.2602107165929306e-55 0.056391472272983995 0.05472036409129761 -0.011032061796518985 -0.021277920834479682 -6.295495114576584e-91 -0.012903159776581692 -1.6600481543868673e-14
-1.4848663875164133e-22 2.1721290108692865e-09 -1.3854271993466966e-59 -2.011161835687611e-12 -1.1076304458001688e-17 1.4897537038440453e-29 2.830538840584416e-17 1.2071615031539768e-26
4.648841879832356e-234 -3.0042190543815633e-22 -9.58771314693966e-152 -3.65266604083256e-41 9.530906738967276e-23 7.996277568928176e-62 3.7340023626325927e-17 -5.372919937267764e-09
8.16018190219273e-21 -3.345794215639278e-15 7.96852984328531e-115 1.5047822827062661e-16 -1.279535675251498e-08 -8.73476857244033e-22 -2.94612693235782e-61 -5.043588270126323e-10
7.049473008594974e-64 -1.4267097221087143e-12 -6.22884887698811e-11 3.903839904863349e-12 9.997219971117085e-12 -2.11569535437649e-91 -7.333716046143586e-42 4.1664729432754806e-58

conv_layers.2.lin_l.weight f8 [32, 32]
00000000: c1b3 0d1d 5d27 862b d8f1 61b4 2223 892b
00000010: 6deb a394 fca9 242b f689 938c 90a7 612c
00000020: 160f 3e9f 793f 7fab 88ad 461c 5636 60ab
00000030: 17e8 1cd0 4dec 6dab 95d0 c6d8 e816 472b
00000040: df6c bbdb 9af7 fdac bd3d 1652 8a35 69ab
00000050: 872b 9cd1 1b53 9d86 71a3 981d 59ad 962b
00000060: 1922 2836 fbd1 a42b dc2f f91f 3eea 74ab
00000070: 4a56 9b91 99f9 1236 255e 3bf9 895e a22b
00000080: b92c 83d5 a6c5 8c2b a62e 1b3d 7473 912b
00000090: d496 c57a 9ea1 27b6 dfdb 57fe 1d12 7d2b
000000a0: 4e36 69b4 3c74 a32b 10f9 aff8 59b2 992b
000000b0: 8ed4 8bce c6b5 cdaa 5ca2 af61 9c46 a5ab
000000c0: 306e dd3f c207 c12a 8246 9e48 ad54 9bab
000000d0: 27c3 ebe1 441a 782b 8603 a047 44c5 a2ab
000000e0: 6a47 2599 6f07 9cab f95c 00a6 c23c b1ab
000000f0: bf76 4648 836d 962b 9540 60d9 046f 7a2a
00000100: 79f3 2e10 b82c 1597 f69c 481b 6a2d 9ba0
00000110: 3c53 33cd 4532 f514 c18f ac79 016d c415
00000120: b92d edab c4fe c398 bbd5 0656 c96d a196
00000130: d583 0379 ba3a 451b f068 ed23 2e2b 2017
00000140: 315a 1262 4037 c992 322f 8bb1 645a f216
00000150: 1265 54c5 fc01 ee94 5d1d af2c 91e1 f61a
00000160: 79c4 16b8 1d38 9318 6375 de09 389e 6315
00000170: afbc 9109 46c7 adba 3643 abc1 1511 859f
00000180: c56c 64cc 63eb 809b 9b14 d77e ac08 6495
00000190: d45c a120 1d6f 3d3c 6f64 a829 a42a 3aa0
000001a0: af12 ab46 fb56 701c a48d 041c fdb3 b41b
000001b0: 8142 05d1 1052 2b15 adca 066b 09b1 9b21
000001c0: d204 226f 79fb 1015 e90b 7226 0431 6118
000001d0: 5c11 5f51 db58 e998 dfb8 a6f0 b432 5820
000001e0: 223e ba78 8e21 b41f 5a4e 3edf 86b6 f01d
000001f0: 8cb8 8165 0567 479d 9b42 fa52 a2bc 0796
00000200: c441 1a3e c726 a036 8132 5a64 57ad af36
00000210: 5e52 0349 80b1 3336 90d4 e6ab 6ffe 79b6
00000220: d8c2 6b77 de5c 72b6 fe9c 956e 1541 55b6
00000230: 9592 15da fa3e 4836 e29f 35a5 7c99 6d36
00000240: 243c d9ef 716e 8685 08ae 8701 a80b 7bb6
00000250: 9538 2127 e10f c994 bf00 873c 87c8 a436
00000260: 8ee2 d430 0afa 7436 ce69 c7e7 0bc9 9436
00000270: 0ecf 6401 a34c c639 13d2 0c74 faaf 94b6
00000280: 93d5 a3c8 0e19 a336 9458 a0a5 5466 8ab6
00000290: 48ca 3ee1 b669 2596 e658 a4db 1077 75b6
000002a0: ab76 9ad1 1c61 7436 334c a8b1 2659 a3b6
000002b0: 01b5 a9c0 bac6 e935 8b3a 04cc c082 9136
000002c0: 4134 02f0 7e27 ba0d c699 96e6 b0b6 7336
000002d0: 543d 3607 78cb 9436 736a 7e2b e370 8f36
000002e0: 1b8a 7455 688f 92b6 9d10 8190 dc07 87b6
000002f0: a017 acbb e3c2 9936 d80d 756c 13ab ebb5
00000300: 3861 119c 59ea 3dbf 3d05 4c81 eee7 1733
00000310: 80cf 13fe 134c 37ba 49ad 5654 da4b b13b
00000320: 9426 0079 78d3 303b d6c5 2049 4a84 03bd
00000330: 496d a7de c6c5 a43b ee34 fdf6 5d4e 43ba
00000340: 3606 4e25 0e31 f7b5 583c 4ea2 b40b ea30
00000350: 3544 98e0 13a4 02bb 5942 e729 2994 5c3a
00000360: ae5d 349a a412 61bb aba5 c248 e0a2 d73a
00000370: 5587 99da c40e 133e 13fb 492a ba43 a3bd
00000380: 6b52 6511 89c0 f936 029a b9b1 d500 3b3e
00000390: 05ec c7f2 dc02 56b9 c292 a311 d2e9 af1e
000003a0: 7b38 e3a7 ff09 fbbe b0db 54d7 11f9 e5b8
000003b0: a46d 8fcc 133a a1ba ec2e 81b9 1b45 f03e
000003c0: 6b0f a2a3 0a94 1ab8 7e11 76e7 d1ab 6b3c
000003d0: c24f 5cfa fbda bfba 062c 68b1 3baf b29e
000003e0: 6a93 db7d c360 b69e 5645 0a9c 5dc2 981e
000003f0: 6ea0 5a27 7104 e4ae eccb dca8 52e0 f837
00000400: 6386 94fb 186f 31bf a8f2 8596 42d3 06bf
00000410: f484 34ce 3f74 f3be 8ce5 2da2 b912 4abf
00000420: fc84 c9cc 0f59 33bf 4188 7e41 153a 09bf
00000430: f221 d2ea 54b5 b8be bb12 531c 85f5 28bf
00000440: f02e 24a4 ab38 31b7 e96e 938c 91ec 46bf
00000450: 4590 2640 338f d53c dd5e 7afe 3ee6 38bf
00000460: 213e ea15 bd37 b5be 9df9 a4fb 0009 1abf
00000470: db09 0786 796b f13e 6126 fb81 ab7c 20bf
00000480: 344a f63c e849 23bf ddce fad0 29be 25bf
00000490: 4cc5 69a6 b7f8 03bd 3482 8271 eaed 26bf
000004a0: 4688 7bc9 0017 3ebf 7c4b 8236 a9ae 35bf
000004b0: ebc0 b523 1812 833e 4637 4e58 cfe5 2e3f
000004c0: e290 76c7 34a3 90bb 0116 3538 486a 39bf
000004d0: a0d3 0cd8 9619 25bf c807 6eb0 d8a6 083f
000004e0: a012 386a 10e4 54bf 39fc 7c5a f53b 55bf
000004f0: 73fa a7fc d18b 40bf a62f c437 1333 083f
00000500: 079d c2da 0044 613f a0e3 46e1 e7b2 683f
00000510: a120 52b0 edd5 3fbf db6f 53a0 8451 61bf
00000520: 1df4 35b4 cf45 57bf da94 e320 0777 4fbf
00000530: 7e13 e9b4 1556 403f 5d5e 665f 8959 5abf
00000540: 599d 3b2b cc3a 5c93 dccd 22d7 067e 45bf
00000550: 9e7f f9c0 2e47 b59a 1322 3715 7caf 74bf
00000560: be3c 5c1d 0c73 69bf 219e 6dfd 6984 723f
00000570: dada 4be0 8a29 e9be ab16 b469 ddc4 9cbf
00000580: a643 0f23 7f11 62bf 3038 a6e1 bdf5 58bf
00000590: ff44 5940 3743 5b16 812e 53af 813b a13f
000005a0: b54a 631d 860b 69bf 6100 7209 2ef9 69bf
000005b0: b978 131d af6c debe 4f93 8ac6 f71f a03f
000005c0: d440 0a13 7f4b 521b 6f59 6244 846d 8cbf
000005d0: d5a5 1245 8126 6ebf df86 7631 7da1 963f
000005e0: 1d56 7172 411f 8abf 1b1f c0e9 12e1 9fbf
000005f0: 0dc0 6d7c 4b57 8bbf 7a4d e396 da39 e7be
00000600: 4511 1a28 09a9 6d9c bb5c bf30 88a3 0c23
00000610: ed27 fccf 841e 649a a845 f62a 906a d71a
00000620: 1960 1536 6d3b 331b c1fc ce64 4725 c69a
00000630: 564e 9133 7534 db20 7dbe 3949 3809 ca9a
00000640: a408 a5b9 15dd f212 9ece 223a e22a ea1a
00000650: 0563 8e1c e128 1a1a 549a 4ff1 1e52 e39d
00000660: b079 3528 360c 721d 3fc8 1286 4afb d29a
00000670: 162c ee2e be89 da39 62d2 1129 4772 76a1
00000680: ceaa 2ed6 8337 d61e 6148 02af b293 d11a
00000690: 7c7e 0228 e3e9 9116 87b2 0a1f 3c5e a227
000006a0: 6ee3 e88d df08 be9d 56d5 0627 582a 1222
000006b0: e3be a1fa f921 439a 217b 7716 3b68 e2a2
000006c0: 73c6 1337 05e7 431a 4b4c c911 9a7f 451d
000006d0: 3c17 ea63 ebdc 189b f6e1 8f0b e4ae e625
000006e0: d0af 3154 8835 cfa5 f1cf 52f1 523f 3da2
000006f0: 833e 2012 6ef5 c3a1 322e b44d b024 c61a
00000700: 99ae b163 dcdc 823f ffcc ccc2 39d1 bcbf
00000710: 06a7 c654 6007 76bf 8ddc 0f70 8229 5fbf
00000720: f8e4 fb5e 0eec 5abf c26b 5ef3 0762 77bf
00000730: 8b71 499f a3b1 a4bf 1b1e 027f 947b 6fbf
00000740: 2d5d f1b5 56b0 bbbb 8741 d0a8 1384 7cbf
00000750: 0cf6 bc5a 2a2f 9999 5cd7 1918 cc4b 933f
00000760: 76d5 1669 32f7 c13f 3fb9 a11f 9b14 8f3f
00000770: 894c 7f70 ccb0 33bf 3603 5ac9 2ca5 b6bf
00000780: c8fe 1ddb d926 a93f d1a7 32f4 ff73 43bf
00000790: 6cb0 8757 8705 743e 90a1 7683 e5fe 5a3f
000007a0: fd54 2215 06a0 923f 99a5 fd91 b0eb 9b3f
000007b0: d55b 34df dd67 d43e 4c8e 3660 48ea a63f
000007c0: 798f 0068 d210 3eab ab7e 3d8d 0d0a b3bf
000007d0: 5015 825e a805 913f 448d e237 9a97 a43f
000007e0: 54c5 dbde e06d b13f b6ae 2863 f18b b13f
000007f0: b1b1 5012 a3e3 b53f 1137 461e c51f 07bf
5.064294709813293e-99 5.746311571793507e-99 7.380844766945771e-101 6.612230916285598e-95 -3.5716012344863072e-99 -9.26519949082069e-100 -1.7100841476588613e-99 3.2988745583577524e-100
-5.746555413554696e-92 -1.4406865643027056e-99 -8.271356411704678e-277 1.0367874514500331e-98 1.9037816925277492e-98 -2.3905593233669076e-99 3.245805382438839e-48 1.6796696054406918e-98
6.577224231613767e-99 7.978505716794162e-99 -8.084604167669815e-48 3.3227523753367156e-99 1.778858825853755e-98 1.1748394943473896e-98 -1.6581166729550812e-102 -1.945439857677771e-98
9.504603047514692e-103 -1.2495489789633046e-98 2.75489834001371e-99 -1.7163622719754076e-98 -1.281473874311182e-98 -3.152330897271736e-98 1.0253869940554128e-98 4.610191182585667e-104
-1.7704341673610554e-197 -1.297269194779771e-151 1.0315841194832431e-207 8.143518724801265e-204 -2.2438728204456596e-189 -1.1384702864851864e-199 2.619451990868697e-177 2.703754287319293e-197
-3.571629110440033e-218 3.8362974058847366e-198 -7.302080715966386e-208 8.822667054202047e-179 2.695989111190037e-190 1.222105343487649e-205 -4.8109619998717013e-26 -7.672017177757977e-157
-3.3402567721488985e-176 -1.2480100514921018e-205 1.5956224080623113e-18 -1.951591756171257e-153 1.0570327995840942e-171 3.2697723069644185e-175 1.0637087436986787e-206 8.662622507982912e-147
3.30597873011117e-207 3.014433899309961e-191 -1.1377869441746626e-188 7.219099065977632e-153 5.865017788036084e-156 1.8139139132000275e-164 -1.2402045097374841e-167 -1.5141749127065459e-202
1.4145650561538808e-45 2.774318265498126e-45 1.3474746263629153e-47 -2.8457187657151246e-46 -2.0102906873508617e-46 -5.81709461912934e-47 3.317959361356683e-47 1.6202271653230506e-46
-4.8271517907008655e-282 -2.960848664353194e-46 -1.5246468017666432e-208 1.8202265845698495e-45 2.2964564623315925e-46 9.10201940507898e-46 2.1988868878457525e-30 -9.059138556552675e-46
1.67261453020054e-45 -5.7802968532762825e-46 -5.463731583657758e-202 -2.3499228939909625e-46 2.231058299916412e-46 -1.6945417719075494e-45 5.5115160453747616e-49 7.668060367745699e-46
1.532167632035465e-242 2.1581788251169044e-46 9.106163010816988e-46 6.8840902883902544e-46 -8.127612437404995e-46 -5.042640245280472e-46 1.1281016411389565e-45 -5.916061010645986e-49
-0.0004564732335601454 1.452805642022263e-62 -2.940517528346061e-28 3.662634032265188e-21 1.3918188150078777e-23 -8.667181865167441e-15 2.199380949869094e-21 -4.873550181251224e-28
-9.917719857527556e-49 4.606674356084247e-73 -1.9274268116205738e-24 1.4428583069986441e-27 -1.1297847299286744e-22 3.054911747647955e-25 1.1093036302024838e-09 -8.76050735559406e-12
7.217273251890076e-44 6.287186573097989e-09 -1.695679927720997e-32 7.093570382649958e-161 -2.5786454437342205e-05 -1.322447529173211e-34 -2.783150082079693e-26 1.551623753952198e-05
-1.9526641640055607e-38 1.2000457759920509e-17 -1.0293037261190084e-25 -8.30622921270195e-161 -9.948171486510534e-161 2.7516909635087517e-161 -8.24323760737708e-83 4.569047595454643e-39
-0.0002660213463788528 -4.353568039314654e-05 -1.8552874178405642e-05 -0.0007956892408024648 -0.0002952254842850247 -4.811646812120973e-05 -1.4727310529168508e-06 -0.00019042253385328175
-7.722328955021075e-43 -0.0006995878876767367 1.1967857689264688e-15 -0.0003799346727446482 -1.2646751980405587e-06 -9.931629657431445e-05 1.6612837841165295e-05 -0.00012578576660464676
-0.00014716110170505533 -0.0001658845944710806 -8.869150870348065e-15 -0.0001749371228969718 -0.000459134761952144 -0.0003308451764578097 1.4208764463229382e-07 0.00023573070589260665
-8.807831918760361e-22 -0.000387804633835337 -0.00016097990376242894 4.701947005171476e-05 -0.0012750778486189454 -0.0012960334806420128 -0.0005049491240354933 4.615690611062201e-05
0.0021076218309478176 0.003014996424294883 -0.000485773591500047 -0.00211406615799879 -0.0014204529150838648 -0.0009602341467852785 0.0004985433568625989 -0.0016082612542954935
-2.0472413069762523e-215 -0.0006558926964061423 -5.12784126321947e-180 -0.005050167750092277 -0.003106616651059462 0.004520811103112561 -1.1998307863231848e-05 -0.02809472997343813
-0.002205608667715758 -0.0015234331427538376 5.5650563791898595e-201 0.03365712418743972 -0.0030572528295150455 -0.0031705760152931782 -7.253777270592264e-06 0.03149389551734904
4.514740389843761e-177 -0.013880761467856854 -0.0036804699708070467 0.022100406784040124 -0.012754927926077514 -0.03113202621173548 -0.013350095495951586 -1.1075015859430009e-05
-9.593740451703268e-172 7.515308168518143e-140 -1.5151779258214815e-181 2.2572526298701875e-179 1.1865063583377253e-177 -1.0673834217546003e-179 2.0777319766211692e-150 -1.2548942002785323e-179
2.1375092928770935e-217 5.044929031763256e-179 6.156518005539697e-183 -1.0484727324431164e-164 7.651459909635654e-167 -1.8297659644067707e-179 5.23370915700497e-30 -1.755451352662075e-147
3.95061678124598e-160 1.694361180626919e-179 5.850679428403855e-200 9.104918328321855e-118 -2.0373475921621213e-165 1.454746218891565e-144 -3.602212774467734e-182 -1.2075875389997045e-140
3.747128542105821e-182 1.1393035883063688e-167 -3.8347364816849287e-178 4.1886639535432006e-126 -1.4407652941208423e-126 -9.368902998847633e-144 -4.994874686087295e-146 1.0672723025524449e-179
0.009210321228429396 -0.11256752973422478 -0.005378128331736459 -0.0019019864851068963 -0.001643194231233656 -0.005708724076522511 -0.040417779154014864 -0.0038431072535478734
-5.8633363592042336e-21 -0.006961895746841035 -2.3152160770386895e-185 0.0188438310346649 0.1403563511973222 0.015176021483253364 -0.0003004550094349375 -0.08845786968050792
0.049124534604741366 -0.000593662240494947 7.458625884249853e-08 0.001647686132722457 0.018188567199634232 0.027266272459575445 4.865104972460106e-06 0.044756185288204436
-2.1477955039096058e-100 -0.07437214563605703 0.016623144882506324 0.040219134637732995 0.06808286133652547 0.06854160948631258 0.08550471493862834 -4.4105723449579017e-05

conv_layers.2.lin_l.bias f8 [32]
00000000: 4d9d 68f0 c182 09be d791 c61a 7878 cc3d
00000010: 69ff 00d0 810a dfbe 2cb0 7e02 cbcf cabd
00000020: afc3 f064 d22d a03e b058 c7c2 a42d 21be
00000030: b39d ec88 f6fe f0be f890 594b 3702 debd
00000040: 75fa 6f77 f2c7 a83d bd73 cfe3 96bd f23e
00000050: ec0a be47 e5d0 12be 30e1 ca31 996e 013f
00000060: 9955 b83a a700 283e 5eea 7ada 6059 2fbe
00000070: c9d1 ae39 7f3a de3e 751e ef1b b296 d53e
00000080: b6ce 3bfe 265a 8fbd 2f2a 2639 d172 40be
00000090: 9688 dc8d a088 8bbd bc38 6969 a88a 52be
000000a0: d1b2 983a 2d44 153f 3336 d2c1 fec9 4a3e
000000b0: f7dc 756d 748c 673e 1351 5aab e96f 8ebe
000000c0: 36a2 fae8 dfb5 7b3e a176 56e4 2b75 c33e
000000d0: 7c68 e3ad 37da c1be 5478 b1d5 eefd 973e
000000e0: 4483 5fe8 4eb5 0abf b388 a18f 70aa ce3e
000000f0: 8588 8e01 088a b6be bf3e db3c 577a dcbe
-7.424611765821831e-10 5.178768815429316e-11 -7.400761433073871e-06 -4.877018260756061e-11 4.821715239353457e-07 -1.9998167759181577e-09 -1.620860035269978e-05 -1.0917085537439769e-10
1.1269113881998166e-11 1.787241329852576e-05 -1.0952352626990089e-09 3.324894917028571e-05 2.794264782890855e-09 -3.6495195371309592e-09 7.207036925406222e-06 5.147136504519643e-06
-3.564327640502729e-12 -7.659432009451438e-09 -3.1302192680700363e-12 -1.7268240693536604e-08 8.112455420734444e-05 1.2474620498280062e-08 4.386278156913758e-08 -2.267745082175308e-07
1.0322946252895041e-07 2.3195387110614805e-06 -2.12817336296434e-06 3.575075504020851e-07 -5.0941916057706374e-05 3.655645852738531e-06 -1.3434400953712022e-06 -6.789658937924886e-06
