runs/age_prediction_5k/model_best.ckpt (torch, 453867 bytes, 43 tensors)

conv_layers.0.lin_l.weight f8 [32, 3]
000000 76 b2 f1 db 8d d2 ac 3f 47 91 36 d1 06 65 b4 bf
       0.05629390058388577 -0.07966654403441452
000010 18 ed e7 52 22 06 ee bf 4f b6 6d 6a 24 35 a6 bf
       -0.938248788762766 -0.04337419318367763
000020 2f 46 27 9e fd 02 b0 bf 68 e1 64 1b 32 1f b7 bf
       -0.0625456343762145 -0.09031975907135392
000030 13 79 49 ac dc 46 da 3f 9b 36 7e fb f0 84 b3 3f
       0.4105750734796782 0.07624727382627798
000040 3f 24 69 b9 31 9f d6 bf d7 d6 fe a6 56 c3 b0 28
       -0.35346644503130514 1.0891167480810327e-112
000050 96 40 b6 48 8e f4 a8 28 12 8b a3 e0 9e 74 67 28
       8.106891518610652e-113 4.7623055864270195e-114
000060 3e d2 cc 88 85 70 a0 30 d9 cd 24 06 42 d7 d1 b0
       1.8172751033225744e-74 -1.577744364517276e-73
000070 cc 79 fd 75 53 d7 ad 30 db 67 e6 3f 29 4e ad 3a
       3.2987253574291394e-74 4.734529296912737e-26
000080 c1 9c d8 8e 44 bd 85 ba 1e c4 fe 15 39 32 7c ba
       -8.780444396361536e-27 -5.69417392345354e-27
000090 e7 a5 4c 82 56 8c be 3f 58 4c 06 d3 41 50 c5 3f
       0.11932888680589536 0.16651175311980881
0000a0 d0 29 38 36 0a ac bb 3f d6 e4 51 d3 88 4c e2 bf
       0.10809387038913276 -0.5718425872174986
0000b0 ed 89 e0 07 2a 49 c7 bf 5e 52 0f f7 6f c1 cc 3f
       -0.1819202936613488 0.2246532398554732
0000c0 81 28 68 7b 02 5f eb 3f 26 a9 fd 1d 20 14 f1 3f
       0.8553478632250205 1.0674134418027932
0000d0 5d e7 33 ed a8 fe 99 bf bc 1e 93 0d 26 e2 dd bf
       -0.025385512807566502 -0.466928017860919
0000e0 05 80 67 10 86 2c c0 bf a4 06 9b eb 9d 9d d1 bf
       -0.12635875512114594 -0.27524517067295506
0000f0 73 1c d1 31 64 60 c4 3f 9d 92 07 a5 db cf cb bf
       0.15919163162672909 -0.2172808223541737
000100 6f 21 e2 18 c8 e0 ae bf f2 d2 50 9d a3 bc b5 b6
       -0.060308697736277554 -3.807480591920447e-45
000110 9e 4f f3 95 01 49 d0 b6 c9 4a 84 f3 09 86 dc b6
       -1.141019917548849e-44 -1.9985030972271682e-44
000120 a8 52 4b 30 be 42 f0 3e 0a df c1 ea b9 ff ff bd
       1.550742583130102e-05 -4.656457257602976e-10
000130 b9 5e cb d4 02 13 36 bf 61 86 0d 52 a4 ba 03 a5
       -0.0003368265068224119 -2.2236093738881173e-130
000140 ed 50 97 b7 98 0e 64 ac 5d 0b b3 37 d1 a8 bd b2
       -7.512037270458857e-95 -2.816332446757674e-64
000150 b2 aa bc 2d a1 a9 7f ae 36 a2 11 28 b5 d8 c9 a9
       -1.0186571090383874e-84 -2.2010683918351415e-107
000160 f0 34 8f f3 59 d1 e7 ab 72 2f 3b 99 bc 62 b0 bf
       -3.4845978695906163e-97 -0.06400660267826
000170 0e ad 06 c7 66 c2 b4 bf 0b a6 c9 9e fe b8 b5 bf
       -0.08109133109126196 -0.08485404373791298
000180 78 bc 16 54 9b b1 51 ba 88 14 db f0 1b a9 90 bd
       -8.933074206386106e-28 -3.7881778992932635e-12
000190 40 82 72 d6 5f 67 f4 be 02 7f e5 18 0a ef 0f a1
       -1.9458585850730967e-05 -1.9511113488750514e-149
0001a0 9d cb 79 5e 9f c2 0f a1 f1 80 c1 ba 40 a1 20 a1
       -1.9405105032098833e-149 -4.064261418457677e-149
0001b0 b8 9c d7 93 94 02 db 3f ce 0d 1f 6b 42 6c 96 bf
       0.42203249395101805 -0.021897352016606857
0001c0 ae 01 f6 64 d3 68 9b 3f 33 c8 d1 f6 5f 19 e1 bf
       0.02676706603733841 -0.5343475170796012
0001d0 21 74 a8 c7 38 06 96 bf a5 68 f6 c3 3c ca bd 3f
       -0.021508109270247048 0.1163671472953945
0001e0 3a b8 c5 e1 be c4 d7 3f b9 bf 9f c4 e0 4c 76 bf
       0.3713834004219084 -0.00544441032432979
0001f0 cb 8e 00 07 e2 a3 e3 bf cc 1c ec 9f 2d 65 f0 3f
       -0.6137552391778284 1.0247017142262846
000200 17 f0 0d ef 99 c9 9b 3f 5d 09 fc c9 4d d9 cc bf
       0.027136235442853342 -0.22538158762479102
000210 a1 24 8a 69 c7 9c 81 3f 46 93 a8 5f 67 10 90 3f
       0.008599813373864786 0.015687575543910336
000220 c7 65 82 81 07 7d b2 bf f2 2f 9d 1b 7c 30 c4 bf
       -0.07222029601907486 -0.15772963856068106
000230 9b 55 14 cd ae 98 dd bf 36 3e 47 40 06 ba ab 3f
       -0.46244401957786757 0.054153628679724994
000240 8f ed ae e6 ed b9 f4 bf 6e 76 1f 67 36 c3 ca bf
       -1.2953928958002938 -0.2090824130563535
000250 f1 a2 5c 5f d3 13 e2 bf 64 95 1a 78 81 b5 d9 3f
       -0.5649201262031892 0.4017032311333735
000260 c5 2c e7 e2 ad 80 d6 bf 45 f4 5b e1 ae 7c dc bf
       -0.35160395773409575 -0.4451100540898703
000270 05 e8 b5 de 83 3a ff bf fd 01 74 93 d4 2d a0 3f
       -1.951785917246981 0.031599658012058975
000280 51 01 3b 70 92 bc d3 3f 62 b6 00 56 ff 71 35 1f
       0.30838452301033664 2.4405879537888582e-158
000290 f6 c9 55 70 15 c9 ea a0 c2 ef 23 ba 27 e7 48 26
       -4.0913973596142646e-150 2.943083574959244e-124
0002a0 89 19 23 f6 1d 88 9e 3f fa c2 18 8c 99 bd ac 3f
       0.029816120288864965 0.05613403163113691
0002b0 41 7c 72 cc d0 37 b4 3f b3 36 8c 43 ae 0d e1 bf
       0.07897667876612592 -0.532920009545441
0002c0 79 00 b3 cf 0b c8 d3 3f 7d cc 1a 96 fe be f1 3f
       0.309084847289348 1.1091295112098856
0002d0 38 f4 11 9c 41 8c 8c 27 e1 78 d3 c5 dc 94 33 32
       3.537736776419971e-118 7.263179696421676e-67
0002e0 24 32 cb a8 9a 3f fb bb 22 46 59 b1 ed 8a f1 3f
       -9.23213520619368e-20 1.0964180877384782
0002f0 dc 38 33 54 b3 2c c0 bf 25 e9 cc 60 7b d7 b4 3f
       -0.1263641511090502 0.08141299355785188

conv_layers.0.lin_l.bias f8 [32]
000000 13 55 b3 28 0a 3d f8 3e 3d ca e5 66 0d 41 97 bd
       2.311557413466499e-05 -5.287372629807972e-12
000010 e6 d7 74 23 c2 7a b0 3e a2 ef 56 2e 59 e8 b0 bd
       9.82256222870672e-07 -1.5377382437037888e-11
000020 10 f1 26 86 c1 58 1c 3f a5 1d 5c 8f da bd 60 be
       0.00010813409020377454 -3.118369022556992e-08
000030 f9 58 0a 02 d4 ec 5a bd 28 2e fc b3 ff 85 9b be
       -3.826288261862454e-13 -4.101311112814792e-07
000040 fa 83 6e 81 5f a9 5e 3e ea bf a1 ca 38 49 90 be
       2.8555852872963544e-08 -2.426806512472931e-07
000050 e3 9c 46 53 5e 78 b3 3e 11 97 bf dc f2 91 ec 3d
       1.1605137163280382e-06 2.0787492419609787e-10
000060 ec de 1b 4d 56 4d c5 3e c7 33 0b 99 b3 71 6d 3e
       2.5394079806692834e-06 5.4843997015359004e-08
000070 79 3f a8 75 86 f6 80 3d d0 53 1d af 1d 28 b3 bd
       1.9284685993910773e-12 -1.742291982966341e-11
000080 3a 5b 9c 45 6a c6 3b 3e 35 aa f7 1a cf 2f c5 bd
       6.466884883298926e-09 -3.853848088823847e-11
000090 d8 55 51 6d 4a fb 13 3e aa 3b 59 51 a7 6a c6 3e
       1.1630824543672068e-09 2.672268815818531e-06
0000a0 31 f4 62 69 2b 24 5b 3e 1b 5c b2 b7 e1 25 e8 bd
       2.5277293668554055e-08 -1.756996456731335e-10
0000b0 e1 3b 0e ba fd 8f d0 be bb b9 10 88 e6 c7 33 3e
       -3.948799446442325e-06 4.605590687508293e-09
0000c0 a4 87 f6 cb 9b a9 40 be 44 13 40 9f 42 1f 50 3e
       -7.759096808474175e-09 1.5014885293445855e-08
0000d0 55 fb 17 d2 6e 29 61 be fb 69 64 05 25 29 0a be
       -3.1966431512229085e-08 -7.61377192876476e-10
0000e0 d4 0e 39 31 e6 0f cc be ab 7c 9e 28 f2 4f 0d 3e
       -3.3452637440439226e-06 8.530998834769574e-10
0000f0 f7 fe ff 6d 38 28 25 3e 8d 61 49 04 e6 7e 57 3e
       2.463011891662316e-09 2.1882073280390644e-08

conv_layers.0.lin_r.weight f8 [32, 3]
000000 85 ea c7 fb f9 5f f9 3f d1 c2 70 ef 05 d3 ea 3f
       1.585931762236812 0.838259666115926
000010 f0 eb e4 2e 3b 9d c1 bf 31 09 a8 d5 ad 57 b0 bf
       -0.13761081495053373 -0.0638378759977385
000020 19 82 ed 90 5f 76 a9 3f a9 89 6c 0a 93 a8 b3 bf
       0.049731241647126896 -0.07679099087230291
000030 5d 21 96 8b aa 41 de 3f 84 aa 7d 49 fa 12 bd 3f
       0.4727579463147061 0.11357082647524847
000040 60 d6 df 5c 0b 60 03 c0 55 76 a2 31 15 20 c0 a8
       -2.4218966728029017 -2.09536680342531e-112
000050 0c 13 45 06 ae 77 c3 a8 66 93 7b ff b7 11 c4 28
       -2.529657885098209e-112 2.607846268790767e-112
000060 78 3b d9 3c c8 b2 cb b0 04 9f a6 b2 ae 59 d3 b0
       -1.2247438016154663e-73 -1.711233451654288e-73
000070 3d 84 fa c9 83 f7 d0 30 ff 35 ec 8e 99 97 4b 98
       1.500453037615206e-73 -1.2095362625437728e-191
000080 c4 f7 03 ee ce fa ee 8f 97 39 4e be cf 6e 15 90
       -6.23578079198635e-232 -3.451305578775867e-231
000090 29 9c 62 4d fa 79 b5 3f f8 e5 e7 fd c2 cb c3 bf
       0.08389248265540118 -0.15465581319567412
0000a0 62 cb ba ef 4e e6 c1 3f f1 31 bd 63 88 44 f2 3f
       0.13984095292615978 1.1417316337639216
0000b0 bd 04 90 c3 63 e2 d2 3f 2e 40 d5 76 08 e2 f7 bf
       0.2950677308836694 -1.4926838533319926
0000c0 44 b4 00 a2 cd 98 01 40 41 98 8b ad 2e 60 d5 3f
       2.199610963484277 0.3339955038812868
0000d0 9b cd 06 90 2c 53 d2 bf 64 6b a3 de 27 2f ae 3f
       -0.2863265425214309 0.0589535197520579
0000e0 75 90 5e 9b 61 f6 b8 3f 9f ed 42 e7 84 84 f8 3f
       0.0975094799346737 1.5323533090257582
0000f0 1a 50 2b 8b 53 cd e0 3f 7a 9e 0b ec b7 3c 07 40
       0.5250642507694494 2.9046476784749844
000100 a2 e8 9b 3c 9f dc d2 3f ff c9 67 ad b2 bd 76 b6
       0.29471569937562425 -2.489604616988666e-46
000110 6d 1e f9 9f cb 73 87 36 e5 ef 94 f4 cc 0a d3 36
       5.134954399290526e-46 1.3341895711932495e-44
000120 72 35 c7 0f 98 99 e8 3e 2c 67 3d fe 7c dc 55 be
       1.173018289870695e-05 -2.035990566361698e-08
000130 e3 4a 83 9d c9 cd 4b be 10 67 80 c6 f5 ac 95 2d
       -1.2947180147794874e-08 4.2563068078826796e-89
000140 ff 18 52 63 9e 87 65 35 01 d3 a1 87 1b d2 1e 32
       1.798249507433917e-51 2.8580112705826408e-67
000150 8e 47 55 7e b6 e2 82 b1 80 ca e5 7c 57 89 44 ac
       -3.4204381363624806e-70 -1.9229041060422608e-95
000160 04 83 0e 23 43 f2 0e b1 3a a1 80 44 85 99 b3 bf
       -2.189375749132123e-72 -0.07656128809378951
000170 51 25 ab 5b 21 3f a2 bf 8e 6c 2c f1 93 67 96 3f
       -0.035637896003729914 0.02187949332720201
000180 e6 18 d1 dd 70 a1 5f 3c c3 94 1b a5 cf 60 ad be
       6.85879921774726e-18 -8.755376461304441e-07
000190 28 a2 93 f1 5b e5 73 3d 05 a1 a1 33 db 86 07 21
       1.1309529212950146e-12 1.4374564523721642e-149
0001a0 f9 c1 2c 6e 36 46 ef a0 64 63 ac 44 7c 20 fc 20
       -4.777044934096899e-150 8.592587794212083e-150
0001b0 72 a6 c9 ee 4e 01 ce bf 80 c3 74 1b e2 ab 0b c0
       -0.23441492709689588 -3.458927359104962
0001c0 dc ec 30 3d 17 4a c6 bf 3c 1a ab 0b 54 c9 d0 3f
       -0.17413607108924267 0.26228810443391004
0001d0 20 1e c7 ca c3 0e b9 bf ef 67 86 d7 19 c0 02 40
       -0.09788154316549269 2.343799289502378
0001e0 66 4b 7b 06 27 87 d7 bf a8 9d 5f b0 95 c4 f6 3f
       -0.3676240504548133 1.4229943170156307
0001f0 10 4e ee 18 68 7f e5 bf d0 1b 5d 5f c1 9b d9 3f
       -0.6718025671893333 0.40013155281888846
000200 09 3c 7d fa 03 00 e1 3f 74 8e ec 4d b3 69 f4 3f
       0.5312518970839629 1.2758057636173392
000210 bf b6 86 bb da 24 cb bf ec a2 5f 64 69 fb da bf
       -0.21206220776132587 -0.42159495164973637
000220 f9 88 9a 68 e4 81 de bf 68 fc 1c 32 62 27 d6 3f
       -0.47667799201202815 0.346153782786081
000230 55 0e 0e 0b b6 82 f9 bf df 16 d7 d5 54 1e e7 bf
       -1.5944118911583207 -0.7224525620046868
000240 9f 4b ea aa 7d 6e f1 3f 2b 5e 99 73 8f d4 e9 bf
       1.0894753147483482 -0.8071973092837131
000250 c0 c8 ea 44 37 9d e3 bf 52 6c 9a f1 9f 6b e3 bf
       -0.6129413934743511 -0.6068877905667114
000260 06 0a eb 4f cc 68 e6 bf a0 74 f1 21 fe 08 fa bf
       -0.7002927361393751 -1.627195484724588
000270 61 d6 24 42 a0 db f9 3f 8e 52 1d c5 26 0a 9b bf
       1.6161196311708397 -0.026405912190357976
000280 a7 d6 4e 19 68 c2 c8 3f 3f 76 72 a6 aa 23 c6 23
       0.19343281970730183 2.379667628320154e-136
000290 fa 65 a4 86 3d 3b 77 a3 8e 99 c3 d4 5f e1 45 a9
       -7.803285890104934e-138 -7.278572689736959e-110
0002a0 51 3d 12 eb 53 84 aa 3f c1 3a 66 f4 50 7e 9a 3f
       0.05179083103677818 0.02587248317427782
0002b0 3e 3b 7a 81 5b 83 83 bf 01 e3 4f 53 17 95 ec bf
       -0.00952788819202299 -0.8931995989979385
0002c0 57 d0 d6 2e 0b 1b cf bf a6 7f 6a 09 84 06 c4 3f
       -0.24301280772272335 0.15644884547964216
0002d0 d2 36 e7 22 1c b8 67 bc 1a 0e 71 30 e8 bb dc bc
       -1.0286554302139498e-17 -1.5950580676498203e-15
0002e0 88 39 a5 82 12 49 a3 3d 58 ae 1a 5e 95 23 05 c0
       8.770002157360216e-12 -2.6423747398273854
0002f0 6a e3 4a e2 bc e6 d6 3f 70 92 99 b4 36 f7 d0 bf
       0.35783311938171514 -0.2650887263937767

conv_layers.1.lin_l.weight f8 [32, 32]
000000 44 7d 61 ca 43 69 cd 3f 84 ab 22 59 10 2b c4 3d
       0.22977492696643698 3.6685775200586467e-11
000010 7d 0a b8 70 d0 c9 d6 3f b2 d2 62 48 93 ae 66 32
       0.35606776244836863 6.730557782348273e-66
000020 f8 14 72 2b 18 dc d2 3d da 66 2e 68 a2 47 82 11
       6.861134825339464e-11 2.4692507747749875e-224
000030 3c 62 69 ea f1 21 7c 3f 44 76 1a e5 05 49 c9 bf
       0.00686830995854187 -0.1975409859341416
000040 57 fb 6e 09 b9 e2 c6 3f 00 11 f8 51 38 e1 d2 bf
       0.1787940307676432 -0.29499633793626856
000050 1e aa b1 5e cf 64 b7 3f 5a db 34 39 1d d4 35 39
       0.09138198911538395 4.204029836771291e-33
000060 d5 c8 5e 61 0b 3e 80 be d1 75 fb 13 94 e0 11 0d
       -1.2101502083539193e-07 1.0227382316995087e-245
000070 f4 9a 04 31 ed 60 6c 19 3a d7 97 dc 10 2c ff be
       3.261098779969749e-186 -2.9728061951637292e-05
000080 48 23 07 8a 8a 60 84 bd 57 10 10 0b 82 bc 87 29
       -2.3166096457309216e-12 1.2633558081973684e-108
000090 43 3b 6c 69 ad 1f f2 bf 2a 93 d8 28 2b b4 fa 3f
       -1.132733737762195 1.6689864726587964
0000a0 e3 c9 5e ee 50 41 e2 3f 22 52 f9 7e 59 84 b3 bf
       0.5704731612843797 -0.07623824453305209
0000b0 7b c9 2e 0b 12 2f 97 3f cc 8c 53 c6 03 83 c2 bf
       0.022640497143308274 -0.14462325271515508
0000c0 7e 9c 90 64 13 90 d0 bf f8 6e c1 d8 e6 48 ad 3f
       -0.2587936861113532 0.05719682117407204
0000d0 ef 59 3c 38 6a 6c c9 3f 9e 1b 1e e9 dd 07 21 1c
       0.19862106080900285 3.4429107250543674e-173
0000e0 c3 f3 80 94 e1 c3 c5 3d 05 62 72 16 38 76 cc bf
       3.959059691451423e-11 -0.22235776039157443
0000f0 6a 53 7e 84 6a 76 8d 99 5d fd 61 02 a6 ba ce 3f
       -1.3542636001229597e-185 0.24007105938288023
000100 06 38 70 be d6 c7 82 bf 99 26 65 fb 20 9c 53 3c
       -0.009170224844663021 4.252214523540768e-18
000110 7e 17 1e 1f eb 87 a3 bf 0e c1 f3 ee 6a f9 f0 3e
       -0.038146350430038986 1.61879424326892e-05
000120 c3 0d d2 d2 e3 3b b2 38 be a4 4e 0b 72 8a e0 12
       1.3717695623941704e-35 9.37151326743785e-218
000130 e8 84 6f 4d dc a4 93 bf 3f c9 87 5c e6 6a bd bf
       -0.01918358061437156 -0.11491241225283931
000140 6c e2 46 95 ce e2 b1 3f 0c 05 07 f3 3e c6 87 3f
       0.06986704964118368 0.011608592788322734
000150 f4 de 5c 9d d0 0f 71 bf 8d db b6 6c b6 28 58 38
       -0.004165472890057965 2.8398807494011585e-37
000160 4b e0 92 cd 7d b6 53 3d ee 44 00 00 00 00 00 00
       2.801365482949657e-13 8.7183e-320
000170 f1 13 5f 87 fd e1 3d 13 82 d8 f4 dc be 83 77 3d
       5.417813409359298e-216 1.3366520244034811e-12
000180 a2 94 64 e0 69 6c 4d bd 6a 15 91 67 66 7f b5 21
       -2.090664746938148e-13 2.690005893963288e-146
000190 a6 9d 3c f3 a3 76 d1 bf b2 c1 27 de 30 b1 de bf
       -0.27286623719779823 -0.4795648736462922
0001a0 36 32 e9 b2 a6 8a 54 3f 73 e3 fd e7 0e a2 90 bf
       0.0012537601393375459 -0.01624320307698519
0001b0 4e 80 20 3f af cf 90 bf 8c 3f b0 38 82 20 cb 3f
       -0.01641725371166585 0.21192958610526735
0001c0 bf 17 3a 51 11 c5 9e bf b6 5c 16 e3 6c 3e bc bf
       -0.03004862840909772 -0.11032753509640511
0001d0 ea 85 b8 bd 9f 81 b2 3f 1f b0 62 e0 e5 79 75 1a
       0.07229040510039622 3.2347396236099737e-181
0001e0 e0 e0 38 bd ab dd 52 bc ea bf 4f b7 97 07 70 3f
       -4.090890339469375e-18 0.003913490906583642
0001f0 2d b0 ea c8 b9 1e 9f 9b 7c 7e a2 ac 5c 03 e3 3f
       -1.2287469169449629e-175 0.5941604015133204
000200 06 39 31 70 c4 bb c8 3f a6 18 92 86 6d 3d e5 be
       0.1932302043737268 -1.0127998580477669e-05
000210 71 d4 af c4 e2 00 ca 3f 19 f0 cb 94 02 e2 85 b2
       0.20315203288888342 -2.597376281989366e-65
000220 bc 99 52 57 d5 3f 95 38 ff 04 2f c1 54 3b aa 11
       3.996558367768671e-36 1.4173617021476466e-223
000230 3a 64 99 ef 91 4b a1 3f 5f 63 34 0f d4 7b e2 bf
       0.033779678819606265 -0.5776157662358904
000240 89 9c ce 81 d6 a2 dd 3f 57 b0 f6 be 1d c8 e6 bf
       0.463063837780688 -0.7119282464750637
000250 b8 7f 9a 8c ea a3 d9 bf 68 1b 14 d0 31 cd c2 bd
       -0.40062965136348394 -3.4199804455259645e-11
000260 e2 21 84 bc 10 be b4 bd ab bb 02 32 1b f1 50 95
       -1.886514189851612e-11 -5.276951090880446e-206
000270 e2 90 f5 8b ce fe ca 9a a4 a7 50 22 6f 27 84 3d
       -1.3011320817888945e-179 2.291249020450184e-12
000280 b1 a5 5b 8f 6f f8 dd 39 42 75 aa ac 51 93 c5 a2
       5.910629526975435e-30 -3.538605977962398e-141
000290 36 e6 96 7d 14 40 c9 3f 91 fd 2a 96 21 d2 a3 3f
       0.1972680676679361 0.03871254881004938
0002a0 bd d3 df 34 3b d4 b0 bf 33 1f 16 57 56 82 b2 3f
       -0.06573839226605478 0.0723012888539614
0002b0 d8 f0 c8 8b 75 be 93 bf 45 0a 3d 8d d0 b8 c8 bf
       -0.019281231552881944 -0.1931400956764994
0002c0 8b eb 96 06 fd 46 e5 bf cb 51 a2 c9 13 5c a7 bf
       -0.6649155739499845 -0.04562436901429442
0002d0 8c 0a e5 4a d2 9f d9 3f 96 08 0c 51 4a 0d 43 1c
       0.4003797274964789 1.5406043994345266e-172
0002e0 62 40 75 29 30 a6 a7 3e 8f 01 bd 7b 73 63 db 3f
       7.04800259857332e-07 0.4279450138456235
0002f0 ad 13 f1 01 bc 94 50 20 dd 4b 9f ef 8b 2b f2 3f
       4.946668047369459e-153 1.1356315002674287
000300 71 9f 9c 90 10 46 38 bd 89 b7 05 5d 09 62 e9 3b
       -8.623747142223848e-14 4.300039900035902e-20
000310 f5 5d 22 cc 21 3f d4 be 55 63 db 1a 9c 85 aa 3d
       -4.827167858454774e-06 1.2060769778097332e-11
000320 ba 42 68 03 78 db 44 be ff f4 e3 b4 65 9e 70 3e
       -9.712437171384929e-09 6.190962873252761e-08
000330 38 2e 36 3c 4f 9f e7 bd 6b 86 a8 06 13 9e b7 be
       -1.7187487380018512e-10 -1.4077113755856667e-06
000340 f5 3f ed e8 41 a0 22 39 36 3a da 7d d5 95 74 b9
       1.7936191065606372e-33 -6.343331880841568e-32
000350 4f 9d f8 ad ac 3c 8f 3e b7 ba 9e 33 5a 1a d7 be
       2.327338597268415e-07 -5.508169857933418e-06
000360 ff 0a ae 58 b5 b9 c2 bd 4e df 28 9c db 7b c3 3e
       -3.4061346698857207e-11 2.3226523080641738e-06
000370 57 ff 93 b6 62 ce 9f 3e 26 41 3b 83 23 53 bd 3e
       4.7394921993958665e-07 1.7478919404519745e-06
000380 ba be 9b 04 77 ec 57 3e 98 96 b0 eb 96 c0 91 be
       2.2280673562157183e-08 -2.645299265767046e-07
000390 03 03 a9 6e 72 46 8f bd f5 b4 fc e9 9d 0d 49 be
       -3.5555767223985604e-12 -1.1666301091482372e-08
0003a0 e2 7f a0 ef 02 03 b3 3d 8d 4e f6 6b de c3 5a 3a
       1.7291098220500715e-11 1.3512928628830851e-27
0003b0 db 13 50 84 ed bb 3e b9 7d f0 1a 8a ef 5d 34 bd
       -5.91917099634747e-33 -7.23578933030184e-14
0003c0 ec ca c1 19 60 62 73 bd c3 b8 43 2c bc df 60 3e
       -1.1018686836329715e-12 3.143020913138206e-08
0003d0 45 a3 64 60 da f2 54 39 eb 98 de 26 e0 87 aa 3d
       1.6138248819158934e-32 1.206479466216205e-11
0003e0 83 ca 31 b4 34 2b 14 2e c9 55 73 e5 0c c1 bb bd
       1.0138664087495722e-86 -2.5242209659869285e-11
0003f0 dc f1 d5 bd 3e bc 71 be 15 e3 03 36 e4 b5 11 bf
       -6.606926158075271e-08 -6.756024732003055e-05
000400 91 64 46 84 e6 34 34 1a 41 ed 47 5c 5c 91 d6 be
       1.9022026929881118e-182 -5.380586518995244e-06
000410 76 74 51 75 c6 74 24 a6 79 5f c3 eb f4 e5 88 bd
       -6.043879212861166e-125 -2.830605404496007e-12
000420 8b 68 82 71 37 9e 0a 3e df 8a c5 d7 37 4a a1 3d
       7.746867340490677e-10 7.862542858852523e-12
000430 e2 25 97 fb e6 7d a5 3d 41 ac b9 32 df 04 7d a6
       9.773341738510724e-12 -2.7436246043705997e-123
000440 db a8 4c f4 be 1c e4 13 29 95 e2 59 b3 8f 8f 13
       7.467832516791998e-213 1.8310845673544158e-214
000450 25 02 35 4b 9f bb 8c 9b 41 42 ab be 2d 5d 50 3e
       -5.672467251054911e-176 1.5240143295623937e-08
000460 b6 06 c3 6f 7a 12 e9 be da 0a 44 e5 0d 35 e3 be
       -1.1955347411055219e-05 -9.158727302343282e-06
000470 53 56 6e 96 d0 02 97 3d af 6d 72 e3 51 dc 04 3e
       5.23209457572002e-12 6.071240792170538e-10
000480 f2 b9 3b d5 f2 d2 b8 bd d7 9d b1 98 49 ef 68 be
       -2.2577312699148557e-11 -4.6444529188540106e-08
000490 d6 fa f3 f6 1a 71 ff 24 14 4b a4 86 1f 34 91 20
       1.7718605377840824e-130 8.21186276539843e-152
0004a0 62 d2 76 5a a8 be 58 1d e0 66 18 13 79 8e fb 93
       2.6226817952291603e-167 -2.0463865700348674e-212
0004b0 1b f3 27 fc 54 61 52 19 07 dd 87 19 a3 7d b6 26
       1.0560707182309502e-186 3.4022489798443575e-122
0004c0 3e bc a1 20 ea e4 a8 1e 17 df ee 6f 77 9b 2c a8
       5.533379530819364e-161 -3.630182061674862e-115
0004d0 19 3a 06 a3 a6 5e 93 99 9c d9 ad e0 c4 66 80 bd
       -1.7806815159913715e-185 -1.864628031236668e-12
0004e0 73 69 3c 5f 3a 47 9a 3d b8 a2 7e 31 c0 cd e6 23
       5.9749787479342155e-12 9.804321580120712e-136
0004f0 4b 48 1c 32 82 80 c1 bd fc de ad f7 cf 78 b0 2d
       -3.183592821987144e-11 1.2937953790531168e-88
000500 d6 0a 27 92 d5 65 45 2a 0c 4f fd 09 6d 3f 45 be
       4.66487965901858e-105 -9.894258134731865e-09
000510 82 6f 5f 9c a3 9e 5c ae 05 80 8d f5 97 f6 6f be
       -2.3018979937289657e-85 -5.953620413920276e-08
000520 ba 1f a0 0c df 07 4b bd 98 3e e3 0a 78 f1 8b 3e
       -1.9206501074008339e-13 2.0819334651264126e-07
000530 80 c1 2a f9 2f 81 9f 3e 58 82 43 e8 40 f8 58 2c
       4.6945569313462616e-07 4.6760097297557476e-95
000540 dc b7 15 7e aa 48 bf 96 43 ed ef ea 8d b7 0d 9b
       -4.086985481456236e-199 -2.291699548966548e-178
000550 96 04 c9 a4 04 0f b3 32 df 38 bf 0f cc e0 96 be
       1.809728409206332e-64 -3.4091046052516697e-07
000560 5b 0f d9 ff 79 91 c7 3e c1 b8 f4 80 78 97 53 be
       2.809556461954021e-06 -1.824617617862368e-08
000570 8c fb 6b 88 ce 87 70 3e e3 66 c4 04 f0 c6 c1 3d
       6.158089336723173e-08 3.233635633209262e-11
000580 21 f8 91 27 05 5d 9d 3e 09 46 3c 86 ed 14 55 be
       4.3754815910030267e-07 -1.96339090671984e-08
000590 8a 16 b0 79 cb be 76 a6 92 3b c0 b7 f5 eb 58 2d
       -2.1504696048056392e-123 3.05857608742053e-90
0005a0 65 f8 02 6b 8c 89 fa 26 b2 63 40 11 32 40 40 a4
       6.42300806267193e-121 -4.471628553768332e-134
0005b0 15 2f e8 8a 42 bb 30 16 02 86 8e 72 f4 02 df 21
       8.5384173537977e-202 1.5521921235008617e-145
0005c0 bd 7e 75 d2 2a aa cd a5 0b f1 0b 2d 1a 44 b8 ab
       -1.3694684386588983e-126 -4.437721590589453e-98
0005d0 29 62 33 d4 8c b5 e9 1d d3 7a f2 4f 18 9a 1f be
       1.3951490496330934e-164 -1.8394746279903432e-09
0005e0 1f d2 38 cd 8c 09 c4 3d 81 15 c0 96 c8 72 59 26
       3.64476449479308e-11 6.015085721912168e-124
0005f0 c7 2f cd c0 2e 0f 9f bc 9f a5 b5 b7 77 72 6a ae
       -1.0775861850804427e-16 -4.254317885770272e-85
000600 5c 8a 6a 6a b1 f2 91 3f d9 77 29 25 88 43 88 ba
       0.017527362938049115 -9.800069224009452e-27
000610 05 cf ed 02 33 fa b7 bf 5e 15 39 c6 b4 3e c0 38
       -0.09366148778445556 2.444267792817435e-35
000620 b7 d4 7a d6 5c b2 56 38 dd 18 d5 a4 43 cd 74 11
       2.6679876830479334e-37 1.4049615531179794e-224
000630 42 6d 13 ea ed b1 33 bf 48 91 57 fb b7 ac a0 bf
       -0.00030052240806606814 -0.03256773894443882
000640 69 96 10 e9 fb 25 9e 3f 1f e5 26 bf 16 83 aa 3f
       0.029441772556444343 0.05178137858770015
000650 72 85 0a f7 4a dd 90 3f 5e 74 a9 b0 5c 51 5a b8
       0.016469165161315975 -3.093644942769562e-37
000660 2c ce 83 3e ff 1a 08 3f d6 0d 00 00 00 00 00 00
       4.597751086690376e-05 1.75e-320
000670 a8 ec e1 ea f2 95 77 15 c4 fc 4e c8 a5 d2 80 3e
       2.938545593574563e-205 1.253399412297826e-07
000680 65 77 eb 89 6b b2 fa bb f1 6a c2 3f 94 0b df a7
       -9.04527965220246e-20 -1.2311092222848662e-116
000690 e3 25 fe c6 a0 3f ea 3f 07 f2 95 49 dd e5 d1 3f
       0.8202670942857221 0.27965480981927765
0006a0 b8 c8 09 11 75 7d da 3f b2 55 a9 05 6d 3e b2 3f
       0.41390730537308285 0.07126504314631779
0006b0 94 6d 9d 72 78 40 92 bf 31 56 a4 92 25 6b e8 3f
       -0.017824060435811598 0.7630794395542521
0006c0 63 ae 53 fa 64 15 d3 bf 3d 1d 30 06 52 a0 eb 3f
       -0.29818081327423424 0.8633203621729205
0006d0 a3 72 d4 02 10 fc 91 3f c7 dc c9 43 07 53 f0 a2
       0.01756310479423696 -2.1418910899522853e-140
0006e0 5e 33 44 cd fc ba 3c 3d 23 22 aa 0b 40 7b aa bf
       1.0207095595289364e-13 -0.05172157423391279
0006f0 11 e4 05 e5 32 da 70 1a 75 32 31 38 4e bd a6 bf
       2.538299171695986e-181 -0.04441303668918276
000700 78 f0 c9 02 c6 d6 c1 3f ab f9 c9 3c b2 1d ef bd
       0.13936686645672913 -2.263987039460178e-10
000710 99 a6 5e 93 57 e5 d9 3f ab 8a 69 1c 16 1f 70 b9
       0.4046229304463878 -4.967799515657721e-32
000720 f0 3b 4c e6 12 d7 31 bb 42 9c fc 2e e2 5d eb 91
       -1.4757011427473678e-23 -2.365898782184773e-222
000730 f0 69 b9 67 94 01 86 3f 5a 6a f9 04 b5 b2 d2 3f
       0.010745200553334805 0.29215741620797575
000740 77 c1 d1 59 c3 9c c5 bf 6f b3 93 a1 43 78 b0 bf
       -0.1688465298243604 -0.06433508581876678
000750 02 cc 1e 33 f0 39 c7 3f c3 33 67 d6 8d f0 0d 39
       0.18145563598736208 7.207711992494026e-34
000760 37 05 13 2f ac 9d a6 be 30 3a 00 00 00 00 00 00
       -6.740065982212299e-07 7.3596e-320
000770 58 dd e1 f5 15 3a c2 92 19 91 46 ba 29 d7 fa bb
       -2.581700778651105e-218 -9.093908509001756e-20
000780 6e ba b6 65 46 08 91 b1 4c fd 0a a0 d3 91 39 26
       -6.169570468845384e-70 1.5109369398750568e-124
000790 3c cc 54 b4 d3 b7 cf bf 37 4c 99 a0 ea 25 b0 3f
       -0.2477974539302482 0.06307856007451638
0007a0 a7 6e 1a 25 3a 8a df 3f ef a4 0b 66 05 34 c3 3f
       0.49281171439518306 0.15002505762757987
0007b0 42 0d b8 8f 6f 77 b8 bf 71 dc 6a a9 e7 29 c0 3f
       -0.09557244547618374 0.126278836940148
0007c0 ac f1 c6 65 9c 65 c3 3f a8 44 9d 10 ea 6a cf 3f
       0.15153841943346202 0.24545026599165465
0007d0 6c 57 a9 89 9c 94 b4 bf 31 02 1c a3 ca d2 9c 0c
       -0.08039263115764833 6.4412307576059134e-248
0007e0 ea cb b5 5f 97 a0 be 3e a4 c4 86 e4 5d 83 d8 3f
       1.8255299199770389e-06 0.38301799122843705
0007f0 97 af f2 c8 3c 81 b8 91 f8 d4 8c d4 1e ab db 3f
       -2.648103690300576e-223 0.43231936222885237

conv_layers.1.lin_l.bias f8 [32]
000000 f4 78 42 b5 12 ef 8f 3e bd e9 b6 ff 2b d5 e0 3d
       2.3792594084233536e-07 1.224740307931051e-10
000010 6e c6 9f 82 cb 14 ad be 0f 35 57 d8 a0 90 fd 3d
       -8.666882014269844e-07 4.3022670872098816e-10
000020 69 da b9 b5 50 c0 4b 3e 2a 0d 9c 08 4d f7 32 3e
       1.29226742008878e-08 4.415870455542701e-09
000030 85 6f a0 d8 1a 57 92 be f9 8c 7e 51 d3 cd e4 3d
       -2.7329107210745254e-07 1.513690637652565e-10
000040 cc e0 6d b3 cc ed 84 3d 58 59 36 63 6a 76 f3 be
       2.3793409966155146e-12 -1.8560944409517832e-05
000050 6e 94 6b 67 f2 33 fc 3d 91 47 17 30 71 82 01 3f
       4.104064652533185e-10 3.339679643556062e-05
000060 fe 0b b3 03 66 93 67 be ed 91 e6 14 e6 a5 30 3e
       -4.3913303626674975e-08 3.8761743384555535e-09
000070 25 d7 c4 14 64 a4 78 3e 3e 27 ea d5 72 c7 77 bd
       9.179917021404812e-08 -1.3516851141878603e-12
000080 88 7f a7 17 f1 61 dc be fc 67 8a 62 e3 0c f0 3e
       -6.766935593621635e-06 1.5306801432225778e-05
000090 db bb 7b da 73 8c dc be 3d 86 30 a1 77 f5 50 be
       -6.806526847687667e-06 -1.5794166041113628e-08
0000a0 70 87 d0 99 5e 67 1b 3f bb 37 46 33 a5 68 73 3e
       0.00010453715226835052 7.230330540381755e-08
0000b0 db 76 2c d7 bf f5 b5 3d d5 06 be a0 3b 3e 06 3f
       1.997246591059794e-11 4.242534131916406e-05
0000c0 12 36 40 c4 d4 a0 90 3e 85 90 84 53 ff d3 ab be
       2.477801823726589e-07 -8.293424463052016e-07
0000d0 14 fb 30 c0 28 9e b3 be ba 00 5d d8 da 44 51 3e
       -1.1693125550185753e-06 1.6082976304248727e-08
0000e0 a8 d5 78 b4 53 97 19 be 65 f5 06 87 80 9b c7 3d
       -1.4895992927755138e-09 4.2941664875338053e-11
0000f0 f7 58 45 b5 8b 15 9d 3e c9 11 16 71 14 07 8a bd
       4.3338780144254296e-07 -2.959001866002445e-12

conv_layers.1.lin_r.weight f8 [32, 32]
000000 cb 04 3e 96 2b bf 79 bf 75 22 b8 a5 56 56 4e bf
       -0.006285829793229068 -0.0009258196909636822
000010 e2 ab f1 a6 52 8a ae 3f 39 8b 4b 90 d5 a1 d0 21
       0.05964906967059115 8.324744082048848e-146
000020 82 95 63 de 18 9c 63 b5 26 96 4c af ea bc 91 3e
       -1.6378831159764394e-51 2.6431614168413205e-07
000030 03 dc 98 36 5d 83 c9 bf 31 be 99 6e 61 c6 cf 3f
       -0.1993214146220624 0.2482415952722348
000040 00 dc f5 d6 8c 9f c5 bf 06 af cb 97 e7 a7 9e bf
       -0.1689315843211432 -0.02993738044726426
000050 b6 e4 b3 c9 82 fd ad 3f 67 aa be b3 57 a6 ad b5
       0.058574759599602386 -3.962343711433764e-50
000060 a2 c1 42 a2 8c fa f0 3d ec 8c a3 cf 74 b9 c0 8c
       2.470727253525421e-10 -2.989958208949286e-247
000070 59 3e 90 49 d0 7c e2 a3 53 9c 4a cb c0 62 fc 3c
       -7.948613889022038e-136 6.302903600067141e-15
000080 29 c3 7b fd c9 72 84 b2 24 77 1d 7c 34 04 19 38
       -2.427113955718046e-65 1.837916704385096e-38
000090 e1 18 cf d5 f2 9d bb bf c2 fe 66 f3 16 9b de 3f
       -0.10787885398812903 0.47821592111357003
0000a0 ad f7 a5 f9 98 88 cf 3f bb 53 2f 29 7e 63 d6 3f
       0.24635612668856535 0.34982255956611724
0000b0 3c 64 9a 39 d6 c6 83 bf ce bf b7 2c 08 84 d7 3f
       -0.009656594880015239 0.3674335896203019
0000c0 ff 19 6b 29 0f c7 bf bf 71 e2 22 0b 4d d5 cc 3f
       -0.12413115273657381 0.22525942844164917
0000d0 5e d3 4c d8 fe d6 d0 3f f0 de 53 4d ca 3e bb 18
       0.263122283201758 1.5287410460721564e-189
0000e0 74 bd 04 d1 c5 ca 2c bf 64 b6 43 7d 49 35 e7 3f
       -0.00021966614486633072 0.7252547689983655
0000f0 c2 8b 04 63 fc d6 e1 16 37 70 14 3d 2e c1 b9 3f
       1.864500783660539e-198 0.10060395232397999
000100 ed 61 c7 98 a5 fe b6 3f ec 50 e8 bf 3f 59 50 bf
       0.08982310275985812 -0.0009978411250176024
000110 7d 0e c0 82 a0 1b cb bf 31 ec 6a c7 2e 20 49 3d
       -0.21178060898101939 1.785289341463855e-13
000120 dc aa 21 41 a1 8f 11 b5 b5 aa e7 6c ce ea 1b 3e
       -4.583649042726076e-53 1.6249956273117363e-09
000130 13 ed 6c ad af a0 b3 3f fd 90 5a d7 f0 0c e5 bf
       0.07667062744160473 -0.6578296857956328
000140 7a 5d 4e f1 42 96 a3 3f 53 67 04 a5 ed 15 9a bf
       0.03825577922469399 -0.025474274823046383
000150 68 e2 e3 18 a4 df 90 3f 54 ee 53 ef 8e 59 70 b5
       0.01647812272946894 -2.731204253285032e-51
000160 ed b0 ec 8f 99 b2 35 3e 17 ad f2 53 68 52 82 03
       5.0518791361944076e-09 9.180045282291021e-292
000170 fb ba 28 3b 04 e5 15 19 d9 57 ef 15 41 71 7d 3c
       7.86248168112084e-188 2.553721069566922e-17
000180 82 d5 ee 0c 10 bc b1 30 59 7c 9a fa d6 b2 b9 39
       3.920874670493435e-74 1.2670384495815909e-30
000190 79 90 16 99 7d 17 d1 bf c7 05 28 db 8d 28 c3 bf
       -0.2670587534905802 -0.1496751136874492
0001a0 b4 23 1f 2a a4 1e e0 bf c6 75 c7 1e e3 63 99 bf
       -0.503740389126611 -0.02479510188446967
0001b0 76 59 82 e1 51 58 92 3f d2 2c 55 cc 63 25 c6 3f
       0.017915038479793442 0.1730160472601257
0001c0 a2 91 01 21 1b c0 ba bf de 63 3b 53 d7 e4 f1 3f
       -0.10449380451024706 1.118369412541362
0001d0 18 4a 5f da f2 bd a7 bf c6 9c 78 20 5d 01 8b 8e
       -0.046371068150296846 -1.2959937036561142e-238
0001e0 26 ee ff 53 8b 12 cc bc ad ec c8 38 eb 99 b0 3f
       -7.791666889038099e-16 0.06484861503934054
0001f0 a6 1f a9 0e 90 18 a8 99 c1 08 17 70 15 f8 e8 3f
       -4.4303363105614366e-185 0.7802836598641748
000200 9d 05 d1 f9 cd 16 d1 bf 49 8f 7d 7f 8c 01 96 3f
       -0.26701688190595424 0.021490283280754672
000210 ba a2 9e d5 b8 7f e1 bf a4 1f 10 da c9 51 ae a1
       -0.5468410656222524 -1.8969415907539802e-146
000220 10 79 20 33 b1 53 45 b5 17 37 98 ba 0a 28 d2 bd
       -4.453269227213337e-52 -6.605264828902333e-11
000230 a9 2b db d1 46 15 6d 3f ef e0 a8 f3 8c 10 e4 bf
       0.0035501845548870548 -0.6270203360536736
000240 c1 b4 94 00 70 02 e9 3f 02 54 87 05 16 57 a5 bf
       0.7815475474686978 -0.04168003861892801
000250 73 f1 b7 22 c2 b9 d7 bf a0 ed b7 d8 d8 b0 7e 35
       -0.37071278944474456 5.126831920451884e-51
000260 6f 32 14 3a 7f 77 27 be 8d 37 ed 6c d8 47 43 10
       -2.731893337096881e-09 2.483790203359e-230
000270 20 71 b1 09 4f e1 02 a8 fe 7f 99 08 e3 e7 12 bc
       -5.989578353569753e-116 -2.562214764316939e-19
000280 9e b3 2b 0f a4 76 f6 32 ff a2 9d 83 1a bc 39 ba
       3.4128499896439497e-63 -3.2481858415930603e-28
000290 59 eb 7d 94 3c 9f db bf c1 f0 5a c3 60 fd b3 bf
       -0.431594033252329 -0.0780849911633963
0002a0 03 84 cd bb 01 58 c3 bf 87 d8 81 1e 05 70 d8 bf
       -0.1511232535367811 -0.38183715800494905
0002b0 63 e2 33 0b 0b 8e 4c 3f 34 da d1 77 1d 04 d9 3f
       0.000871425049267915 0.39087616635461875
0002c0 e2 fa 2a c3 b1 1c ea bf b6 85 b9 1a 87 6d c4 3f
       -0.8160027324555268 0.15959252171437094
0002d0 db 72 ef 56 ed 00 ea 3f 66 1b 2c 8d df 6d f7 17
       0.8126131723361952 3.2095201803820816e-193
0002e0 44 e0 4e 25 b5 6c e3 3e 41 a8 88 0e db c8 c7 bf
       9.262389690664734e-06 -0.18581712922724772
0002f0 b9 b6 3b 39 ba 37 98 9c c6 7a 55 1f 7d 34 da bf
       -6.266645142372814e-171 -0.4094536596293604
000300 47 d4 49 44 dd ab 24 3e 4a b9 a9 e1 c6 ff 0d 38
       2.4064612822477193e-09 1.1019939378671351e-38
000310 41 4f 92 33 cb b9 0b bf 99 98 d6 e9 eb 4b aa bd
       -5.288268443695436e-05 -1.1958294864269403e-11
000320 f2 f2 3c 3b 5a bf 8d 3e da c0 9f 86 ef 87 8c 3e
       2.2163592705041515e-07 2.1257250476482367e-07
000330 2a 5c 07 c6 7a 0d ff 38 2b 86 cc 65 73 aa 13 bf
       3.7378273372717736e-34 -7.501916247722926e-05
000340 38 e1 3b 78 55 e9 25 bf 5a 70 bb e2 90 a9 60 b9
       -0.00016717117625098823 -2.5672441285829026e-32
000350 50 28 4d b5 c5 d6 91 3e f4 33 67 47 97 de 41 3e
       2.658211333729422e-07 8.3211324331849e-09
000360 03 d8 9c 48 4b 91 f0 be 89 1b cc 8a e9 86 8f bd
       -1.5800051676971582e-05 -3.5842050545869638e-12
000370 8a 5e ae 09 4a c7 d4 3e 69 55 06 78 bd 19 42 be
       4.953974122388588e-06 -8.428724163754307e-09
000380 55 0b 93 6e f7 43 e6 be 1e e8 36 f8 86 0b c9 bd
       -1.0617015009711158e-05 -4.555664094818029e-11
000390 51 6e 08 4f 0b 08 52 be f4 32 a4 6e fd 82 d1 be
       -1.6793070880146327e-08 -4.175109760373665e-06
0003a0 7d e8 08 91 c5 24 7c 39 b0 93 00 64 0a 8a dd bd
       8.672428528020495e-32 -1.0746306015240197e-10
0003b0 d7 22 9e d8 d5 01 c2 b8 53 f4 52 fe be 92 12 be
       -2.7094176981818966e-35 -1.0811040893206357e-09
0003c0 cb 27 e7 e4 b4 78 a5 be 02 c2 d2 31 a6 d8 2f 3e
       -6.399008698973158e-07 3.7073956253802e-09
0003d0 6f 98 5f 8a 7a cf d2 be 4b e9 fe 29 da dd c2 3e
       -4.484763996592558e-06 2.2490751944967774e-06
0003e0 33 81 3c 65 0a eb 43 2e 13 23 59 4c 5b fc d2 bc
       8.010133415779054e-86 -1.0539218442690855e-15
0003f0 55 3e 9b c0 02 1e cd 3d 6c 11 5e c8 8d 52 87 3e
       5.2963931917138984e-11 1.73765986651843e-07
000400 13 bd 4d b0 fe 3f 53 30 fa 68 9d 5e a7 0a 71 3d
       6.649842875357881e-76 9.687037366609237e-13
000410 4e 56 e0 86 6c 51 da 2d 07 68 83 49 d9 54 b7 bd
       8.268660950668169e-88 -2.1219821554915195e-11
000420 07 d3 2b 49 7c cd 4b be 7a fd 47 6a 6b 71 d1 3d
       -1.2946630688936666e-08 6.345742904262277e-11
000430 1d ed da f3 ce f0 cb be 6c 5f bf cb 58 14 d7 2a
       -3.330785971337353e-06 2.5761283733717592e-102
000440 bf f3 79 13 41 6b 14 2e 5b f6 4b 16 eb e4 72 15
       1.0264431780614911e-86 2.3540286986351466e-205
000450 66 84 6b 2a d8 50 02 aa fd dc 53 ac 98 7d d3 be
       -2.4956138924569395e-106 -4.646923746457656e-06
000460 0f c7 66 f4 17 f7 25 3e f3 64 8f 09 8e 3f d8 be
       2.557086906117798e-09 -5.781235949486559e-06
000470 1d 20 71 c0 ac ee 7c bd 68 fc b4 f7 cc fb b8 bd
       -1.6446121823122221e-12 -2.2722448472864096e-11
000480 75 e7 a5 78 10 39 e9 3e 9a 79 56 d6 70 a8 01 3e
       1.2027219572930307e-05 5.13914616310009e-10
000490 62 eb 27 fd f6 41 62 25 5a 32 73 0e 9c 26 14 ad
       1.316974397642291e-128 -1.545660196242596e-91
0004a0 68 a6 af 54 d4 14 64 2e b2 ae 17 27 57 07 82 23
       3.230311948572841e-85 1.211143955932535e-137
0004b0 c2 ee 11 4d 31 de 2e 95 80 3c 90 93 d7 cc 80 a2
       -1.2018233338677866e-206 -1.7221286508460955e-142
0004c0 0f 88 26 14 16 78 82 a8 2a 42 9f 78 33 ae 6c 25
       -1.4999509864440242e-113 2.068798382201389e-128
0004d0 57 90 44 b7 08 3e 17 af 02 04 66 67 37 78 cc bd
       -7.657035728342937e-82 -5.178589234934265e-11
0004e0 7e 70 9c df 88 04 2b 3f 86 e6 9c f2 67 e6 15 1c
       0.00020612879580362073 2.213640487147128e-173
0004f0 54 bd 08 14 9a bf 92 3d 09 3d e4 92 5b 70 cb 30
       4.2629028024847136e-12 1.2132707435204547e-73
000500 8c ff 2b 83 dd 4d e7 31 15 e4 c2 7f eb aa 7c bd
       2.7012480714156954e-68 -1.6295675738204044e-12
000510 0f 9a bd b6 0d a4 ec ae fb e0 c5 2f ba 8f c1 bd
       -1.1794427499638096e-82 -3.1944063689036165e-11
000520 7e f8 c0 17 fa 6e 22 be df f7 34 90 43 c4 36 bf
       -2.145942255517228e-09 -0.00034739160055951944
000530 97 7a 88 10 ea 39 93 3e 8f e5 7e c4 97 a7 f8 a8
       2.8649311947958773e-07 -2.562952885424941e-111
000540 cd 5e 09 ec 03 f3 83 2f 58 06 db 58 e4 5e 1f 96
       8.412369751029003e-80 -4.0022733002061046e-202
000550 fd 48 c0 da 95 9c c5 2e f9 b6 fc c1 f3 f9 64 bd
       2.2249454536117177e-83 -5.961844549994556e-13
000560 99 81 61 17 66 be 3c be 60 cf 2e 05 06 bc 1e be
       -6.692424716915387e-09 -1.7889814254394974e-09
000570 8e ec 3d 7c 86 ba 1a 3e 93 9b 4d 34 ff d7 3d 3e
       1.5558101343414829e-09 6.9485366946835814e-09
000580 71 e2 af cc 0b 44 89 be 49 f8 99 f1 65 bd d5 3d
       -1.8824491684867838e-07 7.908906550533577e-11
000590 86 22 b9 6f d3 46 a5 29 66 cd 5c 1e 27 d3 88 2a
       4.529758991762294e-108 8.659195337444224e-104
0005a0 5d 59 ea 51 03 fa e4 b3 6c 8e 52 1a 45 37 6b 25
       -1.0443022733252936e-58 1.9631547337280363e-128
0005b0 5c 35 d1 4c e1 15 46 1f 34 6a 65 48 2e 05 da 27
       5.0268845651103106e-158 1.0318413951654634e-116
0005c0 35 24 da 6c 9b e0 c5 2d 36 e8 31 78 b3 12 40 aa
       3.4367379827646626e-88 -3.5040463672747724e-105
0005d0 2f c3 7a 0f 38 ee 7a 2e cc 53 9b 5a db 58 5d be
       8.664157535611203e-85 -2.7331614005740434e-08
0005e0 a4 5c ce 08 1b 30 50 be bf f8 71 2a 9c c8 04 a5
       -1.5076168358502178e-08 -2.342466286316788e-130
0005f0 08 75 d1 b6 e3 48 15 bd f5 68 c0 b9 2a 0a 31 36
       -1.8904633096222217e-14 1.1659045741418378e-47
000600 3d 01 d3 2f 78 0c a8 bf c4 bc 9a 5c 5d c6 81 be
       -0.04697013458053554 -1.324330425786803e-07
000610 59 16 84 bf aa 0c c8 bf 2e 49 3d 8b 93 2c 1a bb
       -0.1878865656982949 -5.412682465010673e-24
000620 c2 1f 25 e4 83 f8 34 35 70 f0 be 36 c8 91 b7 bd
       2.1894497638037824e-52 -2.14363001495438e-11
000630 aa 2a 8b b2 4b cb 5b 3f d0 74 24 20 97 62 d0 bf
       0.0016964186890386181 -0.25601747645289397
000640 a1 f0 74 cf 96 1a ce bf 70 11 4a f6 8e 52 c2 3f
       -0.23518643502928163 0.143144483812772
000650 cb 8b 27 d5 b5 6e c4 bf 61 bb e3 39 54 eb 56 35
       -0.15962860973294676 9.571527048309888e-52
000660 7b 0a c1 36 0e c6 47 3f 69 4e d1 c7 9c 0e 12 84
       0.0007255143550611432 -4.632246780357189e-289
000670 7c 77 80 08 ab ee 17 1e 80 56 49 f3 ea 84 08 bc
       1.0389789673677082e-163 -1.66148630075792e-19
000680 10 6c 7f 95 7d dd 57 b0 12 89 fc 91 f9 17 bc 3d
       -8.244154731669405e-76 2.5551027547360756e-11
000690 60 c1 4c 96 05 97 d8 bf 76 d3 78 54 e0 fc e1 bf
       -0.3842176406642661 -0.562118687614755
0006a0 45 91 46 f0 43 0b b3 bf 9a 4a 95 7c 6b 4d a9 3f
       -0.07439064613442266 0.049418791730791514
0006b0 fb 72 8c 08 6f b3 30 bf 89 de 5d 9e a7 b6 c3 bf
       -0.0002548357083911737 -0.1540116809153356
0006c0 4a e9 cc 2d 7e 28 71 3f d2 d3 5a 72 9e c3 c5 bf
       0.0041890076507178995 -0.1700323160527249
0006d0 78 99 c9 76 9f f7 d0 3f bc d8 52 82 0b cb 36 9c
       0.2651137027773056 -9.215666262140175e-173
0006e0 44 9a 4c b7 83 1c aa 3e 4e ac d0 3f d4 a9 e2 bf
       7.781799085990374e-07 -0.5832310911549798
0006f0 da 1c 56 f6 6b 11 31 17 67 5a d2 76 c9 76 d3 3f
       5.70830070507121e-197 0.30412518123322346
000700 6a 55 cf e3 bf 0d d1 3f 1d 89 0f e0 19 d0 2e bf
       0.26646420714435826 -0.00023508373126818966
000710 38 9f c2 1c 3b 5c d3 bf e5 98 b1 f4 9e 26 bb 21
       -0.3025043278562296 3.397392736186738e-146
000720 47 1e c1 1b bc c3 b0 b5 0b ef c6 59 a7 74 b8 bd
       -4.480780200976652e-50 -2.224231008668057e-11
000730 be e7 ed 5e e4 9a ba bf b2 ad 7c 30 04 e3 cd 3f
       -0.10392596547708785 0.23349048965006386
000740 e7 c2 94 5e 0a 71 c5 bf 1b d7 ba 7a 15 a9 b9 bf
       -0.1675122224637768 -0.10023626562437153
000750 e1 8e a7 fb 0c 70 c3 bf fa f5 9e fb 78 3d 97 b5
       -0.15185701644724417 -1.5528848028019175e-50
000760 e8 db 1b 6c e7 12 e0 3e cd 71 ff 30 00 00 00 80
       7.664605962782623e-06 -4.061452714e-315
000770 cc c3 51 86 46 4d f0 92 d0 c2 99 ca 54 09 1b 3c
       -1.8472268321224368e-217 3.6641222369903655e-19
000780 2e df 98 41 65 c3 69 b1 99 c2 a8 6f 37 8f f2 b9
       -1.1665192448706679e-70 -1.4640816353863657e-29
000790 a0 73 29 8c ea 55 f9 3f 03 01 5a b7 41 76 d6 3f
       1.583475635058882 0.3509678164046052
0007a0 0b 8a 2f 26 e9 c3 a0 bf 80 3a 25 ca f7 f2 0c bf
       -0.03274468032011065 -5.521601385060238e-05
0007b0 fd 86 de 9c 5d 99 6a 3f 3c 93 da 3c 80 ff e1 3f
       0.0032469585775779506 0.5624390781928024
0007c0 fb 66 99 48 46 a2 d6 bf 73 ec 89 1d b8 7a a2 3f
       -0.3536544522263367 0.036092523198896574
0007d0 ad 77 b7 96 db 09 d5 3f 03 fd f1 65 39 d9 ee 89
       0.32872667044091025 -7.837332479406041e-261
0007e0 5e 29 b2 32 5a 79 c2 bc 79 0d 49 0f eb 04 b2 3f
       -5.12757407720425e-16 0.07038754580667285
0007f0 8f ed bd 7e 6c 7d 00 92 45 12 d6 57 ba 0e d9 3f
       -5.702327997106686e-222 0.391523919847064
