runs/sex_prediction_25k/model_best.ckpt (torch, 192502 bytes, 34 tensors)

input_encoder.0.weight f8 [16, 3]
0.12018484943434676 0.08921800105399856 -0.3905918446308446 -0.5279220180984869 0.5701931238274813 -0.5248386627840178 0.32343114484296703 -0.4303320094228129
-0.46698669257517783 -0.18009857050957304 -0.13454894099392406 0.18142319715662766 0.5758123994675953 0.20546184863482314 -0.0493120612050188 0.5600103563807304
0.37537538380439606 0.41060814846323285 0.45919092481104756 -0.05364219830876411 0.18898266848388753 -0.14600809000695514 0.08595033736441532 0.37743339584965757
0.45938031587419065 0.30097030430240757 0.18295914851576486 -0.07175625935079874 0.40295823491562305 0.4534813107255827 -0.4110103156120274 0.5316547823715831
-0.07385903376738763 0.26481374037477945 -0.06584140050638222 -0.008929413818969478 0.2905863692176033 0.2740515525019752 -0.15270988575122021 -0.43786420877441484
0.3423311744035018 0.3727839262437991 0.30862347742764373 0.03378115455077325 0.14772709593302985 -0.30010945637963693 0.4400423195111581 -0.5171912024353723
00000000: 7492 cb2d 6fc4 be3f 87cd bdac fdd6 b63f
00000010: ca85 b1ef 74ff d8bf 4448 52b7 bce4 e0bf
00000020: 90c7 67a6 053f e23f e8ad 8a73 7acb e0bf
00000030: bdef 668b 18b3 d43f 0426 b944 8f8a dbbf
00000040: 1dc4 1127 1ce3 ddbf 418e 324f 780d c7bf
00000050: 1ae2 a352 e638 c1bf 4301 4315 e038 c73f
00000060: 0b07 0b20 0e6d e23f 962b 3be8 924c ca3f
00000070: 380a 5934 6e3f a9bf 0873 c2d6 9aeb e13f
00000080: fc73 4a79 2606 d83f 83b9 4766 6747 da3f
00000090: 8dbd 2b55 6263 dd3f 89e7 d77e fd76 abbf
000000a0: ef15 5386 9530 c83f 8801 c4a1 64b0 c2bf
000000b0: d471 0f60 d700 b63f 8beb e566 de27 d83f
000000c0: 67c5 46b2 7c66 dd3f cef1 82f3 1843 d33f
000000d0: 2f8a b093 346b c73f dee9 3143 9e5e b2bf
000000e0: 8374 2756 11ca d93f 4978 ba79 d605 dd3f
000000f0: b2d3 f735 fe4d dabf c888 e1e3 5003 e13f
00000100: fd8a 8bf6 6ce8 b2bf 303b 9c54 b5f2 d03f
00000110: e9d2 e565 fbda b0bf f371 99a2 9549 82bf
00000120: befd 1c92 f798 d23f 267f da85 0f8a d13f
00000130: d3e7 895e ff8b c3bf 0f9a 319a f705 dcbf
00000140: 4cb7 9d03 c1e8 d53f 1043 ec1c b1db d73f
00000150: ec16 95af 7cc0 d33f f18b 0874 c34b a13f
00000160: 36f9 e1b2 b8e8 c23f 7cbc 174b fe34 d3bf
00000170: 9102 ca42 a729 dc3f 93a4 8790 d48c e0bf

input_encoder.0.bias f8 [16]
-0.4573938257066907 -0.17054649953328374 0.1823206214251775 0.5625652771758647 -0.4356394889240744 -0.2478040923509409 -0.3872210856957776 -0.25261580088642865
0.04690153471847373 0.3324616540670689 -0.09126306314763531 0.40298124561123994 0.18082414004442754 -0.24256357917522361 0.23206021863073656 0.2600744367111311
00000000: 275d b3c0 f045 ddbf 79ab f8ba 77d4 c5bf
00000010: 152a 3439 4856 c73f 88bc 6ae5 8800 e23f
00000020: 7b9a 7173 84e1 dbbf 2b2b 3b64 0bb8 cfbf
00000030: 7ca3 d8f2 3ac8 d8bf cea4 d076 db2a d0bf
00000040: d500 7f5b 7a03 a83f 9918 d93e 0d47 d53f
00000050: c747 8d1f 045d b7bf ba4d b3d9 71ca d93f
00000060: d2b8 e8d3 3e25 c73f b70f e1c7 520c cfbf
00000070: 285e dc34 26b4 cd3f a7cb 0c40 0fa5 d03f

gnn.conv_layers.0.c f8 [1]
0.058873701840639114
00000000: 0000 00a0 b124 ae3f

gnn.conv_layers.0.bias f8 [32]
-0.011368174018568248 -0.031642577309401135 -0.02247748438107706 0.28592994596985377 -0.07561010004393154 -0.09244259911644093 -0.040181725632351145 0.20314826361406696
0.020272270717905123 -0.04464846574742854 0.15180408094787376 -0.05797648956575668 0.07099345247137172 0.0788749329183066 -0.01418043905455519 -0.041062730530517115
-0.14507989811666905 0.21522778996533085 0.10602543008255365 -0.007859836014751289 0.027102512704387134 0.1293563940766163 -0.026180169104222033 -0.06552538240699254
-0.2995726299747552 -0.042688931565879815 0.08824531754240399 0.09223705441818393 0.12853889250674053 -0.0475352606041634 -0.06365222381360675 -0.01597067796769064
00000000: 75f9 ff7c 3248 87bf a2f9 68b5 7433 a0bf
00000010: 3397 4071 5604 97bf eecd b81d ad4c d23f
00000020: 009c effa 2e5b b3bf b85c f673 51aa b7bf
00000030: 04c0 f9fa b292 a4bf da15 3b26 c300 ca3f
00000040: d509 ff0e 41c2 943f f14f 67e8 29dc a6bf
00000050: a704 89ed 506e c33f e75d 3e2d 18af adbf
00000060: 6b3c 987c a02c b23f e8ba 5bc9 2531 b43f
00000070: 649e db4f a20a 8dbf 7f12 6d99 2c06 a5bf
00000080: e2ea db64 fa91 c2bf bbb4 8b8f 958c cb3f
00000090: 13b8 bf8a 7b24 bb3f 8e0d 1555 d118 80bf
000000a0: 82ae d1d6 c2c0 9b3f 0235 0b15 c08e c03f
000000b0: bbef 6c68 f9ce 9abf 0ef5 7e7e 45c6 b0bf
000000c0: 8c2b 21ae 322c d3bf 9e09 f4d9 52db a5bf
000000d0: 9ba8 dec0 3e97 b63f d599 34fc d89c b73f
000000e0: 274e ca61 f673 c03f b747 67ab 8a56 a8bf
000000f0: 6cdc 981b 834b b0bf 70c4 430e 9e5a 90bf

gnn.conv_layers.0.linear.weight f8 [32, 16]
0.41750008982079745 0.7507103274399728 0.4579062567179582 0.6315775968254186 0.17445839564607551 0.8174138431515238 0.5327409023676084 0.6279573106249178
0.15812129823852217 0.3910414651844629 0.5406310565244167 0.9711322301487721 0.2505310331640694 0.3991330854370048 0.24760276400659628 0.7959921219158865
0.9035000598782872 0.6463712344507143 0.6203787615460625 0.5920742892956108 0.951500078167943 0.9059037535280334 0.5796619344311114 0.1365290771706499
0.9819239620483842 0.37158026610734296 0.6431810975547909 0.7097549773387465 1.017506370396735 0.4870717541822161 0.3338543923427502 0.5053013973781992
0.7921143136240327 0.1808597078477146 0.5307457440427006 0.6634856774351497 0.3181387429905881 0.4439391057820562 0.7837233505998764 0.7166584035793041
0.2986945831510656 0.9952262138516708 0.8838071534442532 0.17406150909996035 0.650195464438873 0.8250237086898915 0.413412814221393 0.6656200344941771
0.503267218600698 0.47695353817391234 0.5213941741864455 0.04296154188375742 0.8614023826418024 0.886678095922774 0.5774210490528877 0.16198768284727802
0.4416200735530058 0.22934172802127323 -0.020544504229693165 0.5281198118672755 0.24670168598339953 0.9403030035244341 0.22879565171759433 0.08968685181555044
0.8538439157112846 0.6672127567307674 0.7511820842321043 0.7739567177451235 0.3746697772965255 0.63777757874572 0.38304493411708984 -0.019377767322870276
0.3135463844883655 0.3092879614153549 0.19543783639701745 0.5795010801975826 0.45124920656972023 0.576585087250024 0.3714066079706599 0.4767843271765703
0.32356313992127933 0.9003629218495449 0.12474484481774947 0.30385772356860385 0.6188890846189395 0.5771828829026557 0.45528431233652267 0.8679230286205274
0.09321011305095606 0.35574473568891263 0.8587879479252765 0.2049819740733755 0.774895048045214 0.9362971517873575 0.42073512674536967 0.7639674453656524
0.8010962381981307 0.11587718661777945 0.898548432954647 0.6708502821253866 0.7916880807046347 0.5924146863036918 0.9341028373018243 0.5392573484005783
0.6643626674462555 0.1774832695289728 0.4686323441595333 0.07203860947552872 0.7588867056270516 0.5265590624746822 0.9911888136206287 0.2909303929489464
0.7214015940508797 0.12184293230576204 0.28239370312325074 0.8553116633395043 0.6094703581468038 0.6092712880809241 0.8390146792312897 0.742201259628908
0.4199131005986426 -0.01226402519913005 0.4207291946651092 0.14828386965099213 0.9687400443054643 0.15692576265158725 0.05745159431937557 0.3669773060951953
0.3656501863831454 0.7281704732272903 0.437519218789176 0.6371314626870638 0.2787285983105602 0.5797271510701346 0.5618079160768048 0.6259751193062382
0.5677064706804215 0.8972508424304425 0.4434981296047364 0.331205971975822 0.48808924102805995 0.34569758901424635 0.6217578809925821 -0.012102381319293531
0.9549475276157627 0.197751593044919 0.07434546829235716 0.4980850666204762 0.3478610473254241 0.6012160721641711 0.58465429724167 0.18679232809146223
0.3868799246669402 0.3182643745425653 0.5847155890714337 0.2363725063947775 1.0207552467672387 0.7589367296626166 0.3963458868630066 0.24398996248771937
0.527216996077751 0.5834368786415187 0.5517145524256106 0.9472495793801562 0.3258793494597474 0.24777540965052608 0.7357478046825554 0.7283668380128562
0.21286199725617078 0.8465483434082554 0.29927846362788973 0.19480803440957722 0.8849336616687148 -0.03994511780087745 0.7852633988459339 0.2969717878467731
0.9327241599204033 0.5184641302731088 0.8311924766912177 0.39175429042347415 0.31508620791752795 0.1261941894034811 0.20064484161597948 0.8510616128502674
0.9207780069343048 0.11508242985694314 0.3516185091640417 0.6358847389100672 0.14926978018502135 0.19763276173372796 0.693242377838768 0.316611366952834
0.3130009605886069 0.5408385499917396 0.06233477501637939 0.6899264763454845 0.5202636631022736 0.4343831030416268 0.6137878690969056 0.7045987795404381
0.28601502619792685 0.1747978297773597 0.8847695969161522 0.125070316338896 0.33399110238290464 0.746137148112329 0.21192079059713625 0.39512332292455454
0.116246988468606 0.19901655419476702 0.24409048550487764 0.8775079890743164 0.0881963086634675 0.1290904790699541 0.472955010274613 0.6540957445512521
0.7610076374839697 0.5666673422181717 0.7060493356136432 0.39665655881924333 0.292965533291509 0.7136965597503355 0.9512795664677043 0.15039952939439497
0.5260116521034874 0.06842991789834978 0.5201894335559876 0.786980253545277 0.7857462131954296 0.8902219652112051 0.7410275053429919 0.8666794847691234
0.969766369795304 0.44705424566430757 0.4852757225360193 0.27934448085574926 0.619823953256434 0.3010602747610666 0.18699916364167038 0.09662590175039772
0.6998080117241998 0.4185228467423489 0.07357542596020893 0.5107073316677736 0.09574449551478295 1.0020718369571624 0.7319510699949472 0.8512528303294966
0.6859069422465324 0.12427619975886232 0.32819127169889795 0.9271542263901532 0.51443892156418 0.6529049177654652 0.23517954534871396 0.5037575318029549
00000000: 70df f64b 52b8 da3f e9f8 23aa d105 e83f
00000010: bd31 4f0b 564e dd3f d90b 6838 e235 e43f
00000020: c200 e817 a754 c63f 5f45 7413 4128 ea3f
00000030: 0e22 1da6 360c e13f 5d61 0dee 3918 e43f
00000040: 5c25 5e96 513d c43f 6038 16c8 d206 d93f
00000050: 712d 5f80 d94c e13f a293 12e6 8313 ef3f
00000060: 41a8 8450 b308 d03f 4d06 2d7f 658b d93f
00000070: 5f5d e786 72b1 cf3f 7a13 7078 c478 e93f
00000080: a68f 23f5 78e9 ec3f 994f 21ba 12af e43f
00000090: 7225 7f8f 24da e33f 8877 aac7 45f2 e23f
000000a0: a4ed bb4a b072 ee3f e23f 57de 29fd ec3f
000000b0: 5cc4 632f 978c e23f 0554 b3e8 c879 c13f
000000c0: 8002 05cd eb6b ef3f ee47 b198 f8c7 d73f
000000d0: 1ee7 6c86 f094 e43f fbfa fa11 50b6 e63f
000000e0: d235 85c2 b447 f03f 6926 c101 2f2c df3f
000000f0: 753c 2fd0 de5d d53f 5299 0bd6 6d2b e03f
00000100: bcad f61d 0059 e93f c25d 2f31 6926 c73f
00000110: 5ef2 a47f defb e03f 1359 be50 463b e53f
00000120: 4a0c 2f9a 625c d43f 6ef6 2f91 7f69 dc3f
00000130: 3004 fefd 4214 e93f 91da b89a ddee e63f
00000140: 5313 88e2 cf1d d33f acac 13a5 e4d8 ef3f
00000150: 0b72 80f0 2548 ec3f 7dd2 89c4 a547 c63f
00000160: 3eb8 f8b7 66ce e43f 48ed e71e 9866 ea3f
00000170: 5601 3505 5b75 da3f 51e0 f662 c24c e53f
00000180: 833e a1da c31a e03f bdc7 0a22 6886 de3f
00000190: 2f95 ced5 42af e03f fcc0 c022 0eff a53f
000001a0: 9d93 c4ba 9b90 eb3f f42b 02be aa5f ec3f
000001b0: 8488 36b5 3b7a e23f 5b89 172c 03bc c43f
000001c0: a0b4 4ad7 8043 dc3f bed0 bada 115b cd3f
000001d0: 6ec3 1d57 9e09 95bf 2dde 0a85 5be6 e03f
000001e0: 7a58 95bc eb93 cf3f fff9 0e53 f616 ee3f
000001f0: 9d0a cc08 2d49 cd3f 1ed2 6daf b7f5 b63f
00000200: 25cb bb79 b052 eb3f ab3e 3491 ce59 e53f
00000210: b3c6 a302 af09 e83f 8d83 e7e0 40c4 e83f
00000220: 8c71 12f2 96fa d73f c4b7 5a86 ac68 e43f
00000230: a89b 3be6 ce83 d83f b055 aff3 c3d7 93bf
00000240: 4505 cada 2411 d43f 53d4 d4bb 5fcb d33f
00000250: bef3 dc65 1b04 c93f d23f 6ed9 458b e23f
00000260: 8006 245a 44e1 dc3f 8234 a391 6273 e23f
00000270: 4f25 b038 20c5 d73f bbff 1d69 a283 de3f
00000280: 35ca 092c 42b5 d43f 5bfe fbe6 c5cf ec3f
00000290: 6e3a d634 47ef bf3f 6e4e 57aa 6772 d33f
000002a0: 6745 497b f0cd e33f ca17 bc3c 4878 e23f
000002b0: 7080 f7cf 6023 dd3f 9fda eb83 06c6 eb3f
000002c0: 78d7 3533 9edc b73f ca83 6091 85c4 d63f
000002d0: 6837 d1dc 307b eb3f d513 756d d93c ca3f
000002e0: 29f8 25b3 f0cb e83f 0078 c871 25f6 ed3f
000002f0: f595 6906 53ed da3f 8cbb 21db 6b72 e83f
00000300: 9f4e 0094 94a2 e93f cf37 e096 20aa bd3f
00000310: 3731 ada4 e8c0 ec3f 86b5 c702 9b77 e53f
00000320: 204d e83d 8255 e93f c705 eba4 0ff5 e23f
00000330: 16fd 29a2 2be4 ed3f dc42 70a0 9841 e13f
00000340: 02ae 2b7f 7542 e53f 5a67 1b93 c5b7 c63f
00000350: 31d5 0084 12fe dd3f 7d28 bf4f 1f71 b23f
00000360: 1a32 c1c5 cc48 e83f c1b7 1764 92d9 e03f
00000370: 272c 559a d1b7 ef3f ac33 c882 9a9e d23f
00000380: af62 b7cb b815 e73f 6882 8031 1931 bf3f
00000390: 3aaf e009 bd12 d23f edc6 bd90 b65e eb3f
000003a0: d9e6 03fb c780 e33f 3061 1680 267f e33f
000003b0: b931 0550 35d9 ea3f 4eff 24db 1cc0 e73f
000003c0: 92eb 8e32 dbdf da3f 3c40 2e99 e11d 89bf
000003d0: abc7 e324 3aed da3f 7b71 5641 f7fa c23f
000003e0: 0ec3 131f ebff ee3f ba84 3eb5 2416 c43f
000003f0: 97d8 689d 4b6a ad3f 1865 0362 8e7c d73f
00000400: b8ae 120a d066 d73f dd91 0d2a 2c4d e73f
00000410: ee8a 049c 5000 dc3f 6fcb 6f85 6163 e43f
00000420: ae0a 8d79 b0d6 d13f 2362 4ef4 1f8d e23f
00000430: 9ae1 4598 54fa e13f b0f5 30f9 fc07 e43f
00000440: 8b99 a9c2 a62a e23f a982 1166 47b6 ec3f
00000450: 2b54 9ffa 4562 dc3f 2c11 7888 7a32 d53f
00000460: bcad efa7 da3c df3f bbd2 c7c7 e81f d63f
00000470: bc96 9cc8 70e5 e33f 00bd c21f 22c9 88bf
00000480: 2b2f 101e ee8e ee3f d90e 6e98 ec4f c93f
00000490: 0ce6 ebfa 4d08 b33f 05b3 f02f a0e0 df3f
000004a0: 0a29 74fb 5a43 d63f 44ca f87c 293d e33f
000004b0: 80cd c3ed 7cb5 e23f c6f4 259e cfe8 c73f
000004c0: d619 fb03 a4c2 d83f 041a 098a 715e d43f
000004d0: eabd 9077 fdb5 e23f b1ce 514c 7441 ce3f
000004e0: 075f 2174 0355 f03f ce4a 34ae 3549 e83f
000004f0: 45c4 7e23 bb5d d93f 52f0 b726 103b cf3f
00000500: df93 812d f6de e03f ea75 21d1 83ab e23f
00000510: 18a6 ec46 a5a7 e13f 05cd 9259 de4f ee3f
00000520: 88c4 170f 35db d43f 8adb 99c8 1ab7 cf3f
00000530: 52e4 e6fa 3e8b e73f 5b32 98f8 c74e e73f
00000540: 3264 63da 0f3f cb3f 637c 2d8d ec16 eb3f
00000550: 4b73 6bdb 6027 d33f 36c2 643c 78ef c83f
00000560: a1e4 ff65 6051 ec3f c8e4 2dbd af73 a4bf
00000570: 3a40 19b5 e020 e93f 15bd 28f5 9501 d33f
00000580: b682 6156 e0d8 ed3f ba81 7516 4297 e03f
00000590: 9f3d 02f7 2099 ea3f bdef 5b96 8012 d93f
000005a0: c64a 9b57 5f2a d43f 7a72 3796 2127 c03f
000005b0: 8b05 6dec baae c93f 4b55 4290 e53b eb3f
000005c0: b615 5570 0377 ed3f c66c 94c8 0a76 bd3f
000005d0: 0ec8 61eb ea80 d63f 989d b4f3 2a59 e43f
000005e0: d07f 16ac 451b c33f dadb 21c4 074c c93f
000005f0: e099 a0a3 0a2f e63f 7aac a652 5c43 d43f
00000600: c50e 562e 3508 d43f bc2d 94a5 8c4e e13f
00000610: be9e 32f8 57ea af3f 478c 91b0 e013 e63f
00000620: 2149 4afb ffa5 e03f 19ec 5fc9 eecc db3f
00000630: d67c 0e75 26a4 e33f afaf 5dbd 128c e63f
00000640: c8d1 ebf7 114e d23f c41b 2779 c65f c63f
00000650: ceff 6754 0850 ec3f 911e 30db 4d02 c03f
00000660: 9aee 7837 1c60 d53f 2324 2f03 5be0 e73f
00000670: 5e84 7a70 3820 cb3f 8042 7655 b349 d93f
00000680: c52c bbd5 5cc2 bd3f 8787 d0db 5f79 c93f
00000690: 130d 4166 5b3e cf3f 79b1 61a2 8b14 ec3f
000006a0: 5867 5685 0894 b63f 614b ea6c 0986 c03f
000006b0: b1f6 6617 e544 de3f dc9c e932 5aee e43f
000006c0: f7fe 5fb0 2c5a e83f a739 d18c 2322 e23f
000006d0: 0c57 bac6 f497 e63f ded7 f730 d262 d93f
000006e0: 1ae7 1582 f2bf d23f 20a7 ec2a 9ad6 e63f
000006f0: 809e 6ad8 e170 ee3f 7996 0ab2 4a40 c33f
00000700: 5a2e 6363 16d5 e03f 1bfe 7083 9f84 b13f
00000710: 9e20 9b4f 64a5 e03f 6064 7236 f12e e93f
00000720: b62a 143e d524 e93f 4c6a 58c6 b27c ec3f
00000730: c54e 9c50 7fb6 e73f 0b52 669d d6bb eb3f
00000740: d301 617b 5308 ef3f 37a2 2a69 899c dc3f
00000750: 3370 75e7 c10e df3f 94fc 65ac c7e0 d13f
00000760: 3071 100b 99d5 e33f bb4e 8e50 9244 d33f
00000770: a933 1cae 96ef c73f 55e7 f69f 79bc b83f
00000780: f4b1 7ac5 d364 e63f 07c8 d80c 14c9 da3f
00000790: 67d2 49d0 d6d5 b23f 7be5 eae6 b657 e03f
000007a0: 0a0d 0215 b682 b83f 1994 7f7a 7c08 f03f
000007b0: f0d0 7ca6 246c e73f 6290 5c93 763d eb3f
000007c0: ff8a a11d f3f2 e53f 9bae a2a5 90d0 bf3f
000007d0: f8e1 b1f6 1501 d53f 5534 1657 3fab ed3f
000007e0: 920b fd9c 4876 e03f 6368 a6da 98e4 e43f
000007f0: f7fd fa03 5d1a ce3f c9a2 861d c81e e03f

gnn.conv_layers.0.u.weight f8 [1, 16]
0.33764922618865967 0.0758330225944519 0.5759440064430237 0.3640173077583313 0.9975857138633728 0.32396912574768066 0.7334872484207153 0.47684717178344727
0.7310290932655334 0.7405763864517212 0.6050763130187988 0.15556246042251587 0.19541722536087036 0.9922410845756531 0.4806893467903137 0.5818153619766235
00000000: 0000 0080 0b9c d53f 0000 0000 cb69 b33f
00000010: 0000 0020 226e e23f 0000 0040 0f4c d73f
00000020: 0000 00e0 38ec ef3f 0000 0000 e9bb d43f
00000030: 0000 0040 ba78 e73f 0000 0000 aa84 de3f
00000040: 0000 0020 9764 e73f 0000 0040 cdb2 e73f
00000050: 0000 0000 c95c e33f 0000 0080 78e9 c33f
00000060: 0000 0080 6e03 c93f 0000 0060 70c0 ef3f
00000070: 0000 0040 9dc3 de3f 0000 0040 3b9e e23f

gnn.conv_layers.1.c f8 [1]
0.07200660556554794
00000000: 0000 0060 066f b23f

gnn.conv_layers.1.bias f8 [64]
0.0588324750643068 0.3751852580866924 0.14883678943392195 0.021240498497774894 0.22637003344908904 0.18585669583699946 0.08857492180511696 0.11930003643934277
0.13908885854566894 0.09007371953506088 0.3310674428012171 0.2611406519706849 0.32913516488235783 0.18470977061704077 0.03706505661017032 0.13120502421099864
0.30220041143416154 0.08132564832014012 0.07289910531946464 0.15110095076099497 0.04321774874525818 -0.02841923581856562 0.052511558213934634 0.15696763719531387
0.0007517067493709889 -0.022139623578822945 0.045693645820235614 -0.06015440653311181 0.17055404397569962 0.13871733947267045 0.15115585929853076 0.07767605743712193
0.16548023145499488 0.12900039387310305 0.13534342965618304 0.11910640337089462 0.06243191306194196 0.22208714375888328 0.12244311797349747 0.0674024526366485
0.21782022904704715 0.14396872862380955 0.12600029546104174 0.10152014965395509 0.07409682908662768 0.08795255389502742 0.016838834859921468 0.1764469168071183
0.16191579407448628 0.1486724432613784 0.09732877184091485 0.1228711097330001 0.1720041605170288 0.16740327299096586 0.14541447159111842 -0.018375272625149493
0.09437650090804098 0.1622919764570173 0.0058151513820546424 0.14202240626843718 0.14137617264371077 0.18097635456361846 0.31425950322770085 0.12427035708957797
00000000: 0318 b048 4a1f ae3f 4d1d 5b07 0903 d83f
00000010: ffb8 877b 150d c33f a63f 98b9 11c0 953f
00000020: 61a8 3a79 b1f9 cc3f 7367 2ef7 26ca c73f
00000030: 7913 6698 d8ac b63f 6b28 eb7a 728a be3f
00000040: f286 58e9 a9cd c13f 6cd5 a13f 120f b73f
00000050: 4180 e67f 3530 d53f 84b1 f747 87b6 d03f
00000060: e687 48f0 8c10 d53f 15a3 06dc 91a4 c73f
00000070: ad1d eeeb 30fa a23f f34f 0784 53cb c03f
00000080: 52a3 fc64 4057 d33f 716a dcf7 c1d1 b43f
00000090: f837 4109 84a9 b23f 85dc f4a4 4657 c33f
000000a0: 0f6d ef02 a320 a63f 9815 aca1 ee19 9dbf
000000b0: 04b7 6182 cbe2 aa3f d662 24fa 8317 c43f
000000c0: 9438 cef3 c5a1 483f 84ff ddfc c4ab 96bf
000000d0: 91a7 dd54 2865 a73f f63d 8af1 8ecc aebf
000000e0: 20c0 8904 b7d4 c53f 0a2d 3662 7dc1 c13f
000000f0: 929a 2440 1359 c33f 79e9 5ffe 93e2 b33f
00000100: 53ea 1dcb 742e c53f 9194 6dbc 1583 c03f
00000110: 3707 0dfa ee52 c13f 90e0 38db c17d be3f
00000120: a0cf a761 13f7 af3f e439 a7fd 596d cc3f
00000130: 4e02 51a3 6e58 bf3f bb9d be81 4941 b13f
00000140: ad07 1584 88e1 cb3f c600 8b3a 916d c23f
00000150: 4050 2516 c720 c03f 5215 a67a 39fd b93f
00000160: fc13 aa81 02f8 b23f 8f2d 94fe 0e84 b63f
00000170: e9bb 1a14 333e 913f 5753 9504 d095 c63f
00000180: b3bd 2020 a8b9 c43f 68e0 cfd8 b207 c33f
00000190: 423e 04d4 89ea b83f a92c ed25 7b74 bf3f
000001a0: 4f29 197a 3b04 c63f daa9 5e6f 786d c53f
000001b0: 34ab ecff f09c c23f a29f ebab f7d0 92bf
000001c0: 0a34 e9f0 0e29 b83f a39e a4c5 fbc5 c43f
000001d0: 508c 1dd0 a0d1 773f d76f 1c4b ca2d c23f
000001e0: 161d f84a 9d18 c23f f79a 19b2 3b2a c73f
000001f0: db7d 34e4 d31c d43f dddd 8f9f 2ed0 bf3f

gnn.conv_layers.1.linear.weight f8 [64, 32]
0.3901434593371558 1.0148925461383125 0.19178311634845321 0.4603470443761909 0.8552320623844586 0.29464343762499223 0.45825800073097034 0.16432539942796962
0.20037565988838385 0.9117280630482659 0.7302100504362858 0.08727344990190088 0.39307344055911475 0.8776156477020527 0.5477953388971566 0.35557421588327115
0.38445163351386386 0.3821926066317539 0.7034876038077403 0.8720887494937115 0.5932388142215287 0.12832056930129473 0.2791845181814479 0.9554697201282186
0.9322148537322735 0.9292471520705786 0.599286758367126 0.595029026140298 0.8565031199884162 0.8917822647223203 0.749864304777537 0.1372896482195568
0.04022764763075625 0.7943297143185424 0.728482299414744 0.39109441803717776 0.24613444305108764 0.8087291961260449 0.8223719795003622 0.7379555785812343
0.9632976937335266 0.1887318368888961 1.0075097273873168 0.8394799765939066 -0.039182197717683935 0.8646787295282763 0.4712439117352 0.6499604414295365
0.9468922103570947 0.4149689872764493 0.1539262827912212 0.33509337645265347 0.0698993679970591 0.5506434149201143 -0.022813012527294715 0.7458315336820424
0.3872836887889361 0.1770669536752374 0.41336497494021907 0.8490851584588478 0.3976085416328661 0.8819661191834111 0.8649436977644525 0.5096202912039501
0.2639037232873457 0.251343561167175 0.3044060047443604 0.5611430040797009 0.632282918448781 0.5216915895254819 0.2824615262165433 0.9159219228298796
0.13643128437008237 0.2191393917635758 0.7172906358061757 0.4961831149897043 0.9509626130328751 0.23143734750041298 0.7386632644398123 0.7865732704979215
0.9121703805049212 1.036020214130991 0.8779145003023375 0.17063536912856242 0.1089757017303323 0.16303931479977418 0.23731086211873445 0.7416935670614485
0.35259650642172735 0.38363281273286987 0.6858623358511517 0.6519629445954356 0.14308421800941432 0.8445983048585963 0.3093378032259545 0.7099784082750193
0.9828596846431369 0.18713273347727832 0.8070649234931164 0.04984364200086097 0.8902450203835074 0.44183916436104637 0.4234141502359754 0.6096304973147327
0.9437947409417721 0.4691765463309064 0.8490619290278016 0.29629110295037936 0.010010012091678488 -0.0003182790564527409 0.9510349307345238 0.6675745016441189
0.05353612026300757 0.7035480187921223 0.9227828998204216 0.041733942049485495 0.17705302200695994 0.6782006809741089 0.383724798806866 0.7857812315179052
0.5444744795035737 0.642305174498079 0.13369843551297744 0.10688039497263668 0.658869328563892 0.19005979057697384 0.21004146564315246 0.8443592689752202
0.1259736277940635 0.4928634542903944 0.15070384859149613 0.48707232938164474 0.5566733080575239 0.9159456372738595 0.1461711227836488 0.3863700605423452
0.7387162234281566 0.614151937628921 0.17220455362555573 0.2264561363536009 0.22501583813475642 0.4923340876954501 0.5049645252365818 0.6908818414591972
0.7168798542615691 0.6596683493317396 0.4719381407536622 0.924540495250815 0.9702731003624525 0.39244766880001586 0.48578503613724644 0.4431552194734646
0.09931282259063309 0.5331805302264391 0.8974121354149295 0.6905557061251535 0.34203417020496985 0.5830503675865741 0.32015730784857543 0.3579954125512299
0.035052849899452204 0.49524910739721306 0.16004541804813338 0.3626840786714171 0.4893689596518462 0.8437390832836545 0.33577367460542584 0.5238716902949571
0.8362063629612144 0.28772479002311324 0.4799819207938642 0.4141319612045598 0.5415540414534084 0.15492360429156957 0.48848086183790534 0.22918629276697053
0.6633335722308343 1.0172240051583932 0.7261945778158689 0.45072126801606843 0.7254715606069837 0.7140331854858102 0.28733001827095783 0.36680833063876267
0.6487302740828962 0.7765780329278575 0.14204945977605818 0.5897336081066438 0.9290225616552158 0.6867233764604449 0.2788221707181768 0.641641720807894
0.7455501937647356 0.3689516150291218 0.29750969703692426 0.732452418666439 0.5436341760079177 0.8472805426814894 0.9771187381448854 0.144714365932307
0.8359066713312654 0.5552614137714187 0.7317871613980479 0.5538729123856522 0.890677452943338 0.8403798551427467 0.1725241149766644 0.3253514124179138
0.8791648744293561 0.19891393728960333 0.9551944675185959 0.8675423617687428 0.9979515350060949 0.6034111905721304 0.4065200635816601 0.5219184868332292
0.9228934970668202 0.9287457120264745 0.44140849357904505 0.8989840952914876 0.27056447371051323 0.9351647261682491 0.8019934281601866 0.2901133467408176
0.2846172970719158 0.4151859791071051 0.3742863988396228 0.4067407394241146 0.9632293097026464 0.2224120683906353 1.014382366776004 0.6430284919514414
0.6256263443653858 0.41956364791840006 0.8065578391393665 0.248587754294615 0.6059830397465168 0.008086346326349692 0.40428409417808847 0.4984308219389984
1.0010336327499898 0.8126163507786786 0.6297829522606587 0.1401930288417322 0.86352962271761 0.11564763363230449 0.28976767284957816 0.3285586174752488
0.5443746957723957 0.3563798320939034 0.7489713915736909 0.7847279169284715 0.841503572534873 0.7776442523414911 0.7412906253359866 0.2760421847199835
00000000: 2c7d a645 1cf8 d83f 3ee4 69f7 ff3c f03f
00000010: f31e 5262 598c c83f eafb 1973 5376 dd3f
00000020: f9d1 4da1 0f5e eb3f 9424 2526 70db d23f
00000030: 6a45 915d 1954 dd3f 7ffe 385c 9d08 c53f
00000040: 9648 11dd e8a5 c93f 4568 b454 e02c ed3f
00000050: 10b3 ba77 e15d e73f 2744 2385 8d57 b63f
00000060: 902a 0881 1d28 d93f 52d2 2a69 6d15 ec3f
00000070: 62dd 2e17 8a87 e13f 613f 215b bac1 d63f
00000080: 1f7e 3506 db9a d83f 7668 90fa d775 d83f
00000090: 5ddc 6f6f f882 e63f f21e 49aa 26e8 eb3f
000000a0: bf93 39f7 cffb e23f 07ce 46f4 ce6c c03f
000000b0: b1e2 c8bd 28de d13f 6b9b 083c 3593 ee3f
000000c0: 6904 b43e b4d4 ed3f b16a 0186 64bc ed3f
000000d0: ea9a 836c 5b2d e33f 962f ee4f 7a0a e33f
000000e0: f5b5 283b 7968 eb3f 6553 c4f5 7a89 ec3f
000000f0: 2fa2 2e6d e3fe e73f f456 970a b592 c13f
00000100: 2f2f f0dd b798 a43f 38a7 2726 266b e93f
00000110: 4670 761c ba4f e73f 8b8a c7e1 b007 d93f
00000120: 976b a95b 5581 cf3f c1d0 150d 1ce1 e93f
00000130: 113a a30a df50 ea3f 7307 7d04 559d e73f
00000140: 21ba 5caf 55d3 ee3f ae6e 9365 5d28 c83f
00000150: 867c 1885 c21e f03f fdc3 a31c 05dd ea3f
00000160: cfd2 9063 b00f a4bf 66dd 1bba 72ab eb3f
00000170: f7df 5539 dc28 de3f 4f46 f4d6 79cc e43f
00000180: 9a44 8ae4 f04c ee3f c538 4d15 da8e da3f
00000190: 6ba4 4a3f dbb3 c33f 6e1a 3e7d 2b72 d53f
000001a0: c9f5 8ecb ece4 b13f 68de 5af0 de9e e13f
000001b0: bc70 e95a 4b5c 97bf 37ad af17 dadd e73f
000001c0: afda 6786 41c9 d83f 2066 9e43 21aa c63f
000001d0: c486 2b5e 9274 da3f fb30 63a3 b42b eb3f
000001e0: 3819 bb18 6b72 d93f 4954 c202 1139 ec3f
000001f0: bef2 d867 9ead eb3f b32a 8336 cf4e e03f
00000200: 42f4 3371 cce3 d03f fb7b d14d 0316 d03f
00000210: ac50 c552 637b d33f 2bd9 5c2c e2f4 e13f
00000220: 88d2 1163 a93b e43f c486 738f b2b1 e03f
00000230: 789c 5e82 d913 d23f f4cc 077e 3b4f ed3f
00000240: e9a8 4290 9476 c13f e9e7 7174 c20c cc3f
00000250: 5e77 d07d 0bf4 e63f f152 edd2 76c1 df3f
00000260: a33c 5625 496e ee3f 5f2b 4b2f bd9f cd3f
00000270: aad1 7024 21a3 e73f 5f48 16b5 9b2b e93f
00000280: 9dc0 14f0 7f30 ed3f 1900 9bee 8993 f03f
00000290: 7572 6f26 e017 ec3f 265a f938 61d7 c53f
000002a0: ae8c fde2 d4e5 bb3f e07d 83e6 78de c43f
000002b0: 3d8c e4cb 3360 ce3f 13d7 c525 f4bb e73f
000002c0: 98f8 f0ef f090 d63f 000d 17a4 708d d83f
000002d0: 623e c191 95f2 e53f 5eb8 a764 e1dc e43f
000002e0: 294b 766a 9550 c23f 9efd 3306 f306 eb3f
000002f0: c267 11c9 30cc d33f f608 8da3 24b8 e63f
00000300: 352c 4327 9673 ef3f 28e3 2525 f7f3 c73f
00000310: 8ada 84d1 79d3 e93f 3c4d 9d18 1b85 a93f
00000320: 272b ff1f e37c ec3f 4f73 41c6 1747 dc3f
00000330: 5856 fba9 3719 db3f 418d 13d1 1782 e33f
00000340: 1d6a 4f07 9133 ee3f 79a7 a210 fd06 de3f
00000350: a47f 2eec 832b eb3f 2721 51f5 6ef6 d23f
00000360: b3d4 8714 2180 843f 5a86 7223 d6db 34bf
00000370: 0e78 9bce e06e ee3f 458f 8633 c55c e53f
00000380: de61 5e1b 1669 ab3f 9916 7c22 7783 e63f
00000390: 192d 0101 7087 ed3f 98ad 78b8 265e a53f
000003a0: 28c4 9665 aca9 c63f 4b14 1dea d1b3 e53f
000003b0: f189 6275 f28e d83f 9fc2 65ae 1e25 e93f
000003c0: df2e 5fbe 556c e13f 94aa d094 c38d e43f
000003d0: 3cfd 06c4 071d c13f a0b4 fd78 835c bb3f
000003e0: e29e 5021 7515 e53f ef06 6814 e153 c83f
000003f0: 32e1 de84 a3e2 ca3f 5456 caba fd04 eb3f
00000400: 6f59 c461 e71f c03f 8f88 6428 138b df3f
00000410: cd78 8a82 434a c33f dbc3 5e6b 312c df3f
00000420: ec38 958a 44d0 e13f d229 a039 6d4f ed3f
00000430: fed8 fc3f bcb5 c23f d7b4 8b7d 49ba d83f
00000440: 04c1 9434 90a3 e73f 1985 dcf6 21a7 e33f
00000450: 1ba3 057f cc0a c63f 7a01 cfc1 83fc cc3f
00000460: a776 efa8 51cd cc3f b9e8 56d5 6682 df3f
00000470: 4a00 315d ab28 e03f d5f5 4e3c b41b e63f
00000480: b4de 2605 aef0 e63f 89c1 52cc 001c e53f
00000490: d768 1108 3c34 de3f b1c1 ddf2 d595 ed3f
000004a0: 2ad9 472c 7a0c ef3f edcc b8d3 dc1d d93f
000004b0: 281f c61e 1a17 df3f c62c acb5 a75c dc3f
000004c0: f6a7 19ad 906c b93f c5f7 859d d00f e13f
000004d0: 2b80 94a7 99b7 ec3f 86f5 bb47 0819 e63f
000004e0: 1c45 c949 e3e3 d53f 4c90 963e 59a8 e23f
000004f0: 063e b213 757d d43f c8a2 4197 65e9 d63f
00000500: dc44 e677 72f2 a13f ee3a e94f 29b2 df3f
00000510: c618 3246 5e7c c43f b71c 2b48 3736 d73f
00000520: 5776 582f d251 df3f 1dee 211b e9ff ea3f
00000530: 686f d2dd 507d d53f 21bf 2390 8ec3 e03f
00000540: 4604 b4d8 33c2 ea3f 8c74 d93c 156a d23f
00000550: 37c7 1e17 06b8 de3f f185 6657 2381 da3f
00000560: 78e3 2124 6954 e13f 37c6 e762 89d4 c33f
00000570: 6534 943b 4543 df3f 4f14 10f8 f955 cd3f
00000580: cb3f e253 073a e53f 6fc8 adad 8c46 f03f
00000590: cc0d 4869 fc3c e73f 0d67 6f04 9ed8 dc3f
000005a0: c085 5f22 1037 e73f be72 7d1f 5cd9 e63f
000005b0: 8e80 e871 9d63 d23f 159b ffa5 c979 d73f
000005c0: 968e e3fd 65c2 e43f f8f2 c62c bad9 e83f
000005d0: 9f89 133c ad2e c23f 9671 0504 19df e23f
000005e0: fbc4 f185 8dba ed3f 597b 694d a3f9 e53f
000005f0: 5798 28f2 38d8 d13f 66cf d337 5488 e43f
00000600: 41df 7714 8cdb e73f 3fd0 163c e79c d73f
00000610: a50d c11c 660a d33f f28c 010e 4070 e73f
00000620: 2a24 de7f 7365 e13f 0755 ab15 ec1c eb3f
00000630: a683 1484 8e44 ef3f bb66 7816 0086 c23f
00000640: 3d08 fc58 bfbf ea3f 8020 9c95 b3c4 e13f
00000650: 13cb bae8 cc6a e73f d5c5 9aaf 53b9 e13f
00000660: 8fa3 7500 6e80 ec3f 23c5 414b 64e4 ea3f
00000670: 934d cc2b 4515 c63f d5b5 02bb 8ed2 d43f
00000680: bae9 ee5f 1e22 ec3f fe4f b00b 0376 c93f
00000690: 0800 eafc f390 ee3f 8c1f f632 e8c2 eb3f
000006a0: 7f03 bb0e 38ef ef3f f486 31fc 244f e33f
000006b0: 8b11 90ba 6c04 da3f 800c 0466 8eb3 e03f
000006c0: 63fa 72f1 5788 ed3f b186 6eed 48b8 ed3f
000006d0: dd4f 0669 0940 dc3f b4d5 1c4b 7ac4 ec3f
000006e0: 67f3 82a7 ed50 d13f 5d7e 6893 deec ed3f
000006f0: f6c1 311f eea9 e93f 87a2 1892 3791 d23f
00000700: d72f b377 2b37 d23f d474 8136 6892 da3f
00000710: 88a4 96f0 4ef4 d73f 6ac1 714f 0a08 da3f
00000720: b516 f745 c6d2 ee3f 739b fca7 ff77 cc3f
00000730: 7d12 2f01 e93a f03f 077c ea7c b093 e43f
00000740: 7a17 128a 2105 e43f 6299 997c 21da da3f
00000750: c7f3 ad62 52cf e93f 84d3 7039 b9d1 cf3f
00000760: eb8a 348b 3664 e33f a05c 2008 938f 803f
00000770: 876c b264 cadf d93f 2df8 e263 4ae6 df3f
00000780: 6cb7 add7 3b04 f03f da41 5901 f400 ea3f
00000790: 2336 f193 2e27 e43f 734f 005d d8f1 c13f
000007a0: 1b61 16e0 08a2 eb3f 627f 4f54 159b bd3f
000007b0: 00ed 94b5 8d8b d23f bf02 38b9 1a07 d53f
000007c0: b198 637b 846b e13f bd06 f35a edce d63f
000007d0: 085b 0eda 92f7 e73f 64e9 6eb8 7d1c e93f
000007e0: 6624 70e6 98ed ea3f 9754 f732 76e2 e83f
000007f0: 4ec8 141e a7b8 e73f fd13 ecd6 acaa d13f

gnn.conv_layers.1.u.weight f8 [1, 32]
0.8463161587715149 0.6685349941253662 0.36798083782196045 0.802322506904602 0.7373335361480713 0.009655594825744629 0.24048298597335815 0.7034898400306702
0.5979056358337402 0.11444723606109619 0.6000910997390747 0.9472233057022095 0.9152151346206665 0.05143845081329346 0.6191787719726562 0.3033350110054016
0.9306401014328003 0.7710250020027161 0.8110267519950867 0.9099303483963013 0.987497866153717 0.0053209662437438965 0.3209126591682434 0.19571805000305176
0.09946215152740479 0.24637562036514282 0.8585131168365479 0.9555338025093079 0.7930360436439514 0.790104329586029 0.5229730010032654 0.18996626138687134
00000000: 0000 00a0 0515 eb3f 0000 0080 a364 e53f
00000010: 0000 0080 ff8c d73f 0000 0040 a0ac e93f
00000020: 0000 0080 3c98 e73f 0000 0000 50c6 833f
00000030: 0000 0080 25c8 ce3f 0000 0020 fd82 e63f
00000040: 0000 0000 0b22 e33f 0000 0000 6a4c bd3f
00000050: 0000 0040 f233 e33f 0000 0040 a74f ee3f
00000060: 0000 0040 7149 ed3f 0000 0000 2456 aa3f
00000070: 0000 0000 50d0 e33f 0000 0040 d769 d33f
00000080: 0000 00c0 cdc7 ed3f 0000 00a0 3cac e83f
00000090: 0000 0060 eef3 e93f 0000 0040 261e ed3f
000000a0: 0000 0020 9599 ef3f 0000 0000 70cb 753f
000000b0: 0000 0040 d589 d43f 0000 0000 4a0d c93f
000000c0: 0000 0000 5a76 b93f 0000 0080 3c89 cf3f
000000d0: 0000 0080 f078 eb3f 0000 00a0 bb93 ee3f
000000e0: 0000 0020 8d60 e93f 0000 00e0 8848 e93f
000000f0: 0000 00e0 31bc e03f 0000 0080 d050 c83f

gnn.conv_layers.2.c f8 [1]
-0.13717025518417358
00000000: 0000 0080 cb8e c1bf

gnn.conv_layers.2.bias f8 [128]
-0.24817775550761345 -0.02987729528607446 -0.24049551699953786 -0.49575365285650874 -0.1297562937269097 -0.40595467013247377 0.05643799947437568 -0.27401573162033177
-0.14529571318586043 -0.4005938890740935 -0.2648531294724257 -0.40335295963696904 -0.16455665863619573 0.21255516413243924 -0.19659061606623196 -0.15378296863110164
-0.10302207046923514 -0.03696158711494689 -0.09487175099257374 -0.3562419023647202 -0.02966452864877932 -0.2559481978916858 -0.3583233133398009 0.11685810009354793
-0.1139205447276028 -0.09049711599457518 -0.2729189712695157 -0.29792425087570523 -0.2171051367774338 -0.20839421225830734 -0.3396347925060575 -0.10284876600897754
-0.30620852585645486 -0.2719939413129217 -0.42957280999045255 -0.08214733864458218 -0.32083667072380057 -0.1929950230181977 -0.08796869567445834 -0.29287235204210155
-0.06189313746797932 -0.12571828648237138 -0.6580173573136467 -0.15792231167158147 -0.16205406483153542 0.0228251826009738 -0.23833361128351083 -0.3574085392869687
-0.15246849228400913 -0.3844895561583499 -0.39520294831282815 -0.4344796799221811 -0.020445224932827775 -0.2721165735129414 -0.20823499583164665 -0.03523952176565828
0.20791164000436826 -0.08840340993572629 -0.0979774321380085 -0.07938702248136381 -0.0805909346742843 -0.21154895314718045 0.12603804772952149 -0.015545949600994554
-0.2345913401318296 -0.31093170166874456 -0.036931068389249776 -0.2841344928995891 -0.39861552570417763 -0.06755183142062557 -0.3081546244775278 -0.16150013104089211
-0.19640542293653251 -0.24392547164477257 -0.44116813602262744 -0.45143493248742983 -0.33884565556100193 -0.48099948829247396 -0.28830567415922825 -0.37240047740664195
-0.32165333864751455 -0.2792727758779201 -0.13060950595339418 -0.23814333358936868 -0.41050464360146427 -0.06289942101970869 -0.24173873710983854 -0.30929525892450294
-0.026026241631517382 -0.34865312886908134 -0.19615162437486186 -0.17866503483654755 -0.10089074555592895 -0.12092241678287682 -0.23257292877416968 -0.19856047611303385
-0.16199908178966638 -0.40823701649263666 0.016631743130760428 0.02615094401748945 -0.22916444479912648 -0.3838510584851676 -0.3611463659490511 -0.27896097589102775
-0.10833598630774918 -0.3869815065392462 -0.10845812887367151 0.036210522754108014 -0.13853391843652269 0.2608016012236242 -0.18685932502633865 -0.06672940417330293
-0.2771127690669891 -0.16913481928373014 -0.17567357459608904 -0.27405867247807475 0.08445319428776653 -0.32510955004920267 -0.13841721091100787 -0.3815482446584973
-0.23170105025920484 -0.17656686134726393 -0.30849527544371197 -0.032925484184762065 -0.14764430647954643 0.03157580634342265 -0.21338989126014646 -0.3411824454093526
00000000: 30fc bfe7 49c4 cfbf ce24 9658 2798 9ebf
00000010: 0c7f 2c9e 8ec8 cebf 1c0a 7987 6dba dfbf
00000020: 79ed 00af da9b c0bf 0628 f84b 29fb d9bf
00000030: d2fb fc03 71e5 ac3f 9086 7947 7989 d1bf
00000040: 1cee 30c8 0c99 c2bf 653e 238d 54a3 d9bf
00000050: d8f2 548a 5af3 d0bf 82ad 98ee 88d0 d9bf
00000060: 483b 974d 3110 c5bf 00ba 45f3 0135 cb3f
00000070: 143c 5a9d e129 c9bf 70e7 790a 29af c3bf
00000080: 867b 6e87 a75f babf 1ee1 bb0f a1ec a2bf
00000090: d9cd d3db 8349 b8bf 5ac3 07d6 aacc d6bf
000000a0: fd4e 97d1 6060 9ebf 298e da8c 7461 d0bf
000000b0: 6315 0ce8 c4ee d6bf e9aa 2c96 69ea bd3f
000000c0: 3e93 f295 e529 bdbf 953a 94a9 d12a b7bf
000000d0: c8df 0322 8177 d1bf b192 8ce0 3011 d3bf
000000e0: fb57 20e3 19ca cbbf 489d 295b a9ac cabf
000000f0: c16c 9991 93bc d5bf a948 71f6 4b54 babf
00000100: 7cd4 13a5 eb98 d3bf 8b8b a946 5968 d1bf
00000110: 6c3a 8af4 1e7e dbbf 2492 eea4 9b07 b5bf
00000120: 8b70 0788 9688 d4bf dcb3 1398 0fb4 c8bf
00000130: f25a fece 1d85 b6bf 6519 7bad 6bbe d2bf
00000140: d229 8b12 75b0 afbf 88b8 796c 8917 c0bf
00000150: 4499 bb6a 7a0e e5bf ad15 f85d cc36 c4bf
00000160: c951 5106 30be c4bf 4986 2f13 7c5f 973f
00000170: 6008 003d b781 cebf 461d e310 c8df d6bf
00000180: 27df 036a 1684 c3bf 80a2 5615 7a9b d8bf
00000190: f953 924e 014b d9bf 4db5 02dc 83ce dbbf
000001a0: 498f c8d1 97ef 94bf ac02 fca1 5b6a d1bf
000001b0: 2564 7dc0 71a7 cabf a436 0523 ea0a a2bf
000001c0: ed63 233f d99c ca3f 2261 871a 9ba1 b6bf
000001d0: d25f c78a 0c15 b9bf 34c6 4839 b552 b4bf
000001e0: 2cb6 c784 9ba1 b4bf 2395 a23d 0914 cbbf
000001f0: ce65 86c6 0322 c03f cbe7 f808 8ed6 8fbf
00000200: 2940 e5ca 1607 cebf a13d 7d14 4ee6 d3bf
00000210: 7357 e005 a1e8 a2bf 79d5 aa70 422f d2bf
00000220: 53f2 a4b1 ea82 d9bf be8a bcaa 134b b1bf
00000230: 457f 8f2c ceb8 d3bf 8067 8f4a 09ac c4bf
00000240: 847d 221a d023 c9bf 1216 b029 f338 cfbf
00000250: 2549 1047 193c dcbf f88c d357 4fe4 dcbf
00000260: ffac 41b0 a5af d5bf 64f8 e613 b2c8 debf
00000270: b0f7 70a4 9973 d2bf ee7b decf 68d5 d7bf
00000280: 7afa 88e2 f795 d4bf 74c3 c3eb 9adf d1bf
00000290: f5ea 4ef2 cfb7 c0bf c46c c312 7b7b cebf
000002a0: 93f6 c744 b545 dabf 408c 372c 2d1a b0bf
000002b0: 9913 0881 4bf1 cebf b2de 7857 7ecb d3bf
000002c0: 0ba5 9482 9fa6 9abf 8102 8936 5550 d6bf
000002d0: cba7 df15 7f1b c9bf e2e4 c7f0 7ede c6bf
000002e0: d2bb a1d4 f9d3 b9bf 7e8c 6f81 c5f4 bebf
000002f0: 3c8f 8221 f3c4 cdbf 7c82 97ff 6d6a c9bf
00000300: 0063 22cb 62bc c4bf 268f b626 8e20 dabf
00000310: 9ed1 4963 e907 913f 0c32 4225 50c7 9a3f
00000320: 45bc e8b1 4255 cdbf 4da4 ae07 0491 d8bf
00000330: cd81 b4a5 051d d7bf 3afb 1323 7fda d1bf
00000340: a6f3 2b3e e8bb bbbf 398b af14 4ec4 d8bf
00000350: 046e 7f74 e9c3 bbbf 77fa ff85 2f8a a23f
00000360: 122a 89bc 7abb c1bf 5bfe ff32 f9b0 d03f
00000370: c96a f8a0 01eb c7bf 651c 9ba0 2d15 b1bf
00000380: 0a97 1c32 37bc d1bf 7a20 b8b2 35a6 c5bf
00000390: edaf d4c0 787c c6bf d99f de62 2d8a d1bf
000003a0: 9739 827b b99e b53f cb07 4549 98ce d4bf
000003b0: f37c 08b9 a7b7 c1bf 8de2 2954 496b d8bf
000003c0: 1cf4 a748 61a8 cdbf 5f9d 852f be99 c6bf
000003d0: 8f14 c0f7 62be d3bf f399 8eeb 9bdb a0bf
000003e0: a597 e235 02e6 c2bf 26fe 2d3f b42a a03f
000003f0: 9231 2126 5c50 cbbf 8c28 40e5 eed5 d5bf

gnn.conv_layers.2.linear.weight f8 [128, 64]
0.8461919520336916 0.8309933860291011 0.6764470447234886 0.374428130269226 0.6888406620302334 0.3145106004272216 0.09406876641322284 0.8948767348891635
0.9237500450115083 0.543830737359881 -0.043794840924559895 0.312969243696008 0.20462633299798058 0.2380703880791297 1.0128223309356643 1.0310371419097701
0.47859566987808444 0.32426420097618686 0.9531314573031979 0.14610253702866313 0.8181055635243373 0.7354046095560105 0.3520959191426414 0.06442224462814411
0.416533001123888 0.8971672605559496 0.8247279690343012 0.4227622636556496 0.51409179521567 0.791794205909545 0.1103189916311484 0.543977587976107
0.2503399144762356 0.6462745924060694 0.1383964348635137 0.3148202089014556 0.8998287277672478 0.33292847929897573 0.47969773008801403 0.8058614264284185
0.12825172438017282 0.2185010063417091 -0.045981631152396944 0.7557815630078508 0.9384860783209309 0.5408672373942303 0.9442726154415426 0.0902722633752313
0.37480806332989447 0.6074778844373946 0.49209558313900387 0.6752409075775826 0.3789999362368171 0.3796991893255668 0.13823411591019746 0.2118166994375299
0.45201562679675045 0.9520424112835038 0.7350695499781239 0.8908951495461497 0.6640726278763986 0.3518067181526966 0.4306932697120984 0.576417394707582
0.8317830906214599 0.5501288279038203 -0.11241510847164474 0.778256447154554 -0.1166998006668087 0.02518776776769617 0.8636460083408198 0.8308020194729246
0.4850370501010793 0.3657316301557962 1.0337089410921594 0.7367210549688613 0.3485782516291221 0.5544221786143068 0.8002327357947103 0.4006718025361259
0.3549090120717422 0.581264585659068 0.6439342761402405 0.3503111809853719 -0.13765214677161094 0.5900768634127921 0.4310588126370232 0.832582171504922
0.41707962804526194 0.8602779548683471 0.4133394921912182 0.6834519716718099 0.2397433919951346 0.7955447475450077 0.11284056089459647 -0.01646203408110274
-0.053717920037356544 0.8572209346377351 0.5859717062126693 0.10203473460905742 0.17040375511452857 0.8107994383572802 0.7752850610202995 0.36044656510528955
-0.13955913561144287 0.1393488437937747 0.2929510123531464 0.659268106147333 0.6235674310070185 0.5875236557139301 0.594435256268293 1.146596588449437
0.5918790753680903 0.5975167391744453 0.5187474255530637 0.4059956959195582 0.6593545361521879 0.6658350564858146 0.9365677655010824 0.2184302014376642
-0.09438280280453405 0.10178259382261919 1.023495161349413 0.21732708716294602 0.9628098596315733 0.7533590907132397 0.45201087193309103 0.7414227957111161
0.902961976140813 0.2410115173028355 0.7670515837861819 0.4917942917006972 0.5536334800641727 0.37264299092737185 0.6800668475757213 0.6977953040244095
0.5061358251432826 0.9673537955015503 0.39415494911391663 0.34536879884763677 0.2048351586435297 0.2109362485981178 0.5484317544667143 0.5091353985480717
1.0012314380424185 0.5201551135605739 0.2348677191290323 0.7496391734822785 0.33823062202152354 0.5286397678894735 0.8394929797778057 0.2847332861901826
0.6719852530537807 0.769599911442229 0.2407540543492879 0.5212632756222328 0.5157220745289625 0.5870058202242037 0.6198294691429653 0.36602721044998343
0.19412556554067636 0.3967856009346064 0.9115433797199929 0.500363137548393 0.9856864391719039 0.798312896071517 0.28970087629186525 0.33199016524621955
0.7569984714262405 0.656358744102988 0.4045249299059975 0.01184248633351782 0.12771021419968334 0.6082154571564412 0.4488880688752413 0.3630097017096213
0.5679052603874384 0.8926519964299314 0.33824419467430267 0.1971381540172399 0.9617310333534427 0.049393179777063735 0.5992821286514275 0.9844409320461195
0.22865439527927578 0.7506572123484785 0.14927935431481473 0.09059800244250425 0.3784346796731821 0.6248454277313699 0.35751268705581385 0.3331738028255779
-0.04158803481860844 0.8424670691019507 0.8402363558046734 0.21538213300613337 0.862277814657905 0.41546475300250474 0.4261539584450864 0.722635019308013
0.15064931354503827 0.7733428310925917 0.5476656813333727 0.16620382184422614 1.055203501931881 0.6633715816238531 0.9719192379258113 0.29578748081202266
0.808941084080057 0.555264572968186 0.621015991090778 0.6238046159536885 0.12769072470926593 0.5792780945416547 0.4102825161550232 0.37396084676265207
-0.04245855597507032 0.7752978158671054 0.018391695159033494 0.14569525788595286 1.0043989345872755 0.16459635233878728 0.4465891095415789 0.8481926028257217
0.4083990066257706 0.54484558148809 0.26860069768397543 0.896065253424706 0.09852681106727688 0.270361663891745 0.38673817990293163 0.3795044698355991
0.815485780579501 0.19859739142161115 0.7745686242641836 0.4155080397191184 0.26862444312322986 0.6875878003682149 0.08019509336408433 0.06449792346408374
0.303115151448682 0.6551811645417911 0.9499519185615083 0.1297980279275127 0.79399881778973 0.6109461241569696 0.16367810851846704 0.6900394240656836
0.37500600306977927 0.389867287864395 -0.016095981523558782 0.49736204800051437 0.3845873372552962 0.1578756873234791 0.42204361792198875 0.9485733485724825
00000000: 7cf0 0325 0114 eb3f 4dfe 0571 7f97 ea3f
00000010: 0106 d245 74a5 e53f 375c 8d67 a1f6 d73f
00000020: 1a65 7292 fb0a e63f a922 c511 f120 d43f
00000030: 0ae2 5103 e414 b83f 669b c988 d4a2 ec3f
00000040: 3718 2041 5c8f ed3f eca5 f0b7 0f67 e13f
00000050: c34e 0203 476c a6bf 5e01 9526 b007 d43f
00000060: c338 1018 3231 ca3f ef12 7929 1779 ce3f
00000070: 476f 4030 8534 f03f 9e6b 57cd 207f f03f
00000080: a88c 88bb 4fa1 de3f eb33 9da2 bec0 d43f
00000090: 68fe bc8a 0d80 ee3f 5b4b 33e9 7cb3 c23f
000000a0: de67 00b8 eb2d ea3f e4dc 6b3f 6f88 e73f
000000b0: 0074 7152 bd88 d63f 0c13 d0e9 f97d b03f
000000c0: 8209 6208 7aa8 da3f 9f26 641d 98b5 ec3f
000000d0: 9229 e3e8 2b64 ea3f 8c92 1874 890e db3f
000000e0: c2fb f2a2 7073 e03f b166 71cd 6056 e93f
000000f0: 8df8 2e8d dd3d bc3f b1a8 c3af 4368 e13f
00000100: 82c4 63b4 9105 d03f 63d5 d30d 48ae e43f
00000110: ab96 cf70 f9b6 c13f 4581 56a9 0326 d43f
00000120: 295f b89d 65cb ec3f 54c0 9f40 b34e d53f
00000130: 9361 ac1b 5eb3 de3f 64c6 f3e6 9dc9 e93f
00000140: 4f29 ef70 8d6a c03f bcbb 304a d7f7 cb3f
00000150: cf55 0884 e78a a7bf 403b 01d1 5c2f e83f
00000160: 5d78 c4f4 1308 ee3f 3ac1 02cf c84e e13f
00000170: ce8d 3a34 7b37 ee3f 6fb9 ee42 151c b73f
00000180: 08db 91f5 dafc d73f c775 d675 7570 e33f
00000190: f3a2 0579 7e7e df3f 49f2 ded1 929b e53f
000001a0: 8daf d4f2 8841 d83f 3825 1ed4 fd4c d83f
000001b0: 7a4c 83cf a7b1 c13f 6059 6a42 cf1c cb3f
000001c0: fade 97f3 d2ed dc3f a0c3 9ba5 2177 ee3f
000001d0: 9a20 ae93 b085 e73f 5ce7 6e8b 3682 ec3f
000001e0: aebb 5c3d 1540 e53f a6a6 3e53 0084 d63f
000001f0: 4c54 0181 7a90 db3f b5aa 63e4 0272 e23f
00000200: 1db8 7292 f79d ea3f 0ae1 8dc5 a79a e13f
00000210: 1246 768e 3cc7 bcbf 3fc2 8d10 7ae7 e83f
00000220: 2d4c 50c3 09e0 bdbf c436 497b d2ca 993f
00000230: e9a1 24f4 fca2 eb3f 6ec8 e21d ee95 ea3f
00000240: a513 e2d6 d80a df3f 3f71 a8a3 2568 d73f
00000250: 872d f962 128a f03f 45b5 ab08 3893 e73f
00000260: 1503 b627 1b4f d63f a56a aa94 d3bd e13f
00000270: 14a9 adae 819b e93f 269c 1458 9ba4 d93f
00000280: e4d7 f949 d4b6 d63f 6951 3730 b899 e23f
00000290: ea76 190e 1c9b e43f fd56 7096 7f6b d63f
000002a0: 7fdb 4de6 959e c1bf 937e cfdf e8e1 e23f
000002b0: 496e bbb3 7796 db3f ea14 bb5d 83a4 ea3f
000002c0: 4b10 92c0 6eb1 da3f 5923 34a2 6587 eb3f
000002d0: 61d1 467c 2774 da3f d4f2 56ab d6de e53f
000002e0: 188e 0656 e9af ce3f 78bb 2642 1a75 e93f
000002f0: e75f b476 1ee3 bc3f ad11 0468 6cdb 90bf
00000300: a107 8a4b ea80 abbf 68e6 f698 5a6e eb3f
00000310: 4e12 52bc 47c0 e23f 67b2 33c8 f21e ba3f
00000320: 218f aa4d cacf c53f 8d82 eba9 11f2 e93f
00000330: 0a1b c59d 22cf e83f d54b 4578 8e11 d73f
00000340: 1593 a7e1 12dd c1bf ca32 6ad3 2ed6 c13f
00000350: 3fc2 589a b5bf d23f 5b5b 666d b918 e53f
00000360: 04d4 60af 43f4 e33f be5d dd68 fecc e23f
00000370: d35f 2816 9d05 e33f 2e87 11aa 7558 f23f
00000380: ba90 fc62 acf0 e23f 4323 b26c db1e e33f
00000390: ac4e 7433 9499 e03f 0ea4 125f d5fb d93f
000003a0: cfc5 27af 6e19 e53f 6061 0452 854e e53f
000003b0: 0a14 6af6 5cf8 ed3f 3715 d155 85f5 cb3f
000003c0: a9ac 59ab 7829 b8bf e52b c58f 6c0e ba3f
000003d0: 72c2 5976 3c60 f03f 782c f3bd 5fd1 cb3f
000003e0: 6249 6c9f 56cf ee3f c43e 1886 841b e83f
000003f0: 87e6 1802 bfed dc3f fcd1 824c bcb9 e73f
00000400: 68cd a183 10e5 ec3f be33 6324 77d9 ce3f
00000410: eb9c 56c3 af8b e83f d4b1 cdc3 8e79 df3f
00000420: ce14 5b8f 5db7 e13f cc77 c7fc 61d9 d73f
00000430: 2dcf ad8c 1bc3 e53f 79ca 42d1 5654 e63f
00000440: 4461 0ac2 4332 e03f 72e6 6af2 8ff4 ee3f
00000450: 5f0d 00ae d539 d93f 7300 07bc 851a d63f
00000460: 86f3 b8d9 0938 ca3f 2d8a a280 f5ff ca3f
00000470: d4b7 30c0 c08c e13f 21ff bf51 d64a e03f
00000480: 66e8 a141 0b05 f03f e5df 3256 1ca5 e03f
00000490: a1cc 453a 2510 ce3f f804 bd4a 0bfd e73f
000004a0: c2a4 050d 92a5 d53f 0569 4ef2 9dea e03f
000004b0: a2c0 ab61 20dd ea3f 8d3e 11f6 1139 d23f
000004c0: 2654 a837 e780 e53f 8ac3 54fe 8fa0 e83f
000004d0: e9a0 e762 07d1 ce3f 08e8 2c52 30ae e03f
000004e0: 5dab 7d94 cb80 e03f 6896 0d6e c0c8 e23f
000004f0: 4e1d 629c a4d5 e33f de0a 9564 fd6c d73f
00000500: 6748 a845 1bd9 c83f ff6b e26e ef64 d93f
00000510: b50b 9905 5d2b ed3f 169e fc8d f902 e03f
00000520: 2354 8b49 be8a ef3f 5345 937c c78b e93f
00000530: 5af3 528b 758a d23f 9fdf 94ad 533f d53f
00000540: e8b9 bcdb 5439 e83f ffb5 8b0d e400 e53f
00000550: 993a 1788 bce3 d93f 86d9 0b9c df40 883f
00000560: 6128 adec ce58 c03f 4913 2d43 8076 e33f
00000570: 798f d805 95ba dc3f 764e 3e0b 8d3b d73f
00000580: a8e4 12a7 472c e23f 7105 6ceb 9a90 ec3f
00000590: fc07 8cfa caa5 d53f 2920 26b2 d23b c93f
000005a0: 6da4 f928 80c6 ee3f 856c 9317 104a a93f
000005b0: 1d53 f4b6 512d e33f 3f6b ff44 8a80 ef3f
000005c0: a4d3 e716 8c44 cd3f 3e62 3146 6205 e83f
000005d0: 1f04 60fc 951b c33f d7cf 9241 6e31 b73f
000005e0: 6096 3717 4638 d83f e729 a5d6 bbfe e33f
000005f0: d0d3 b3e4 7ce1 d63f 8f44 c136 b852 d53f
00000600: 86d3 e6e2 064b a5bf c6fe b77f 7df5 ea3f
00000610: ddeb a25a 37e3 ea3f 67b8 b348 a491 cb3f
00000620: a5b4 c0a4 c797 eb3f 9e55 b279 f996 da3f
00000630: 2449 a540 1b46 db3f 6de9 db79 d31f e73f
00000640: fb9e 6b09 7a48 c33f 8170 0477 39bf e83f
00000650: 14fd ce2d 7a86 e13f c944 a5b5 2a46 c53f
00000660: eec0 3611 1de2 f03f a372 050a 573a e53f
00000670: c8d3 a75f f619 ef3f ecd8 299d 2eee d23f
00000680: dc77 9069 d8e2 e93f 10d3 b035 bac4 e13f
00000690: b6e4 80ed 5cdf e33f 86ad 1319 35f6 e33f
000006a0: b57d 506f 2b58 c03f 2e0f eb36 7289 e23f
000006b0: 2069 4099 1142 da3f ac1f b579 f9ee d73f
000006c0: 0156 b2ba 20bd a5bf ffe6 795d 3dcf e83f
000006d0: c079 e7c4 45d5 923f cdb6 e667 24a6 c23f
000006e0: 9108 039e 0412 f03f 8a01 2b47 7e11 c53f
000006f0: 21c6 0e7d ea94 dc3f 170f 3bd0 6424 eb3f
00000700: f54c 4b96 3523 da3f ff90 3b00 606f e13f
00000710: bc11 0ffb c030 d13f 6650 d109 91ac ec3f
00000720: f728 5097 0d39 b93f c875 2002 9b4d d13f
00000730: cb0c b37e 51c0 d83f 474d a81d cd49 d83f
00000740: c624 bea2 7518 ea3f 8405 9daa a36b c93f
00000750: be1d b723 44c9 e83f 4c65 7408 af97 da3f
00000760: 04b6 8793 2431 d13f cfb8 7621 b800 e63f
00000770: 8564 4c67 aa87 b43f a52a f097 ef82 b03f
00000780: 2f3a 9917 3d66 d33f a430 557d 3ef7 e43f
00000790: f1cf df90 0166 ee3f db58 84c6 389d c03f
000007a0: 9506 6f35 7068 e93f 92e8 dbe2 de8c e33f
000007b0: de37 947d 67f3 c43f 5902 ea8e cd14 e63f
000007c0: 9441 bf2d 1900 d83f 4d19 caec 95f3 d83f
000007d0: 6e7b f608 777b 90bf 3dc3 9ba0 c7d4 df3f
000007e0: ede6 fd34 149d d83f 8ba5 f140 4535 c43f
000007f0: 3278 1d3c c302 db3f 903b bf7e b65a ee3f
