runs/bmi_prediction_5k/model_best.ckpt (torch, 341867 bytes, 30 tensors)

input_encoder.0.weight f8 [16, 3]
000000 6f dd 3d 53 c3 be d2 bf 38 d5 6a 1e 1e de d3 bf
       -0.29289324883526197 -0.31043198557320606
000010 9a f8 b6 6e 38 ba ae 3f d5 9b a5 97 fa f1 c9 bf
       0.060014499201757235 -0.20269710926660758
000020 6f 6a 26 52 4d ff d8 3f bc b2 03 b7 1f 28 ab 3f
       0.39058239958254765 0.05304049595892965
000030 19 ca 17 2c dc be dc bf fc 85 38 26 d6 e2 da bf
       -0.4491491728396411 -0.4200950024843164
000040 74 57 d0 d1 4c b4 92 3f 32 03 c7 ae 4a 7b cb 3f
       0.018265915208835762 0.21470006498386734
000050 b9 a1 db 7b ca 54 e0 bf fc 92 f9 4e c1 f9 d8 3f
       -0.5103504580593415 0.3902438422431229
000060 c9 43 40 86 48 0c c1 bf 93 b1 66 88 00 db da 3f
       -0.13318735652185712 0.41961682625221747
000070 4d d0 c8 71 37 3c d9 3f c3 14 15 fc 99 7c c2 3f
       0.3943003283668574 0.14442753609379197
000080 04 1a 57 31 fd 95 e2 bf bc b3 1e 1f 21 b6 d9 3f
       -0.5808092082668854 0.4017412952333037
000090 0e c8 17 8c 19 85 b5 3f 80 63 dd d8 b7 b7 d9 bf
       0.08406219167935111 -0.401838266164809
0000a0 51 0b 5f 3f 53 57 a0 bf c6 a2 d6 68 57 e2 da bf
       -0.031916238294363304 -0.4200647853672702
0000b0 c2 44 02 1c ad 55 dc bf 8e b1 12 e7 3a 42 af 3f
       -0.4427292607807197 0.06105217047420118
0000c0 01 78 58 5f d5 92 af 3f 9e 56 3c e2 00 cb b3 3f
       0.06166712559591759 0.07731633685429037
0000d0 05 b0 ff 41 03 02 d4 bf 22 af 63 aa 37 cf c8 bf
       -0.31262284703439064 -0.19382377452654348
0000e0 e8 18 e7 73 51 74 c0 3f ec 87 6b d7 11 44 c1 bf
       0.12854974898636518 -0.13488982218319678
0000f0 a1 26 85 f3 18 96 d5 bf ef 59 ba ab e3 e8 c3 bf
       -0.3372862222791842 -0.1555447186007792
000100 26 3d 30 df 5c dc db bf 01 d0 db 2f a4 2c c2 3f
       -0.43532487674470344 0.14198734604690347
000110 a5 aa f2 81 a5 b6 d9 3f 3e 37 f4 91 69 5a db bf
       0.40177285852647976 -0.42739333394353085
000120 3c f7 a0 93 7c 11 d6 3f b4 3b 74 61 16 6d d8 3f
       0.3448172990500671 0.38165816800113395
000130 40 cf ed 35 ed 41 a4 3f c2 45 c4 be c3 db cd bf
       0.03956548007309246 -0.23326918425349957
000140 84 1e ea 4a 2d 37 db bf 7b c2 d2 29 8d fb c8 bf
       -0.4252427321994008 -0.19517674009468408
000150 36 97 5a 36 33 55 b6 3f 7b ff 4a b4 08 15 c0 3f
       0.08723754956244253 0.12564190677039364
000160 b8 9d 55 9f 13 e0 de bf 16 a0 e2 e0 8e 1d aa 3f
       -0.4824265533447618 0.05100676055127466
000170 75 f7 d6 8b 3a f8 a5 3f 30 4e 21 2c c3 c6 d3 3f
       0.042909459657933725 0.3090064936597825

input_encoder.0.bias f8 [16]
000000 ae d4 ab 18 2c 15 dd 3f 17 56 65 1f 0f af cd bf
       0.454417251675589 -0.2319048789310478
000010 77 87 22 13 40 26 c9 3f c2 bd e0 09 77 cf d4 3f
       0.19647980627365388 0.32516265835417013
000020 cb c3 b4 20 ff 15 e0 bf 76 14 86 35 66 60 ae 3f
       -0.5026851309577237 0.05932921794286809
000030 9c 9c 44 1d 3c cc dc 3f c4 75 6b f1 45 07 dc 3f
       0.44996550424770887 0.4379439218153858
000040 d8 5a 71 ea 55 78 d3 3f 69 6d 06 d9 2d 65 d5 3f
       0.30421970267108867 0.33430048173769095
000050 1c ef 4b 55 53 71 bc 3f 3d 12 7b a4 c3 85 ce 3f
       0.11110421020924516 0.2384571602944038
000060 2b 84 3d 8c 93 3f de bf 34 3a 65 7c f0 09 b2 3f
       -0.4726303929838333 0.07046416317937415
000070 e5 25 42 d6 94 69 ad bf 37 85 d9 71 3f 72 cb bf
       -0.05744614711245414 -0.21442406710688441

gnn.conv_layers.0.conv.lin_l.weight f8 [32, 16]
000000 e6 ad d6 37 79 62 5e 3f 79 47 62 68 72 8b a8 3f
       0.0018545326014230922 0.04793889545648162
000010 40 48 17 bc 5d 92 c8 bf 8b b3 80 cd 9a fc c2 bf
       -0.19196674045685036 -0.1483338836127611
000020 c9 5e 12 dd 35 4c 91 bf 82 75 c4 12 c3 bc 6a bf
       -0.016892282121800748 -0.0032638368630972256
000030 38 5d eb 61 c1 5c c4 3f 45 36 88 5c 1b 16 c5 bf
       0.15908067017765304 -0.16473714845817447
000040 d0 d9 8b 19 af 30 c8 bf 11 f0 2e d8 78 26 77 bf
       -0.18898571727159075 -0.005651924179741045
000050 df 7b ec cc be b7 be bf be 77 43 17 96 b6 c1 bf
       -0.11999123099347696 -0.13838459144511533
000060 99 21 55 18 70 b0 a9 3f 87 81 2d 3d 08 65 c3 3f
       0.05017423913028835 0.1515207575530548
000070 5e d4 10 93 41 11 a2 bf 12 19 99 ff 05 dc b2 bf
       -0.035287903978691956 -0.07366979112802977
000080 6f b5 c2 ef cb 84 b7 3f 38 16 76 54 85 c4 d1 3f
       0.09187006572274979 0.277619678956714
000090 a5 aa cf 49 5e 58 b1 bf 6f 89 7c 7d 7d 06 c1 3f
       -0.06775464345961753 0.13301056506413597
0000a0 84 60 1e 1d d3 75 d6 3f 36 d5 06 31 9c fe 74 bf
       0.350941446720306 -0.005125627635085997
0000b0 22 01 da 53 e2 e2 ae 3f 05 00 18 ef 17 89 b1 3f
       0.060324738250530766 0.06849813067674411
0000c0 79 75 ee 39 a5 e3 98 3f 7b 62 b9 7b e2 20 9b bf
       0.024305898342949803 -0.0264926326766237
0000d0 0c 8c 63 97 58 63 ce bf d7 5a c2 63 7a e1 c8 3f
       -0.2374068011477849 0.19438104506544704
0000e0 46 b4 11 76 33 32 b4 3f 62 4f a9 ac 99 0a cf bf
       0.07889100678012637 -0.24251099520426594
0000f0 bc fc 29 da 9f 86 c4 3f 0c ca a8 8e 36 e4 cb 3f
       0.16035841133632356 0.2179020115450644
000100 2c b7 d1 b3 74 c2 bc bf be cd de 3f 6a a4 99 3f
       -0.11234216108433931 0.025041256092391377
000110 53 63 4e 1f 5d 10 cd bf aa 43 05 77 08 5b ca bf
       -0.22706188229201504 -0.20590310870696032
000120 41 de 73 dc 4b c5 b1 bf ef 99 d0 27 6b 64 b2 3f
       -0.06941675312179375 0.07184476587335785
000130 15 2a 32 8f 0f e8 c1 3f 82 ad f8 0d 9b ec d3 bf
       0.13989443294515583 -0.31131626476663865
000140 25 5d 98 56 dd dd cd bf 3e a7 a4 d0 74 7c bf bf
       -0.23333327034263465 -0.12299280256106912
000150 1b 35 03 81 13 b8 ad bf 11 54 8a c5 79 ca 97 3f
       -0.05804501485691046 0.02323332088652214
000160 03 03 13 dd a6 cf b0 bf e6 b8 dc 04 ed 26 cb 3f
       -0.06566851517983356 0.21212542283451014
000170 6a cd be 40 8b a0 cb bf 2b e9 81 f1 3c ae c9 3f
       -0.2158369127406375 0.20062982361179968
000180 a5 ab e7 63 09 de d1 bf 56 68 0e 27 73 57 a3 3f
       -0.2791770434984591 0.03777656413804269
000190 46 63 12 99 d5 87 d0 3f ca 84 ee 07 72 d1 ad bf
       0.25829067181034693 -0.05823856684515645
0001a0 0f 6d 35 f2 8f ca ad bf 80 af 52 7c 6b 3c b4 3f
       -0.05818605262421716 0.07904693398694285
0001b0 4b e7 e6 f5 49 9f c5 3f a3 cb 5d 66 fd 38 ba bf
       0.1689236117070386 -0.1024320959966603
0001c0 24 a0 fc 2d 5d 0c bb 3f b4 a9 d3 b1 f5 53 b6 3f
       0.10565740940785467 0.08721862403368769
0001d0 f8 4d 8c 54 81 1f 9c 3f 30 95 75 06 e6 ca ae bf
       0.027463932786373463 -0.06014174298142405
0001e0 90 af 2e 5d 5a ca bc bf 13 e3 bc 93 8d 29 62 3f
       -0.11246266150436512 0.0022170796563866307
0001f0 10 c9 6e 5b 3d 90 bc bf 50 aa 76 2d 1d 35 cd bf
       -0.1115759227966786 -0.2281834098806308
000200 3a c9 40 29 a2 26 a6 3f dd be e7 3d 95 16 d0 3f
       0.04326349977090378 0.2513783554595486
000210 49 5c 48 de 67 b6 bd bf df d3 9e df 97 cd c8 bf
       -0.11606454064200124 -0.19377420824972
000220 ce ab 25 08 7a 6e d4 3f 62 e7 f0 15 5d 1c 8a 3f
       0.3192429618417777 0.0127494118042823
000230 52 4c a8 32 7a 63 ae bf 5c d1 23 3f 68 39 d2 bf
       -0.05935270183922427 -0.2847538582421032
000240 2e b1 db 17 d6 07 bc bf d7 86 36 8c 3b 3a ce bf
       -0.10949457247233305 -0.23615211817109724
000250 0b 8e 4c 17 b1 5a d4 3f df 3e bf 0c be 21 c5 bf
       0.31803538584992513 -0.1650922357789488
000260 50 ec 57 76 f3 32 d3 3f e4 40 9b 97 82 f9 be 3f
       0.29998480374314784 0.12099472237901271
000270 e7 ac 6c ae 6e 05 b9 bf 83 75 00 70 e3 29 c2 3f
       -0.09773914106760949 0.14190333336675218
000280 f2 b0 98 2a 19 5c c9 3f 54 5d 7f 8f 27 5b d3 3f
       0.1981231172552565 0.3024386311858127
000290 b5 c4 fa 7f c5 1d b7 bf 7c 02 79 29 dc ca d5 bf
       -0.09029802679539752 -0.34050659227435864
0002a0 ce 3d c8 4f fc 34 c4 bf b4 a3 96 b7 9f 90 e2 bf
       -0.15786699195494552 -0.580154284068263
0002b0 54 64 d2 05 a1 7b ac 3f 77 54 e3 8d 86 e1 bf bf
       0.05563071437899994 -0.12453499759733853
0002c0 f5 8e 8b 58 7a cb c6 bf 15 1f f5 b7 45 97 d1 3f
       -0.17808465312474878 0.2748579307994857
0002d0 86 a6 d9 24 c7 7d b7 3f e0 e2 9d 57 ff e4 a9 bf
       0.09176296853697793 -0.050575236745265206
0002e0 55 28 87 20 a7 0e c0 bf a7 3d f0 eb 1d 00 c8 3f
       -0.12544716919211632 0.187503566936795
0002f0 f0 6a 0e 52 af 18 b9 3f 76 7b 6d c7 b9 7d d9 bf
       0.09803291085556132 -0.3982986876998703
000300 37 5f d4 68 46 7a b0 3f 67 a7 9d 44 4d fe c9 3f
       0.06436576899829737 0.20307317591078375
000310 b6 20 0b 20 c4 d3 cc bf 5b 5c af a6 c6 ba c9 3f
       -0.22521258892652946 0.20101245058933412
000320 8b 8c 0a 05 1a 14 bf 3f 33 7b d6 41 b0 0b cc bf
       0.12140047667576163 -0.21910670485245873
000330 c8 b0 2d 25 c5 d0 ac bf 06 8e 24 2b 7d ee c1 bf
       -0.05628028944815494 -0.14009060484487196
000340 cf c5 81 24 84 a9 c2 bf 40 1e 07 4e 91 86 8a 3f
       -0.1457982233292072 0.012951979821891446
000350 e8 5d 92 90 65 d0 cb bf 7c 30 5d d3 75 b3 b2 bf
       -0.2172972637097097 -0.07305084619764729
000360 7e c8 e4 07 6e 73 cb 3f 50 df 80 dd 7b bf c5 3f
       0.21446013818200876 0.16990612331005162
000370 dd c2 38 68 de 19 cd bf 6a 1f 03 de 47 e8 c0 bf
       -0.22735195244742715 -0.13208864536704407
000380 1e 74 9f c6 67 7b bd bf 8c fe f6 30 35 0d d2 3f
       -0.115164266578589 0.2820561388179861
000390 5f 0e 69 40 6b 70 af 3f 25 3b 84 97 ea 91 d4 bf
       0.06140456353435008 -0.32140602871452223
0003a0 1f cf ce d5 6f 34 ba 3f cb aa 97 f2 11 09 94 3f
       0.10236262292783892 0.01956584971586998
0003b0 61 f5 0b dd 9f df c7 bf 1a db fb ae 3c d3 b3 3f
       -0.18651197713181047 0.0774419715124676
0003c0 a5 1e 63 e3 ed 70 da bf 56 ab a1 84 24 71 c2 bf
       -0.4131426544740669 -0.14407783962391346
0003d0 22 17 fa 4b 18 71 aa 3f c2 2b a5 8e e8 4c 95 bf
       0.05164409568264562 -0.020801194864627844
0003e0 7b de 63 b3 1f 6c ce 3f 8b 7a 1a e2 38 4f dc 3f
       0.23767467746050727 0.44233533935941044
0003f0 85 ca 02 65 98 fa 72 3f 02 a5 ad 51 71 77 91 3f
       0.004633517543129022 0.017057200060127016
000400 1b ff 6a 19 41 69 cf 3f d7 a6 c3 50 01 e4 d1 bf
       0.2453996061431035 -0.2795413292611619
000410 88 a3 d9 66 ae e2 c8 3f 6e d5 01 d5 a0 4b 9f 3f
       0.1944177629659658 0.030561936379361603
000420 1f f0 7b 7b a2 14 c0 bf 79 2b 63 dc 3e c4 d9 3f
       -0.12562972096918743 0.4026028778286484
000430 a5 bc 6b fa 50 15 bb bf b4 7b f8 4a 80 40 d4 3f
       -0.10579401124754158 0.3164368373999722
000440 68 1c 6d a0 b2 f3 8f 3f 22 7e 93 fa 23 be bf bf
       0.015601535340137043 -0.12399506442624689
000450 8e 12 06 79 f5 5d 9e 3f cc 0b 59 7a 7e 8c 7b 3f
       0.02965529967470331 0.006725782446269823
000460 99 55 ce 39 32 c6 97 bf f2 97 e9 f1 4e 34 a2 bf
       -0.023216995981405118 -0.03555533125908984
000470 36 3c 95 fc 75 c3 aa 3f 03 4a 39 02 39 5b cc 3f
       0.05227249820983852 0.22153389557441025
000480 4b 06 ab a4 66 bd ce 3f 97 66 7f 77 c2 5f bb bf
       0.2401550582927022 -0.10692992608474082
000490 4f 51 3b ed e2 82 c6 3f fa e7 d7 d0 a4 b6 cc bf
       0.17586933692531168 -0.2243238467925151
0004a0 06 84 39 dc f7 c9 b4 3f c3 41 3e ee 10 05 cb 3f
       0.08120679022387386 0.2110921061798888
0004b0 6b 52 90 c7 0b 3b b2 3f 3c c0 45 51 1f 1f ce 3f
       0.07121347067033816 0.23532477825529152
0004c0 6a f0 76 67 76 9c be 3f 6a 61 1e ac b5 ec bf 3f
       0.11957492853156429 0.12470565273395598
0004d0 a4 f3 60 8f be b5 b6 bf 4d bd 16 16 d4 b6 cf 3f
       -0.08871069908577894 0.24776698187404592
0004e0 c1 47 a9 09 09 08 d0 bf b2 1b d4 88 14 c1 c6 bf
       -0.2504904360149532 -0.17776734047967363
0004f0 3f a9 08 ff c8 fe d0 bf 10 c1 5e fa f6 88 c4 3f
       -0.2655508509220858 0.16042983269790811
000500 f3 ca e9 8f 57 b9 b3 3f a6 cb 96 80 66 28 c2 3f
       0.07704684508807329 0.14185792235147437
000510 d4 98 b3 02 74 a3 95 bf 7d 6e c8 79 b5 18 bb bf
       -0.02113133684624631 -0.1058457777330037
000520 fc 6b ce 2b 8b dd ae 3f a2 dc 22 5c 9f f1 c0 bf
       0.06028399381394675 -0.13237373350941534
000530 37 e3 df 08 a8 80 b9 3f b8 e8 26 1b 90 83 c2 3f
       0.09961939064659196 0.14463998151570023
000540 39 d8 a9 2e c9 b7 ab 3f d4 82 0c ae b8 a4 b1 bf
       0.05413654989835987 -0.0689196991847994
000550 b4 be 11 f7 23 d1 88 bf f9 93 05 2c 7b 81 cc bf
       -0.012117653825242193 -0.22270145081998274
000560 14 2e ff 17 e7 c4 be 3f 0b 0d 27 26 f6 61 bb bf
       0.12019199691638277 -0.10696352416475834
000570 27 1d 92 c7 c4 13 ca 3f 10 70 7a 14 24 6c a1 3f
       0.20372829193750272 0.03402817487696563
000580 00 00 00 c0 19 46 cd bf 00 00 00 c0 46 4c cd 3f
       -0.22870180010795593 0.22889026999473572
000590 00 00 00 00 76 f7 a6 bf 00 00 00 40 c4 5c c8 3f
       -0.0448567271232605 0.19033101201057434
0005a0 00 00 00 00 77 57 ba bf 00 00 00 80 17 3a be bf
       -0.10289710760116577 -0.11807391047477722
0005b0 00 00 00 00 2a 56 ab 3f 00 00 00 c0 f7 bf c8 3f
       0.05339175462722778 0.1933583915233612
0005c0 00 00 00 00 ba 34 a1 bf 00 00 00 00 b5 a0 c7 bf
       -0.03360539674758911 -0.1845918893814087
0005d0 00 00 00 00 68 65 a0 3f 00 00 00 00 5f e3 bc 3f
       0.03202366828918457 0.11284440755844116
0005e0 00 00 00 00 12 c5 c5 3f 00 00 00 00 f8 bf a3 3f
       0.17007660865783691 0.0385739803314209
0005f0 00 00 00 80 5b 9c b4 3f 00 00 00 80 30 4b c5 bf
       0.08051082491874695 -0.1663571000099182
000600 82 8f 3b 1f 49 8f c2 3f f9 90 ef 50 87 7f c1 bf
       0.14499773049385217 -0.1367043633646359
000610 97 80 2a 00 d7 22 d6 bf a5 f9 fd 5e cd 78 6e 3f
       -0.3458764554616293 0.0037197123673983917
000620 49 fb 17 87 1d c3 c7 bf 13 3c 0e 58 e2 48 c5 bf
       -0.185641947711668 -0.16628674792852446
000630 44 06 1c 89 2a 40 7e bf ed 53 f6 b8 b7 5a b6 bf
       -0.007385412363647929 -0.08732174173049119
000640 33 84 da 88 a0 a1 be bf 57 8b 06 68 bf 95 cd bf
       -0.11965373364593361 -0.23113243655560708
000650 d4 4e c0 01 d7 d7 aa 3f cf bb b6 2a 98 23 b5 bf
       0.052427977527398945 -0.08257437746827566
000660 8c 92 4b fd c8 a6 c2 bf 84 42 70 81 e1 a4 cb bf
       -0.14571487777643133 -0.21596926517715442
000670 dd 1b 46 cd e4 9b ab 3f 19 bc cb 0f 6a 2a c6 bf
       0.05392374997887093 -0.17316938182145306
000680 6e eb 23 06 b5 d5 a5 3f 1e 61 79 bc f8 34 c0 bf
       0.04264608097033472 -0.12661656573141838
000690 ff b7 53 48 67 50 c3 3f 78 b4 c3 ac fb 7a a1 3f
       0.1508912184867199 0.034141411628163476
0006a0 e3 b5 2a b8 69 e4 c1 bf fa d0 f7 40 a3 51 9c 3f
       -0.13978311054726963 0.027655173149427427
0006b0 48 a1 96 e8 32 80 9c bf dc 4e 02 04 a0 88 a6 3f
       -0.027832789846486322 0.044011116494542896
0006c0 9e 94 b5 1e af 9b bc bf 7c f2 88 04 3d 36 bf 3f
       -0.11175055026758904 0.12192136154858163
0006d0 6d 29 e5 26 44 05 ce bf a8 a1 13 76 5b 80 ce bf
       -0.2345357122342863 -0.23829215302909046
0006e0 22 e2 7d 2d 3d 8f 91 3f 0c 17 a7 c2 31 f4 ba bf
       0.017147975827784497 -0.10528861047995636
0006f0 4d f7 40 3e cf f4 bf 3f 6e 0f d2 f9 19 7f ce 3f
       0.12482924718730466 0.23825382898587172
000700 0e e1 c2 2e 38 57 bc bf fb a0 1c 30 45 b9 aa bf
       -0.11070586339599606 -0.05219474994948033
000710 e5 b6 76 ab 0c 00 b7 bf 48 ed 5f 8d 38 8a c0 bf
       -0.08984450517774752 -0.12921816733419633
000720 ee 2f 0a 61 e3 b0 97 3f 96 ef 1b 76 5a 2a b0 bf
       0.02313571243080042 -0.06314626105807827
000730 23 8b d9 5f 50 05 c0 bf 88 c1 cd ce 7b 12 d1 bf
       -0.12516216926732068 -0.26675315089871576
000740 85 45 77 b7 14 16 ba 3f a8 9f 12 46 0d d3 d2 bf
       0.10189942816875515 -0.294131582670611
000750 98 42 d9 ca ec 9d c3 3f 59 87 9e bc 8f 7f c6 bf
       0.1532569876167329 -0.1757678671829648
000760 3a d8 b8 eb 78 dc bc bf 80 82 b9 f3 a8 be b7 bf
       -0.11273914103443952 -0.09275299024876382
000770 94 05 92 dd 5a 69 b3 bf 12 19 de 51 1a 63 c3 bf
       -0.07582633885797058 -0.15146187779846138
000780 81 6b b5 4b cd 84 c5 3f 55 6d 69 9e e8 45 c9 3f
       0.1681152934714554 0.19744594321205491
000790 12 b0 3b 87 4f d1 a1 bf 4b 7a 85 5b 3c 3b bb 3f
       -0.03480003858371118 0.10637261614235986
0007a0 ae 18 0f 22 06 0d c4 3f 81 4e cd 5c b0 d3 b8 3f
       0.15664745963130627 0.0969801165168125
0007b0 7d 33 6f 04 0e a4 b6 bf 91 db 92 f0 54 e5 c5 bf
       -0.08844077690373627 -0.17106115099678879
0007c0 2e bf f4 a0 bb 39 bb bf 90 93 31 04 87 2e b9 bf
       -0.1063496845206344 -0.09836620190033174
0007d0 4c f3 9e e8 71 8e b5 3f a5 2b da 3c 34 ae b6 3f
       0.08420478753300847 0.08859564290666684
0007e0 17 b1 bd 55 3c 69 b3 bf 6a d6 b5 d7 1f bb c3 3f
       -0.07582451909337738 0.15414808304528843
0007f0 f6 d3 5b cd 7f 06 c8 3f b4 e9 3c 67 ff f6 c1 3f
       0.18769834067612096 0.14035027066149797

gnn.conv_layers.0.conv.lin_l.bias f8 [32]
000000 55 2e 5b f7 97 dd a0 3f 17 35 12 ae b8 01 cb 3f
       0.032940625138135594 0.21099003314558537
000010 c6 a3 e0 a9 46 2c cf 3f 53 96 1b 48 59 3a cb 3f
       0.24353869719314342 0.21271816273581354
000020 d6 43 78 ad 82 47 ad bf a2 11 38 45 84 2b ac 3f
       -0.05718620650817001 0.055019505929553306
000030 da 94 f8 65 3e 91 cb bf 04 60 63 8c ae e7 cc 3f
       -0.2153699872880342 0.22582036833659924
000040 cb 04 5f b8 0c 49 b2 bf 01 44 8e cd 5e 31 d7 3f
       -0.07142714978455726 0.3623883254413727
000050 d8 a9 45 d5 6f 2b 82 3f 00 00 00 00 7b 58 cd bf
       0.008871911712692901 -0.22926270961761475
000060 4f 13 73 31 2e ea c9 bf fa 08 1e 64 86 55 d1 3f
       -0.2024591199352934 0.270845029612374
000070 69 63 06 5b bf 7b 92 bf ca eb b6 ef b1 a9 bd 3f
       -0.01805018418380958 0.1158705911865773
000080 0a 44 cf 99 d7 91 71 bf f4 58 6d 38 70 4e c8 3f
       -0.004289476576517801 0.18989374881011367
000090 45 8c c2 e7 9a 79 c9 3f 15 60 87 52 d6 c5 c6 bf
       0.1990235931053538 -0.1779125121090607
0000a0 4c 7f 21 f6 f8 ba c0 bf 63 8a 1a 6c 5e 44 c2 bf
       -0.13070594804866642 -0.14271145132541382
0000b0 a7 bf 07 7f 21 06 92 3f c1 90 e8 09 cd 58 ce bf
       0.01760151231604792 -0.23708498939334358
0000c0 37 31 ad 24 e9 cd c7 3f 11 b6 c2 41 8f ef c3 bf
       0.18597139635893153 -0.15574827872244204
0000d0 8f 53 54 8a 70 83 ab 3f 7c ac f6 0a 33 5d c9 bf
       0.05373717964736279 -0.19815671954470193
0000e0 00 00 00 40 6f 99 c8 bf a4 12 27 e4 f8 2a 85 3f
       -0.19218245148658752 0.010335869276681571
0000f0 66 b6 2c 6d bf 53 c0 bf d6 d7 04 9f 96 77 bf bf
       -0.12755577879709107 -0.12291852361963093

gnn.conv_layers.0.conv.lin_r.weight f8 [32, 16]
000000 41 8f db f6 66 00 cc bf 15 cf e8 66 be 05 c5 bf
       -0.21876227429958742 -0.1642377855765679
000010 27 18 b7 0e 55 31 c4 bf f4 2c c0 f4 1b 9e d0 3f
       -0.1577555009700415 0.2596502199309747
000020 a4 00 95 e8 0b 19 ba 3f 3d c3 1b 23 83 47 d6 3f
       0.10194467952988134 0.34811476162490235
000030 38 13 2c 5b 79 c1 bd 3f aa d8 4d 67 d4 89 c8 3f
       0.11623342967875494 0.19170622867722403
000040 39 c4 67 f0 8c 6c 9e 3f d0 07 f7 62 53 18 d1 bf
       0.029710962460687027 -0.26710972466036953
000050 9d 55 36 60 04 0a c3 bf b5 0d a2 b0 b4 52 d3 bf
       -0.14874319742072553 -0.30192296265905877
000060 d5 c1 de 53 eb 0d cf bf 7a 58 4c 2f 05 79 d5 3f
       -0.2426122817537492 0.33551149004905023
000070 1e 7e 1a 33 e4 7c c5 bf ac 0b 46 70 c9 83 93 3f
       -0.16787388320243307 0.019057414510381385
000080 14 18 ee 1d 84 77 c4 3f 29 bd 46 49 7a 74 c2 3f
       0.1598973413603636 0.1441796167177725
000090 68 35 7a c2 f8 5b c2 3f b8 a4 57 f4 6b ee d1 bf
       0.1434317540737695 -0.280177105537017
0000a0 9b d7 4a 10 8a 66 d3 3f 44 c5 7d 93 49 a8 c4 bf
       0.3031335028748516 -0.16138572408412177
0000b0 fe 0d fb fa e6 f3 d0 bf 19 45 57 28 e2 b0 b3 3f
       -0.26488661298591853 0.07691777691731651
0000c0 dd 27 4a 39 6d 04 c2 bf 0a 2c bf 87 db e4 c1 3f
       -0.14076009080264287 0.1397966778589253
0000d0 64 81 16 65 bb a9 b5 bf c3 74 a2 43 f5 ca c7 bf
       -0.08462115495649908 -0.18588128855200212
0000e0 27 f4 4e 25 ff a9 93 bf 7a 1e 54 50 33 84 d2 3f
       -0.019203173305630507 0.28931887478436347
0000f0 11 c9 2d ae 0f b4 9e bf 64 60 86 77 37 35 be 3f
       -0.029983754163773805 0.11799952190483648
000100 bc 10 c5 34 cd 29 b1 bf e2 f4 d3 8e e7 12 c9 bf
       -0.06704409159016483 -0.1958894202615858
000110 46 68 c1 c5 ab 65 c5 bf 72 26 e8 58 92 8d 80 3f
       -0.16716525226621765 0.008082526529523213
000120 0a ac fa 73 32 7e c7 bf b4 7a 5e 54 c4 5c af bf
       -0.18353872931524534 -0.06125463037391424
000130 0e 9d ef 5b 3c f3 ca bf 4d 13 b5 ac ad 52 ce bf
       -0.2105479668527796 -0.23689814503645792
000140 43 00 a1 f2 15 73 c4 bf da b7 c4 69 a0 cf b5 3f
       -0.15976213786234625 0.08519938070523328
000150 17 e3 a3 63 9a 99 c3 bf f8 96 1f 28 1f 58 ae 3f
       -0.1531250940822921 0.059266065261722234
000160 f9 48 ae 29 3b 84 b9 3f c8 76 4d 3f 1a 68 c2 3f
       0.09967393653485947 0.1438019570440956
000170 2d 22 fc 92 99 70 d2 3f 40 22 6d 62 14 0c cd bf
       0.28812255243295476 -0.22693114095661038
000180 d3 da 5f cd 3d 18 c3 bf fb f0 51 5f 9b 6b c8 3f
       -0.14917728927658533 0.19078390268612808
000190 5d 01 b8 5d e7 8c a4 bf 76 ed 8f a6 b9 f8 d1 3f
       -0.04013751048114742 0.28080598131028667
0001a0 7f 0b 87 3a 1b 23 a6 3f 05 df 8d d7 61 f6 ce 3f
       0.0432365902847982 0.24189398789507535
0001b0 96 4f 5b f1 68 c2 d3 3f 51 1d 38 b8 3c 5a b3 bf
       0.3087408406256541 -0.07559566018618581
0001c0 61 a8 eb 83 7b ea ba bf 1f 24 d5 2f bc fa c6 bf
       -0.10514041872707615 -0.17952682815146745
0001d0 8a c7 0f 9f 6f d5 c2 bf b2 5b 76 40 4c 2d cb bf
       -0.14713855044061247 -0.21231988093924553
0001e0 27 d3 4e c6 b9 64 a5 3f ea 03 25 d6 1b 6d bd bf
       0.04178410096884582 -0.11494611719264439
0001f0 9f 2b 14 97 0e 70 9a 3f d9 03 4c 62 c1 bc cb 3f
       0.02581808850394973 0.21669785785346
000200 52 35 8d 3a 28 4c ca bf cb 9a 57 7c c1 ce c0 3f
       -0.20544913157429306 0.13130968638798488
000210 6e 17 c3 cb 73 2d d0 bf 0b 41 ea 65 3b 6b c9 3f
       -0.25277418993606815 0.1985849616653542
000220 6a d6 26 13 39 5e ce bf b9 3c 02 1e e5 5f b8 3f
       -0.23725045619146395 0.0952132414115451
000230 dc 3d 4c f9 7d 14 aa 3f 42 5a df c7 a1 47 bf bf
       0.05093759220300928 -0.1221867669076824
000240 a2 d8 d0 e8 9b e1 bb 3f 92 26 53 01 56 31 c3 3f
       0.10891127046565655 0.14994311394393783
000250 7a 53 34 24 2f 50 c5 bf c3 b7 c2 bd cf 7f c3 3f
       -0.16650952594559582 0.15233799710898496
000260 dc b6 a6 93 40 33 b2 3f 41 f8 73 fc 4c 90 b2 bf
       0.07109454731718351 -0.072514354356799
000270 5a 31 02 59 dc b9 c0 3f 4c 5d 83 de 4d 9a 8d 3f
       0.13067201944466939 0.014454468110143857
000280 f9 7a 88 2c 1c 0f 82 3f 07 1d bc d2 fe f6 bf 3f
       0.008817882641833462 0.12486260075467125
000290 70 04 7d e0 4c bd b4 3f 85 0d 5f e2 20 01 b1 3f
       0.08101349335358221 0.0664234688438708
0002a0 e5 eb 76 59 a3 23 a8 bf 30 e1 2f e2 c3 fd b3 bf
       -0.04714689700218581 -0.07809089920181544
0002b0 0c 83 95 91 a0 7c c7 3f 53 f6 4f 64 fe 55 cd 3f
       0.18349082096667535 0.22918682001175003
0002c0 26 e6 ca ab f5 e1 b0 3f 64 b0 a7 9c d2 c1 91 3f
       0.06594787067560812 0.017340937434639506
0002d0 72 ca 4e 52 e0 68 c0 bf d4 44 7e 8f 2e b6 74 3f
       -0.12820056933340457 0.005056554677041098
0002e0 c6 33 b8 cd 33 ad a8 bf 17 9c 6c 95 39 0d bb bf
       -0.04819642912125448 -0.10567054651311057
0002f0 2c 70 75 c9 08 fa a6 bf 25 7d 96 f4 72 f0 9c 3f
       -0.044876360504275986 0.028260990313012564
000300 0f 85 e3 93 f5 85 d0 bf 97 5a 9c 2f 91 a0 c0 bf
       -0.2581762260652604 -0.1299001200174714
000310 36 99 a6 fc 15 18 a7 bf 48 73 5e 86 c8 ba b1 bf
       -0.04510563572994146 -0.06925633697978839
000320 70 87 03 7f cd 48 c8 bf 99 10 d5 ea 3d 24 b0 bf
       -0.1897217626747607 -0.06305300696573325
000330 1e 32 4a b6 26 33 b4 bf f4 d7 60 d3 93 d5 c3 bf
       -0.07890550566134677 -0.154955366336878
000340 58 16 8c 0a 36 27 c0 bf 20 4a 12 a8 fd 04 99 3f
       -0.1261966277599409 0.02443310106589014
000350 a6 4d c8 bb 9f b0 c1 3f 86 37 cd 48 19 1a d1 bf
       0.1382026354700489 -0.2672179423287776
000360 58 82 0b bf 20 ed bb 3f 9b c7 a8 b2 75 6c ad bf
       0.10908703483756577 -0.05746810727977377
000370 3c df c4 a1 c9 6f 93 3f 44 47 0f f4 bb c5 cb bf
       0.018981123446081258 -0.2169718686769163
000380 13 75 86 42 aa bc b6 3f 62 43 63 06 b4 10 b8 bf
       0.08881630062247252 -0.0940048709483228
000390 a0 16 d1 73 2d b6 ba 3f 98 ed a3 a5 6a 85 c2 bf
       0.10434230878407869 -0.14469655120761327
0003a0 86 89 9f 7f 50 b3 d2 bf 17 7e 96 1f c8 f1 d0 bf
       -0.29219448531343806 -0.2647571857905588
0003b0 a9 ee 88 c0 c2 9c a7 bf a0 d2 16 df e2 d9 a9 bf
       -0.04611786461142959 -0.05049046490913622
0003c0 32 f4 da 9a 61 8c 98 bf 65 33 9e 69 89 47 bf bf
       -0.023973012043587434 -0.12218531445087207
0003d0 16 6a 4c 23 db da a1 bf 11 12 0d 2a d1 8e b4 3f
       -0.034872863825700914 0.0803042152084077
0003e0 70 bf 35 80 c1 47 a6 3f 53 53 d2 01 52 8d d3 bf
       0.04351620378554244 -0.30550050905121856
0003f0 be 45 1a f5 86 31 82 3f 64 94 20 04 cc 26 ba 3f
       0.008883528094233092 0.10215449429286277
000400 31 ae 0b 6b 2f c8 ca 3f bf f7 0b 10 8c 09 bc 3f
       0.20923416830861322 0.10952067748800597
000410 54 9f f9 52 21 92 c9 bf a3 69 b8 00 71 55 a3 bf
       -0.1997720389510912 -0.03776124128144722
000420 ef 74 67 cd 0e db 73 bf d4 dc 91 2e f6 ab ca bf
       -0.004847581693380606 -0.20837285303034625
000430 fd d8 86 81 82 4a a8 3f f7 0f 52 ce 0a e1 c0 3f
       0.04744346457612101 0.13186774324651626
000440 c3 a5 0b eb d1 ae d0 3f 23 24 04 69 f0 a2 c1 bf
       0.26067016557371064 -0.13778500678771008
000450 4b bc ea a2 e9 0e cf bf 82 5d 63 06 e0 fe a8 3f
       -0.2426425977223253 0.048819542674830366
000460 49 19 58 0d e6 72 cd bf 46 a3 f6 f7 3e b1 a9 bf
       -0.23006892825669414 -0.05018040444276166
000470 6c 32 df 3b ef 48 c6 3f cf 6e b2 2f 58 41 b5 bf
       0.1741007845252115 -0.08302832760312671
000480 f3 0d 05 30 3d 9f b9 3f 63 46 7b 5d 8a ba cb bf
       0.10008604452473673 -0.21663026394394355
000490 38 af 95 d1 52 1f be bf e1 e3 82 77 c9 30 b3 bf
       -0.11766545883955082 -0.07496318023449035
0004a0 65 0e ba 54 84 18 d0 bf 3d 26 bf f2 e7 0c bb bf
       -0.2514963939104063 -0.10566568066055822
0004b0 95 23 4f 23 32 21 c3 3f b3 0e 2e 61 36 0e d0 bf
       0.14945055698470058 -0.25086745729661714
0004c0 bb 23 89 bb e0 a4 a4 bf ba fc 1e 8c c7 7e b4 bf
       -0.04032041825536888 -0.08005950137065812
0004d0 a8 31 90 51 1e 8f c4 3f 8a df 9b 67 71 77 cb bf
       0.1606176279314131 -0.21458261069323853
0004e0 5a 0a 42 8a 3f 38 c1 bf d0 7e 26 a4 f2 67 81 bf
       -0.1345290589416262 -0.008499045977088754
0004f0 a8 13 91 95 dc 1d cc 3f 8e 74 3e aa c3 56 ce bf
       0.2196613054567511 -0.23702283680623676
000500 bf c6 86 ff fc 1a d7 bf b9 bf 28 e1 46 c9 a4 3f
       -0.36102223352200363 0.04059812067532626
000510 fa cb 46 2c 72 3e ca 3f b0 99 24 de 6b 87 c5 bf
       0.20503070032063403 -0.16819523188423835
000520 7a 86 c4 6e 83 7e a1 bf 97 a5 04 39 40 3b be bf
       -0.03416834571022505 -0.11809159652752609
000530 fe 42 29 bc 29 5e be bf b5 90 8e 04 08 b1 c4 bf
       -0.11862431377199908 -0.16165256712441126
000540 53 ce 24 fe bd 6f d2 bf 27 8a 05 1d 9d d1 c0 3f
       -0.28807020014503343 0.13139690320083838
000550 1e 81 96 46 ee d2 a1 bf cc 1c 7f a5 88 60 be bf
       -0.03481239902180476 -0.11866048851435379
000560 a8 46 be b9 51 81 a8 bf 66 1b 05 5b 6c 82 a5 bf
       -0.0478616275060067 -0.042010675535997064
000570 9e da 12 dc 13 1c d4 3f 2b 6a b8 e1 e8 5a c7 3f
       0.3142137192875597 0.18246184369566384
000580 00 00 00 00 5e 33 be bf 00 00 00 80 f2 bb b4 bf
       -0.11797130107879639 -0.08099284768104553
000590 00 00 00 40 0d 61 ce 3f 00 00 00 00 cc e1 ba bf
       0.23733678460121155 -0.10500788688659668
0005a0 00 00 00 80 6e 80 ce bf 00 00 00 40 79 f5 c9 bf
       -0.23829442262649536 -0.20280376076698303
0005b0 00 00 00 00 61 08 b9 3f 00 00 00 00 21 a1 c6 bf
       0.09778410196304321 -0.17679226398468018
0005c0 00 00 00 80 54 b2 c1 3f 00 00 00 00 ce 6d c9 3f
       0.13825470209121704 0.19866347312927246
0005d0 00 00 00 80 4d 01 c5 3f 00 00 00 00 f2 96 c7 bf
       0.16410225629806519 -0.1842939853668213
0005e0 00 00 00 00 52 18 b8 3f 00 00 00 00 4e 90 ae 3f
       0.09412109851837158 0.05969470739364624
0005f0 00 00 00 80 61 14 c2 3f 00 00 00 00 14 95 bf bf
       0.1412469744682312 -0.12336850166320801
000600 66 45 4d dc a1 30 a2 3f 1a 6a 41 50 0d c5 a1 bf
       0.03552728475791404 -0.03470651249582009
000610 0e 52 a8 95 69 92 97 bf 04 07 21 55 f8 5e bf bf
       -0.023019456633919737 -0.12254287794442226
000620 4f ba 01 a4 45 b5 b0 bf 88 1a d9 9c dc 7c d2 bf
       -0.06526599172659896 -0.2888709575385424
000630 3d 01 8e d9 84 8e 99 bf 11 b0 d3 6e e5 f6 c5 bf
       -0.024957729128346918 -0.17159717475385652
000640 88 05 5a 1d db 66 d1 3f 27 84 5b dd 0f 5d 9a 3f
       0.2719028269421746 0.025745628247822474
000650 58 69 7d 3c af dc d1 3f ee ac c5 9f ad 21 c5 3f
       0.2790945139619416 0.16509027768493162
000660 04 db 5d 35 04 e9 ac bf 70 94 cf cd 6b e4 c1 3f
       -0.05646527434776341 0.13978335904463135
000670 d9 fd 02 f1 99 13 d3 3f 65 e0 4f 1b dd 2a d5 bf
       0.29807137047097637 -0.3307411925047801
000680 39 ac f4 11 69 30 d1 3f f4 0c bc 27 28 b0 c6 3f
       0.2685797381734037 0.17725088062443428
000690 15 83 2c 97 40 31 bb 3f 39 39 61 58 71 ff c6 3f
       0.10622028055923878 0.17967049422663608
0006a0 66 47 cb 4b 93 27 b5 bf ca 97 a5 a1 a8 41 82 3f
       -0.08263512230339884 0.008914296563215535
0006b0 e8 66 a7 8f e8 50 b6 3f 79 2e 6f 64 61 1e cd 3f
       0.08717206484962114 0.2274896374132032
0006c0 2f 22 53 14 45 d8 bb 3f ba 02 4b 71 6f d0 c6 bf
       0.10876876589021188 -0.17823594123730918
0006d0 18 eb a9 10 65 e2 c0 3f d8 0b 40 4a b7 6c a9 bf
       0.13190902055415488 -0.04965756207823063
0006e0 d6 39 a3 8e 2f 7d d7 bf 8b 97 59 43 31 16 b3 3f
       -0.3670157330460858 0.07455737966810554
0006f0 ef f1 fc 1e c3 09 87 3f 1f 94 19 f8 76 26 81 3f
       0.01124908865278315 0.008374146887215215
000700 5c be bc ef 27 bd ca bf 64 06 d2 59 70 25 bf 3f
       -0.20889758306428774 0.12166502182847122
000710 d4 93 2f e6 74 3a c0 bf e0 d4 ed 50 81 da c8 3f
       -0.12678395499747686 0.1941682477151181
000720 30 0e 49 65 ec 55 c7 bf a7 a1 10 a7 dc 7a c7 3f
       -0.18230967469763604 0.1834369483706386
000730 dc 63 24 36 93 51 c6 3f 9a 19 17 a2 f5 27 ba bf
       0.17436447280559164 -0.10217223365098108
000740 88 d2 ea 6a ac c5 c9 3f 24 55 7d 73 b2 37 a3 3f
       0.20134501667566362 0.03753430995736043
000750 de 1d 04 7b e8 9c c2 3f bd 57 9e a0 34 c9 ca 3f
       0.1454134560265023 0.20926530688001135
000760 57 c1 43 b9 06 38 c1 bf 39 67 98 4f 0e f9 b2 3f
       -0.1345222859013215 0.07411279147382012
000770 5c 8f dc eb d4 ac b0 bf 57 d0 11 f1 67 36 90 bf
       -0.06513720281924179 -0.015832542504043392
000780 b5 37 4f 86 36 d1 c2 bf 16 66 67 02 a6 5b c3 bf
       -0.14700967367246923 -0.15123438947084428
000790 33 b7 72 8e fe fa b3 bf b2 15 4b 78 f4 4d cb bf
       -0.0780486200116826 -0.21331649659820823
0007a0 11 ac fd c9 d7 56 d1 bf 89 0a e7 b6 ed 9f 87 bf
       -0.2709254715506982 -0.01153550829338214
0007b0 94 5e 56 c1 14 2a 65 3f e1 b1 2b d4 ba 33 ca bf
       0.0025835423827621027 -0.2047036682119048
0007c0 92 25 00 98 72 e3 c7 3f e3 24 92 fd c4 ed 7e bf
       0.1866286508741664 -0.007550973409828662
0007d0 4a 81 48 b1 55 82 cb 3f a9 16 0d f7 02 cc b7 bf
       0.21491500049979556 -0.09295671969911247
0007e0 04 6e 05 28 7f 31 b5 3f b0 33 8f 82 ac 81 ca 3f
       0.08278650977211305 0.20708233237237783
0007f0 53 c8 4b 64 0c ab d7 3f d5 f0 3c 6c c0 d0 a7 3f
       0.36981496614965187 0.04651452370896584

gnn.conv_layers.1.conv.lin_l.weight f8 [64, 32]
000000 57 b8 3f 5e 15 36 c7 bf 19 60 de e4 71 9b bc bf
       -0.18133799650189772 -0.1117469009171831
000010 67 d5 95 98 0c db 91 bf ec 52 87 90 12 0a ce 3f
       -0.017437168896738877 0.23468238884984005
000020 37 08 99 fa f8 17 bf 3f ca 63 31 c9 c5 bc b8 3f
       0.12145954244718458 0.09663044130264989
000030 9d a6 34 54 cf 4d b7 3f 23 6f 29 3c dc 8a 96 bf
       0.09103103452494073 -0.02201408497999958
000040 73 82 08 1f 44 67 cb 3f f2 c4 9c 9d cf e9 be bf
       0.21408893122954317 -0.12075517271002292
000050 d6 dc c2 6d fb 2c c6 bf d8 12 55 59 fb d7 a5 bf
       -0.17324774608071064 -0.0426634356067887
000060 67 2f 48 e9 8a 22 e0 bf d9 80 34 e1 40 1c b5 3f
       -0.504216628674368 0.08246236322566193
000070 a0 f8 94 fa c1 53 af bf 39 16 42 65 f4 25 c0 bf
       -0.06118589576588929 -0.1261582846092766
000080 03 40 d9 bb 9b fc d1 bf 2b 25 d6 64 4e 86 d2 3f
       -0.28104298920243326 0.28944740149798304
000090 94 ef 85 ce 59 68 b6 3f d9 f7 19 d9 48 d5 9c bf
       0.08752976696081155 -0.028157366038150975
0000a0 9b 54 e3 ec 0f 4f cd bf 88 35 3d 30 45 94 88 bf
       -0.22897528712079382 -0.01200155309165997
0000b0 80 15 f4 ff df eb 98 bf 2f 1c dc f4 d1 17 ab 3f
       -0.02433729171481991 0.052916108265030785
0000c0 ba 3f ee 1a a6 31 bf 3f ea c3 08 74 ac 25 97 bf
       0.12185133130537809 -0.02260465105263513
0000d0 ab 6e 1c bf 89 7f a8 3f 1a 64 d2 6b ec 66 b7 3f
       0.047848038271891845 0.09141423828477038
0000e0 60 db c6 9e b8 63 ac 3f 8f cc ab ac cf 95 cb bf
       0.0554483121699636 -0.2155093758698041
0000f0 03 bc 99 7c e2 55 82 bf 26 d8 0c 91 1b db b8 bf
       -0.008952874591356524 -0.09709331790222162
000100 14 e5 90 ba a2 3e c3 bf 0e 22 b7 a0 30 bc b4 3f
       -0.15034898862521884 0.08099655078616072
000110 85 e7 52 39 b2 5d b6 bf 75 0e 3d 93 a0 3f ae bf
       -0.0873671903563303 -0.05907918736786836
000120 94 e9 7d 00 61 bd c5 bf 30 db e3 e5 0c 3d c1 bf
       -0.16984188579574477 -0.13467560982800242
000130 2d 76 de 46 3d 93 cb 3f a0 6e cf 3b d0 ce b4 3f
       0.21543088875198305 0.08128072223865468
000140 0c 90 d0 b9 25 02 92 bf 4f fb 20 a9 a3 50 ba bf
       -0.017586316553334355 -0.10279295806047382
000150 40 c5 41 92 39 82 c2 3f 86 78 ad 95 87 0d 93 bf
       0.1445991481919382 -0.018606298933598463
000160 93 bc a4 bc 76 8f d1 bf cf 24 7f 19 4e 2e c7 bf
       -0.27438133642403634 -0.18110061879114034
000170 cc 0a 68 f8 a4 54 c8 3f 88 37 c9 43 1c 55 b9 bf
       0.1900831425592372 -0.09895493178302506
000180 61 1c 7c 37 eb fa c7 bf 83 f9 58 69 55 54 c1 bf
       -0.18734493455142157 -0.13538615840839094
000190 8f 3d 40 2b 1b 86 c6 bf 65 2d 8f 3e 0a 1b b1 bf
       -0.17596759425985595 -0.06681884791685418
0001a0 13 19 39 f7 48 f7 c0 3f c0 90 94 75 01 44 c9 3f
       0.13254653998792118 0.1973878692743991
0001b0 a7 69 e3 ad 8e 2f a8 bf 73 d9 2f 11 c2 2f ba bf
       -0.047237833716013804 -0.10229123038866365
0001c0 fb 42 f6 4b 44 4e c0 3f 61 63 0f d5 c1 3e a4 3f
       0.12738851269798332 0.03954129911261962
0001d0 2f 9d f4 c6 f1 ee be 3f e3 2d e7 dd 76 8e b4 3f
       0.12083350283920845 0.08029883306078704
0001e0 b2 cb fe 66 ed aa c0 bf d3 95 79 db f7 76 ba bf
       -0.1302162888437955 -0.10337781055712662
0001f0 20 2c a1 62 d6 a9 c0 bf 36 d3 82 53 f3 bd 70 bf
       -0.13018302741906584 -0.004087400906588814
000200 8a 11 af c3 99 50 c4 bf b3 00 7b 0d 7d ed c4 bf
       -0.15870973639370006 -0.16349757345415625
000210 17 3d ef 25 e4 c7 aa bf e3 5f 52 24 77 dd bf 3f
       -0.052306298857383186 0.12447304379236317
000220 9a 1b 7b 3d 7f 53 d0 3f 8a 91 3e c1 54 38 91 bf
       0.2550962543868366 -0.016816448492720272
000230 5a 85 12 8c fb 65 7b bf cc 21 0e 27 80 17 98 3f
       -0.006689055067142869 0.023527147659054212
000240 ff 4e 4a 03 92 d3 bd 3f ca b8 45 76 2d 3e a3 3f
       0.1165095575363999 0.03758375233415874
000250 2e fd 6d 5b 66 b6 c4 3f dc 0a 4b b7 25 b2 ba bf
       0.16181640114153012 -0.10428081250124016
000260 1a 83 f6 13 56 55 c1 bf c3 04 68 20 93 1e c1 bf
       -0.13541675543549375 -0.1337455661996839
000270 25 44 e2 8b c9 64 ab 3f a8 cd 1a 49 d6 d0 ca 3f
       0.05350332100454861 0.20949820107999284
000280 63 d8 72 30 33 fc b3 bf 29 f5 d4 9f b8 33 ca 3f
       -0.0780670159609556 0.20470340542116475
000290 2c da 53 4f 1b d8 b6 bf 3b 72 e9 e3 01 f8 93 3f
       -0.08923502623279295 0.019500760589254745
0002a0 83 59 d4 0c a5 dc ab bf af 59 a2 63 e8 65 b8 3f
       -0.054417760673618275 0.09530498917079087
0002b0 c2 48 64 78 c2 36 ad 3f 34 c2 c8 d0 fb ce bb bf
       0.05705840797067331 -0.10862706992407639
0002c0 82 62 ef b0 a4 5f c4 3f 49 07 ec eb d1 87 bd bf
       0.1591688026371863 -0.11535369882406345
0002d0 fc 57 03 ee 43 9f 8a 3f de b8 c5 a1 e6 87 c5 bf
       0.012999087048608964 -0.1682098665145934
0002e0 e8 fb 6a d8 4b 12 c9 3f cb 75 97 96 69 8c bd 3f
       0.19587085788040715 0.11542377401880015
0002f0 7a b3 c0 0b 8f 5c b1 3f b8 4a 14 69 ca b7 c4 3f
       0.06781858479435057 0.16185884600471012
000300 a0 78 4d ed 0b 98 94 3f 2e 9c 63 06 95 75 ae 3f
       0.02011126170997868 0.059490830449981366
000310 9c 28 21 f8 6e a0 91 3f 90 29 82 f1 e9 19 7a 3f
       0.01721356763327063 0.006372369614960141
000320 57 02 47 35 9d 31 a7 bf d2 7d fd 1e 0b b1 a1 bf
       -0.04530040049894939 -0.03455385926531175
000330 8d 63 2d 5a 2d 54 c3 3f f2 1c a5 a0 a5 87 bb bf
       0.15100638297260752 -0.10753855869289788
000340 d1 c3 ce 46 29 36 a0 3f 2c dd 33 4d b8 14 b0 bf
       0.03166321744300372 -0.06281616101101822
000350 d7 ea 68 6e f6 08 a5 bf 86 5a ec 3a 62 67 cc 3f
       -0.04108400438095366 0.22190502049553035
000360 b6 5c 6f d4 94 f5 aa bf 03 1d d9 45 e5 26 a1 bf
       -0.0526548871345595 -0.0334998748554032
000370 5a 20 3c 5f 4c 2d c2 bf 25 5e e5 ae 22 e9 cc 3f
       -0.1420073952688224 0.22586473026125123
000380 38 c7 c9 3e ed d5 c0 bf b2 93 77 62 a3 2a d3 bf
       -0.13152852598028075 -0.2994774304955242
000390 ec 18 50 da ae f4 b7 3f 81 d1 9b 30 15 0a 8d 3f
       0.09357731656936935 0.01417938761321902
0003a0 bc 2c d5 0a 4c cc c7 bf 57 8b 15 27 22 43 c7 3f
       -0.18592215088788133 0.18173624905019878
0003b0 d2 a9 16 23 f2 a2 ad 3f a6 db b3 15 be 99 9a bf
       0.05788380316092269 -0.02597710616552331
0003c0 d7 6c 35 98 7f d6 c6 3f 04 0d 0a f2 89 e7 b0 bf
       0.1784209721762184 -0.06603300246392868
0003d0 6b 5c 67 ab be 18 cb bf d2 e2 90 06 f6 db d2 3f
       -0.21169265145610736 0.2946753563042367
0003e0 24 e6 8c 06 5c 57 b1 3f ec 7a ba 16 9f 2b c0 bf
       0.06773924980088758 -0.12633122072016734
0003f0 fc 63 3c 74 be 9e cc 3f 7f ab 35 90 ef bb b6 3f
       0.22359448123532377 0.088805172641214
000400 27 eb f9 78 aa 2a 61 bf 93 9a f6 88 74 77 b0 bf
       -0.002095540003037927 -0.06432274192648384
000410 26 4a 26 11 a2 9b d3 3f fa 74 8c 37 59 26 93 3f
       0.30637408900034513 0.018700975432797563
000420 70 3c b1 01 e0 a9 8c bf 7b fc 2f b6 29 7a b4 bf
       -0.013995885898252264 -0.07998905847488118
000430 b7 60 16 79 59 1f b8 3f b4 cc d2 46 04 05 8a bf
       0.09422835546718288 -0.012704881106719725
000440 f1 64 00 a2 4f 03 b2 bf 23 fa 39 c1 24 94 a1 bf
       -0.07036302285304764 -0.034333370768753
000450 59 64 51 fb 2b df ba 3f 26 a9 8a 79 ad c1 c8 3f
       0.10496783147517998 0.19341057238245546
000460 78 27 78 be d2 a1 c9 bf 94 c1 84 42 05 d4 cb bf
       -0.20025095272313442 -0.21740785358407477
000470 1b ca f1 f8 cf f4 c9 3f d3 a4 5b da 9d 8f c0 bf
       0.20278358130924876 -0.1293828312111943
000480 eb df eb 08 ac f1 97 3f 2e 79 f9 a8 07 1f c4 3f
       0.023382843060033947 0.15719695807178752
000490 a4 8e e4 08 1e 5a b1 3f f7 9a 70 8d 47 ef c4 3f
       0.06778133122548496 0.16355223089450252
0004a0 0a 9a e8 f5 09 44 b1 bf fc a4 74 23 ea 49 ad bf
       -0.0674444413531107 -0.0572045486718
0004b0 4c cd fc ac f6 a5 8a bf ca 70 ef 57 b9 91 b6 bf
       -0.013011862901839998 -0.08816107174738189
0004c0 c6 33 91 77 1e ad c2 3f e2 38 45 64 14 e0 c4 bf
       0.14590817297212605 -0.1630883683778342
0004d0 a4 e2 f4 b9 e1 31 8d bf 23 a1 28 d9 b9 e9 c1 bf
       -0.014255298125690992 -0.13994525054409576
0004e0 ed 56 e6 cc 10 62 ad 3f d3 21 a4 1c fe bb db bf
       0.05738880635469266 -0.4333491592119831
0004f0 a4 5b 2e b2 da 61 b0 bf 16 c0 7b e4 33 0a cf 3f
       -0.06399313783764043 0.24249886185089115
000500 47 a9 3f 50 41 25 c2 bf b3 26 cb b7 12 8a ad bf
       -0.1417619363631479 -0.05769403928350183
000510 96 6c e8 67 84 79 97 3f 56 7c fb f5 6f f2 ad bf
       0.022924488870654423 -0.05849027517046383
000520 c6 c7 a8 45 83 3f a9 bf da 88 8a 20 c8 89 d3 bf
       -0.04931268906911117 -0.30528453042837855
000530 86 ff 0a 43 db 5a b7 bf 52 db df 61 fc e3 d5 bf
       -0.09123011004248668 -0.34204015310335933
000540 76 a6 a0 ed 39 5f cd 3f b2 df 10 a5 46 99 cf 3f
       0.22946857550532557 0.24686511096819924
000550 f6 c0 dc f5 c9 d4 c0 bf 2b d0 0c d5 df 74 ca 3f
       -0.13149380211826384 0.20669172194323102
000560 34 42 ca 57 e8 ff de 3f 3a ee c4 e7 ff c6 b4 3f
       0.4843693597149781 0.08116149338177872
000570 37 f9 1e 57 9b 9e a9 bf fa 52 8a 18 50 7f b6 3f
       -0.05003819883812571 0.08788014029626004
000580 ed 67 bb 34 dc 43 b6 bf bb 3e 10 6b f8 f2 9a bf
       -0.08697296416667628 -0.026317483458170737
000590 00 64 08 70 69 45 b0 bf 16 37 ee 18 fb 2c a1 3f
       -0.06355914101767723 0.03354630164458976
0005a0 3f e0 11 64 ba e9 bb 3f 1c ab 9f a0 2a 0c c0 3f
       0.10903515761481318 0.12537129252390222
0005b0 04 0f 72 14 e1 e0 c6 bf ae 2d ed 80 81 b2 c3 bf
       -0.17873776911084616 -0.1538850669406719
0005c0 34 54 21 4c e4 58 ac bf 63 e7 bf 91 36 1b ac 3f
       -0.05536569051097509 0.05489511994524212
0005d0 03 62 fe 30 f7 47 b9 3f 97 67 d9 7a fa 9f c6 bf
       0.09875435777792778 -0.1767571544503965
0005e0 32 e6 e9 22 d4 c8 c5 bf 51 ab 6b 3d 6b 65 b8 3f
       -0.1701913042523287 0.0952975296928973
0005f0 66 cd 37 26 09 af b7 bf 12 90 ea 84 37 80 9d 3f
       -0.09251458342605687 0.028809421050610302
000600 ab a5 79 c0 55 9d aa 3f 60 2d 39 c7 0f 0f 76 bf
       0.05198162054586971 -0.005385457643181851
000610 29 22 ae d8 5f 2d b9 3f 3e 20 56 2c d0 16 b9 3f
       0.09834860839885863 0.0980043514483677
000620 d8 ca 43 34 b1 92 d7 3f 7d 40 14 41 1f ee 93 bf
       0.368328381576402 -0.01946305117331847
000630 74 1b 5a ee df 3b 95 3f bd 7b ca b8 ba ad cd 3f
       0.020736216471529414 0.23186429999347338
000640 d0 9d 78 41 2b 4d b0 3f 09 e6 41 15 97 26 bb 3f
       0.0636775050012297 0.106057589235114
000650 0a 84 af cd 88 8a c7 3f a4 d8 7a 88 a3 b2 ad 3f
       0.18391523402445414 0.05800353089345947
000660 6d bb 5f 29 41 4c cd bf 7d 61 d5 f1 2d 01 a8 bf
       -0.22888960380756931 -0.046883998652165616
000670 bf 98 71 31 bf 46 d5 3f c7 a5 d9 d5 92 4d c9 3f
       0.3324430449341768 0.19767985765365223
000680 f5 c4 3e 5c aa 13 c7 3f 16 58 eb d6 32 9d b0 3f
       0.18028764251861387 0.06489866015485321
000690 4a f3 33 9b 8a 89 c2 bf c9 49 26 34 a6 e5 94 3f
       -0.14482243135707967 0.020407292302090405
0006a0 34 43 aa 1e 38 31 c2 3f 26 65 1e b3 bd 8c c0 3f
       0.14212705132788417 0.1292950749018839
0006b0 39 b1 98 1e fa 44 c2 3f a5 29 70 97 62 01 bd bf
       0.14273001188247195 -0.11330238530368904
0006c0 7f 77 d9 d7 59 14 ad 3f 7b 51 59 74 21 ec 71 bf
       0.05679589042550414 -0.004375582391351047
0006d0 4f 51 a5 ef d4 fb c6 bf 44 b6 cd 44 7c b0 af bf
       -0.17956029607251842 -0.061893351935264934
0006e0 dd f2 35 b3 54 d2 c3 3f bc d4 9f 26 2d 12 5d 3f
       0.15485628843807478 0.0017743531157042155
0006f0 c6 56 66 14 be 5b a4 bf 18 68 c7 21 7c 1a 9e 3f
       -0.03976243971844222 0.029397906839086912
000700 64 6f 5b 0e 29 d0 96 3f b9 49 d7 8c 84 e4 be bf
       0.02227844381455614 -0.12067440451145374
000710 48 90 fe a6 04 79 b1 bf 8d 80 8a bc 75 2b de 3f
       -0.06825284077655269 0.4714025822850168
000720 ba 15 a7 04 5e cb 8f 3f 37 7a dd 16 54 68 c4 bf
       0.01552461101244772 -0.15943385235273563
000730 15 d2 61 87 72 32 b3 3f 5d 4d ff 24 0d d2 bf bf
       0.07498851590373364 -0.12429887917760625
000740 66 9d f3 94 1f 72 9f bf 23 4d 54 d3 fc 24 b8 bf
       -0.030708783594403675 -0.09431438598067081
000750 f1 59 cf 8e a3 a4 97 3f 97 26 36 0e af 6c a7 3f
       0.02308898505347118 0.04575106667023226
000760 b3 7a 9c 93 91 61 c5 bf 38 6d 46 ac 31 3d 81 3f
       -0.16704005916195327 0.008417499608916232
000770 d1 41 5e 7a 29 90 b4 bf a4 d5 75 a7 6d 9b 7a bf
       -0.08032473790650065 -0.006495884262553462
000780 83 ea 54 c0 9f b1 b5 bf 08 67 eb 25 11 b6 70 3f
       -0.08474157758329608 0.004079882607322956
000790 da 8c 6b f7 6e 68 b4 3f 05 74 ca a9 17 b4 c0 3f
       0.07971852818041061 0.13049598494117745
0007a0 48 41 cf 26 36 62 d4 bf ac 7a d9 20 a4 c2 c6 3f
       -0.31849435606001864 0.17781497577648986
0007b0 14 b3 4f 5e c9 ac 9f 3f 2c de 1c 09 f1 7c d2 3f
       0.030932566052729163 0.2888758267394873
0007c0 6c a0 e5 a6 1e 25 da 3f c0 90 24 77 7b a8 a7 3f
       0.4085156087735473 0.046207292836955016
0007d0 e4 f2 92 b0 b8 a0 9e bf 6b 5e 71 c6 32 85 d5 bf
       -0.029909978654120276 -0.3362547815245082
0007e0 85 bd 74 bd e9 ef bb 3f fb 54 04 f1 3f 9f b6 bf
       0.10912953257933651 -0.08836745866968336
0007f0 c9 db 13 e7 84 7d b7 3f 3c d3 3f 25 7b 59 9e 3f
       0.09175902024786277 0.029638218067663077

gnn.conv_layers.1.conv.lin_l.bias f8 [64]
000000 60 fc 8e 7c 6b f2 c5 3f 89 58 f0 a3 f5 a8 a9 3f
       0.1714605673023213 0.05011718393522908
000010 cc cf f0 63 8b 86 93 bf f7 4a b5 bb b1 3a c0 bf
       -0.019067934012312368 -0.12679120698393095
000020 cc 2e 2a 8b b5 ec a0 bf a8 c5 46 7b 36 1d c6 3f
       -0.033055947530639423 0.17276650447233277
000030 b1 17 e7 90 d5 c9 94 bf c0 77 de 5b 4c 28 ce bf
       -0.020301186532172447 -0.23560480581084953
000040 97 2a 7d 93 6a 52 58 bf f6 6b 67 1b 8d bb 82 bf
       -0.001484493330240843 -0.009146788023761215
000050 88 23 91 be 59 0c a6 3f 1a 51 18 b3 c9 15 c1 bf
       0.043062977325980134 -0.13347741360542714
000060 2f 33 c6 71 d2 13 d0 bf 34 db cd 74 f9 56 c0 bf
       -0.2512098418308594 -0.12765424922300783
000070 34 a0 1d 8c 1b f7 b6 3f a9 67 b2 95 8e ed c1 bf
       0.08970806284708105 -0.14006216344278968
000080 29 12 bd ff 40 e9 cc bf d0 df 59 12 c0 6d cf bf
       -0.22586834418520255 -0.24553681274460226
000090 cb f6 dd 53 04 27 c4 3f ea d5 e7 2a 49 e7 b2 3f
       0.15744070143767028 0.07384164140224639
0000a0 cd 29 ed 20 00 82 cc bf 34 1c d7 49 32 40 c3 bf
       -0.2227173004888087 -0.15039661984903463
0000b0 d6 60 0b 74 25 e1 a3 bf 49 81 cf 8d 77 d3 82 3f
       -0.03882710496481116 0.009192403807845155
0000c0 15 6b 1c 66 a1 54 b5 3f de e1 5e 93 2f d5 b0 3f
       0.08332260840363077 0.0657529578010165
0000d0 55 bb e8 20 57 55 92 3f 9a 9a 73 e4 d5 0b c0 bf
       0.017903672584164216 -0.12536119131910511
0000e0 7c 07 46 68 9d 30 bb bf 82 08 0d 0c 6b 6d c6 3f
       -0.1062105540823079 0.1752141770212497
0000f0 c2 f2 57 60 1e 05 c5 bf 9f 3b 4b e3 ef 76 b2 3f
       -0.16421870903277208 0.07212733554045635
000100 9a 59 10 5e a8 39 a2 bf ac 27 f1 1c 46 40 94 bf
       -0.035596143228917757 -0.019776435390930366
000110 6c 04 fa 03 23 2d b4 bf d6 88 d2 d7 c4 c8 c5 bf
       -0.07881373259626095 -0.17018948114588878
000120 c6 70 9b 82 9b 03 aa 3f d7 45 e1 90 e8 ad ba bf
       0.050808772748241846 -0.1042161325178975
000130 9c 90 2c 7f 26 41 a1 3f a1 58 b9 15 6b 88 aa 3f
       0.033700182937793616 0.05182203903375294
000140 52 5f dc d1 93 5d a8 3f 00 69 20 63 7c 20 ad 3f
       0.04758893906381324 0.05688847265283137
000150 eb b8 a4 e4 86 a2 cd bf bb 8a ac fe f5 3b c2 bf
       -0.2315224281714515 -0.14245486197713383
000160 04 2b 3d 32 99 f1 c0 3f 0b fa 9e 11 e6 ae c0 3f
       0.13237299874375463 0.13033748493576555
000170 e5 66 1e b6 c9 85 bc bf 63 4d 2e b5 74 ca c2 bf
       -0.1114164418817399 -0.14680346342775427
000180 18 5e f5 a6 e0 61 bb 3f 49 d9 ba c9 e3 43 cd 3f
       0.10696224285253952 0.2286343321808977
000190 2d f6 d2 ae 99 a6 a1 3f a4 13 d0 3c 1a 94 c7 bf
       0.034474184599713055 -0.1842072293221949
0001a0 39 8a b3 5f b5 6f a0 3f d1 3e d7 61 de 17 99 3f
       0.032102268154421805 0.02450511428997865
0001b0 b3 48 5f 4f 4c e0 ae bf 3d 7f bd 6c 37 12 ba 3f
       -0.06030500859164203 0.1018404617766437
0001c0 42 ae c8 a9 ce f1 77 bf 2d 37 51 07 b2 51 85 3f
       -0.00584583976573644 0.010409727905564015
0001d0 87 da da 59 c9 d5 5a 3f e2 89 4f 4b 08 24 b9 bf
       0.0016378847425763414 -0.09820606077804642
0001e0 44 f4 e6 35 39 26 af 3f 55 2b 7d 22 64 78 b3 bf
       0.06083849699960145 -0.07605577318206021
0001f0 07 19 8d 28 a8 74 a5 bf 24 28 c8 63 84 b4 d3 bf
       -0.04190564627656284 -0.3078928923065425
