runs/sex_prediction_5k/model_best.ckpt (torch, 224555 bytes, 15 tensors)

gnn.conv_layers.0.conv.lin_l.weight f8 [32, 3]
0	0xbf756b42fd724fe0	-0.005229245834147606
1	0xbfd65c2c37c70cec	-0.3493757767393635
2	0x3fc924a90e233167	0.19643128576570776
3	0xbfe6bc13c4955e71	-0.710458644821257
4	0x3fe2a8cc7db3288b	0.5831053214144658
5	0x3fe731fd4fea7194	0.7248522339682943
6	0xbfcec31a187d490e	-0.24032903857966698
7	0xbfbde2ca2e0a73e7	-0.11674178718608595
8	0xbfe4e1e49612e3e5	-0.6525748187187871
9	0xbfd8d507df627d23	-0.3880023652545381
10	0xbfb8482eb405847c	-0.09485141654069368
11	0x3fda97fbaf2d3c10	0.41552631480311764
12	0xbfd409c82c335d0f	-0.31309704128712296
13	0xbfdf549498488839	-0.4895373808996087
14	0x3fcbc9a5264a8fdf	0.21709122056665728
15	0xbfddd60f85bcdd15	-0.4661902242691707
16	0x3fc7d2b5609d1698	0.18611781327688415
17	0x3fd13212702d9abc	0.26868115382096014
18	0xbfeaca7ba4af937e	-0.837217160846748
19	0x3fc9482bf2d4781d	0.19751500470096142
20	0x3fd79b47292fa64f	0.36885241529544016
21	0xbfdced86bf9a4eb1	-0.45199745856482837
22	0x3fcf47117b90da72	0.24435633214462232
23	0xbfc99dd79928c438	-0.20012946108320917
24	0xbff2238a1fe1c671	-1.1336766477001243
25	0x3fd653479be32ab2	0.3488329908692932
26	0x3fd4402317528220	0.3164146163708512
27	0xbfe35eee64faad28	-0.6053382847070781
28	0xbfb5c1d4a4815570	-0.0849888707756088
29	0xbfb8b2ad7dc386c0	-0.0964764053383318
30	0xbfd7b7f595194940	-0.3706029850046839
31	0xbfcd4ffd00fa6b96	-0.22900354907764314
32	0xbfd1d07534b5427c	-0.2783482565619477
33	0xbfe674ba12d0d02f	-0.7017488830083546
34	0x3fb7a02f273f8036	0.09228796680645321
35	0xbfe18bfd82b46a63	-0.5483386566950909
36	0xbfe3de80d397d6aa	-0.6209110386541472
37	0xbfbed46115023179	-0.12042814982323148
38	0x3fdc809fc8f79b1b	0.445350595719377
39	0x3fd43d58ead52890	0.3162443440711593
40	0x3fd409e98967adde	0.313104995903556
41	0xbfb666707ba1428d	-0.0875006009894241
42	0xbfd80a79c7d5a726	-0.37563938632102845
43	0xbfcad865ed99dc7d	-0.20972894765484176
44	0x3fd3440e25c6f1c3	0.3010287636677981
45	0x3f2a6af1822455cd	0.00020155141925985582
46	0xbfd57cf5c4614715	-0.3357519548199986
47	0x3f6a0777c0abf509	0.003177389041751359
48	0xbfd4d9b4f211dc2e	-0.3257877696955259
49	0xbfd902d2b763e00e	-0.3907973090094864
50	0xbfa88bc606038ae3	-0.0479413873997794
51	0x3fd5ef5c00000000	0.34273433685302734
52	0x3fb6fd4ac0000000	0.08980242908000946
53	0xbfd5f1b7a0000000	-0.3428782522678375
54	0x3fe8417dfce53c24	0.7579946460117566
55	0x3feec916906b4618	0.9620468922314016
56	0x3fc5a9cf171543f7	0.16924465777495332
57	0x3f8b0e81e0000000	0.0132112642750144
58	0xbfbf1928c0000000	-0.1214776486158371
59	0xbfb6b432e0000000	-0.08868711441755295
60	0xbfe675a94396589f	-0.7018629379333737
61	0x3fb49a2e2d6e8a2f	0.08047760590719898
62	0x3fc79b24992d0d06	0.18442208747192285
63	0xbfd62c1056154402	-0.34643944174337105
64	0xbfd7a0510a918e44	-0.3691599467476616
65	0x3fe52f97de350a87	0.6620597209915368
66	0x3fc99aa813c561ac	0.2000322433984939
67	0x3fd727563e3e505f	0.3617759330602492
68	0x3fb871227655460a	0.09547629727355669
69	0x3fcbf79b2841e1e7	0.2184938379830463
70	0x3faadaac4e718734	0.052449593139284906
71	0xbfbe9d02f645c7e8	-0.11958330643190573
72	0xbfe487c79df9c682	-0.6415746770346262
73	0xbfa5bdf040ab4d4c	-0.042464740652259
74	0x3fbcfb69a8dd74ac	0.11321125385934988
75	0xbfa01332fe2f6065	-0.031396478203249235
76	0xbfdd43bcb32ea39f	-0.45725934503803417
77	0x3fdf58e0b5b47066	0.4897996687375382
78	0xbff2b3794ca2a219	-1.1688168519559723
79	0x3fd4bfa060dd193f	0.3241959520277255
80	0x3fc97a6ba425de5e	0.19904847636256567
81	0xbfeb974f912e9206	-0.862220557745389
82	0xbf6e09f295a35107	-0.003666852758309361
83	0x3fcf0f9e451131ac	0.2426641309015286
84	0xbfe1d491ab80fbf7	-0.5571983670887438
85	0x3fb0685ac05e51d6	0.06409232326979661
86	0x3fd9ecc925c50f35	0.4050772541852326
87	0x3fd2382a13b16823	0.2846780006708533
88	0x3fe4ed775f8aacb6	0.6539875856446062
89	0x3fdda8f0de6c88e7	0.46343633385744315
90	0xbfcdfe5d86b6a36f	-0.23432511403850806
91	0xbfd2779b4b541d51	-0.28855020862871067
92	0x3fc809377fb9389a	0.187781274189949
93	0xbfccacca1366ded0	-0.2240231127486738
94	0x3fd2b480cc1bb5e5	0.2922670357937405
95	0x3fdab96086885bfc	0.41756451738314104

gnn.conv_layers.0.conv.lin_l.bias f8 [32]
0	0xbfcd9c7eaa7cb494	-0.23133834194724
1	0xbfdd81241b1c3899	-0.4610071434734749
2	0x3fd9e79d036d0337	0.40476155600122204
3	0xbfe096d93c3d0e3b	-0.5184141327412769
4	0x3fd4de7d27ba2714	0.3260796440086875
5	0xbfdc23da63efa216	-0.43968829879170934
6	0x3fde096db7903ace	0.46932547498810784
7	0x3fd7ebd2cd55e90a	0.373768520854029
8	0x3fc914345f7dad99	0.1959290949119861
9	0xbfcd72f7a1262e66	-0.23007102364168758
10	0x3fe39d1c4c18c914	0.612928532244299
11	0x3fd309d967340144	0.2974761493533331
12	0x3fac36f962b77c6d	0.055106919575103365
13	0xbfdc5d99a55d8d2a	-0.44321290158241544
14	0xbfc672cb442017a8	-0.1753782351153721
15	0xbfc8fc5bc9800a8e	-0.1952013715636735
16	0x3fd7fa6a27fd3d39	0.37465909867474384
17	0x3f73f2cec0000000	0.0048702312633395195
18	0xbfc1a1c06b5629ec	-0.13774876824420745
19	0xbfe0d36540000000	-0.5258051156997681
20	0xbfcd53089d9a0077	-0.22909648604764118
21	0xbfb25fee80a88f63	-0.07177630082202095
22	0xbfe3a06f5565a5d8	-0.6133343379889835
23	0xbfcd5d53fccb38fb	-0.22941064685296184
24	0x3fdf23c9583326ca	0.4865592347456241
25	0xbfb38f54da8b5007	-0.07640581450988303
26	0xbfcd985a6d309597	-0.23121195155651428
27	0xbfde9a6e6ca310d8	-0.47817574128226914
28	0xbfda6f46388583d2	-0.41304164428407575
29	0xbfc0ed0a693401b4	-0.13223390709755523
30	0x3fcf47346845bdec	0.24436049548556527
31	0x3fe20924048a8279	0.5636158074085663

gnn.conv_layers.0.conv.lin_r.weight f8 [32, 3]
0	0xbfe7e15469defa93	-0.7462560718339141
1	0x3fe8ec427d4d642b	0.7788402983961807
2	0xbfba76c9497d1980	-0.10337503475338927
3	0xbfcbc7fa303e1048	-0.21704032283389751
4	0xbfd1af2dbf015787	-0.27631705906730314
5	0xbfbc8010f91b32a5	-0.11132913667388296
6	0xbfda882fb693a792	-0.41456215696109056
7	0xbfd7057dcbb6db08	-0.3597101678273451
8	0xbfd05cdf88a62d2d	-0.25566852898255626
9	0x3fe79a6388a324a7	0.7375962895104252
10	0xbf9a937c8b7faa46	-0.02595324136192747
11	0xbfd437bf9a9771f1	-0.3159026155169889
12	0x3fdbe2306237dc14	0.4356804808771255
13	0xbfe3c0ad584224e8	-0.6172701572224044
14	0x3fc4cc434df34c7b	0.16248360925837688
15	0x3fe48a8a637cb5dc	0.6419116919620893
16	0xbfe21e40d2cc2616	-0.5661930195939842
17	0x3fd427efd96ad641	0.31493755561982445
18	0x3fd0e9b0dec3841f	0.26426336054106686
19	0xbff137cb9b0370f6	-1.0761219077313036
20	0xc007d601eeb706ac	-2.9794958734135744
21	0xbfd131588425e21a	-0.2686368265636091
22	0x3fabd4cf3cad1d27	0.05435798278500164
23	0xbfbd7d8c20f43e7a	-0.11519695095580032
24	0xbfe98e3e3b66605f	-0.7986136589197591
25	0x3fc08a1c87ede9e5	0.12921482693839362
26	0xbfcfc1429f191bb7	-0.2480853344770517
27	0xbfe6e086f4de404d	-0.7149081022817058
28	0xbfc2c42dc9e42d88	-0.14661190374350164
29	0x3fe3598af78d4474	0.6046805224415395
30	0x3faccbc2c7fed8a6	0.05624207202292668
31	0xbfe548aade1de7b5	-0.6651205385417059
32	0xbfda1208bae4aacb	-0.407350714219018
33	0x3f907bbe68c48069	0.016097045082574733
34	0x3fafac6d9fd05ba4	0.061862397917301665
35	0xbfdeeaac776cfb07	-0.4830733457819609
36	0x3fccaf00ab0945df	0.2240906558168225
37	0xbfe415c065d3dbb5	-0.6276552189655066
38	0x3fd8891058b89d89	0.383365713731529
39	0x3fe3d3b5d8a5ee50	0.6195935470017933
40	0xbfe3780c834079da	-0.6084044040215375
41	0x3fd5e09e0b8cf622	0.34183455589286116
42	0x3fd6cc60ec5e6a61	0.3562242801942031
43	0xbfdcc3a03a6f62b9	-0.44944005686333416
44	0x3fd7537662fb5312	0.3644691435450095
45	0x3fab262fa8130b2d	0.05302571226777384
46	0xbfd53401b603e144	-0.33129923605840284
47	0x3fd8a1a2f0411ad5	0.3848655077203323
48	0x3fdc165924757a2e	0.4388640266460325
49	0xbfd4b185399ff8c1	-0.3233349859946309
50	0x3fdbca0a3aa3f28c	0.4342065403614377
51	0xbfd99ba240000000	-0.40012413263320923
52	0xbfdee039e0000000	-0.4824356734752655
53	0xbfe1207000000000	-0.5352096557617188
54	0xbfd26058917a26cf	-0.2871304913211192
55	0xbf7a5a4731b8bd04	-0.0064337521576327585
56	0xbfc0202e5c5e28b4	-0.12598208913943199
57	0x3fd0c18020000000	0.2618103325366974
58	0x3fa94b30c0000000	0.04940178245306015
59	0xbfd6dc91c0000000	-0.35721248388290405
60	0x3fe385d5be9b9931	0.610087272911903
61	0xbfe0b1ecbc6b789e	-0.5217193298410796
62	0xbfb7aca832879300	-0.09247828706390848
63	0xbfc187686f576701	-0.13694482266037514
64	0x3fe3a5d0ed45773b	0.6139912256437364
65	0xbff5a90af6b9172e	-1.3537702214829994
66	0x3fe600b78e2eb8ff	0.6875875260355143
67	0xbfdeb39e384af54d	-0.4797130155310086
68	0x3fcf070212d701e0	0.24240137023845332
69	0xbfc85e6744ad27a5	-0.19038096288050813
70	0x3fcb8b643f400a7b	0.21519139374148097
71	0xbf93b9ce003110fa	-0.019263476144502946
72	0xbfac17eaafa77d3d	-0.054869970266504066
73	0xbf76a2a02981e24b	-0.005526185639717139
74	0x3fc73725158a9daa	0.18137038757161622
75	0xbfe11e205a64a9f6	-0.5349275365345523
76	0x3fad8e303fbcc8c0	0.05772543695492649
77	0x3fcfdc546315e899	0.2489114269081412
78	0x3fa855a8956a28c8	0.047528522719475996
79	0x3fe99de0e8cfcc5b	0.8005222842315435
80	0xbfdc18130da6cb5d	-0.43896938641699085
81	0x3fcd1b6a56a8a571	0.22739915114770384
82	0x3fc71232197df1a6	0.1802427887413504
83	0x3fd2a6a00c30d4de	0.29141999426367515
84	0x3fe72a539a805068	0.7239168183900917
85	0xbfc1040eb936c99f	-0.1329363254895499
86	0xbfe04e5cb2045309	-0.5095656849758551
87	0xbfe3695b483d8fb0	-0.6066109095522645
88	0x3fe09f0d4f0871ca	0.5194155257809652
89	0xbfb8feeb65db5da5	-0.09763976322880426
90	0xbfc02e34c5db519c	-0.1264100996110188
91	0xbfc937434c1c0c2f	-0.196998989260551
92	0xbfd9ba1bda58a0db	-0.40198417971488504
93	0xbfcd65e42c2c18c0	-0.2296719756779506
94	0xbfd64dee6ff0422b	-0.34850655490393717
95	0xbfcaa1a2c714e167	-0.20805773468760977

gnn.conv_layers.1.conv.lin_l.weight f8 [128, 32]
0	0x3fa4f5d1e30d6a14	0.04093795677791348
1	0x3fae4f8bc4431084	0.05920063753868113
2	0xbfbcb9c781c5a895	-0.11220976751579521
3	0xbf73377e01b31c93	-0.004691593373713182
4	0x3f8c7bb4867a3759	0.013907823900151038
5	0xbfc34aad5a45aeb5	-0.15071646602460978
6	0x3fa0888d3be46519	0.032291806756072634
7	0x3f9ff0fec675d4d1	0.031192761290601837
8	0xbfa28cd83c051864	-0.036230809523247115
9	0x3fb952635c7f966f	0.09891339309941725
10	0xbfafa2d9fbdced30	-0.061789333338732155
11	0xbfc7601cacde901b	-0.18262060585868842
12	0xbf4dd50a0509a6a5	-0.0009104060100757107
13	0xbfca7e8a3e842372	-0.20698669483706628
14	0x3fa2a1ab25b27a18	0.036389683105188364
15	0xbfc0ca03cc638c8c	-0.13116500358509986
16	0xbfb01ff001a5145b	-0.06298732795865318
17	0xbfb5a449c0000000	-0.08453808724880219
18	0xbfce786b0d998586	-0.2380498711018328
19	0xbfb04af0a0000000	-0.06364349275827408
20	0xbfbad4ac40bbf02a	-0.1048076303522413
21	0xbf7eeecb72bdf3fa	-0.007551951140951191
22	0xbf949a95b166f5cb	-0.020120943978090538
23	0x3f9b042800000000	0.026383042335510254
24	0xbfc26517bdeb3223	-0.14371010564208672
25	0xbfc99f83774f8fb5	-0.2001804668972206
26	0xbfd093f5b569e26d	-0.25903074947522137
27	0xbfa322ca53ae6e04	-0.03737480422497799
28	0xbfb6a0a3444f0e40	-0.08838863771148286
29	0xbf980ec7c7384cce	-0.02349388268892199
30	0xbfc6ef6691c2cf9c	-0.17918092839465494
31	0xbfd052acdeab2416	-0.2550460981843242
32	0xbfe824aa82812681	-0.7544758366504568
33	0x3fed7f3f5787a9c9	0.9217831334656746
34	0x3fcde3a78b0b817b	0.2335099629335778
35	0xbfc3c54ac262f2eb	-0.1544583748963285
36	0x3fcd28e3cc57e286	0.22781035878849226
37	0xbfe3ab319849fc1e	-0.6146476721186251
38	0xc0166615aeec54bf	-5.599692090200903
39	0xbf949e3f38de429f	-0.0201349142512891
40	0x3fc9c3ecbd37cc7d	0.20129164923818968
41	0x3fc366f696c9dab3	0.1515796886703434
42	0x3fc143513f5d802d	0.13486686319356647
43	0xbfb2f405a9449f61	-0.07403598196526452
44	0xbf908ac19d0552cb	-0.01615431328657983
45	0xbffd7fe324d96297	-1.8437224807186448
46	0xbfe330c88afdb66a	-0.599705001322673
47	0xbfc0be3d29df7f1f	-0.13080563110906326
48	0x3f40bd517d84f1b8	0.0005108497526076705
49	0xbfc6963800000000	-0.17645931243896484
50	0x3ffa54e89c01f675	1.6457296461152542
51	0xbfc67774e0000000	-0.17552052438259125
52	0x3fa68a315618388e	0.04402307678184157
53	0x3fe36ced6ace0f9e	0.6070468030961711
54	0xc006c246cda76190	-2.8448616091447505
55	0x3fbb0efdf6961c70	0.10569751043486675
56	0x3fb405fe3cd51ebc	0.07821644768875563
57	0x3fb1f106ab83d023	0.07008401572585447
58	0x3ff3fbb9c9e1bc14	1.248956478691757
59	0x3f9108b1d3ff5b69	0.01663472992353424
60	0xbfdda7d515c2d99e	-0.4633686745177331
61	0x3fa91de1a195b43b	0.049056101774887804
62	0x3fe2deb550341413	0.589686066291167
63	0x3fbf0286abe91a08	0.12113229462656971
64	0xbfe3f1c2bcbed683	-0.6232618032870082
65	0x3fe587dc2cb3de4e	0.672834479627406
66	0x3fb9e9fb1675aeb2	0.1012265138467068
67	0xbfce58d2acd75e6d	-0.23708566131130074
68	0x3fc2d3271902024b	0.14706886979185393
69	0xbfe1ec47bafeeffb	-0.5600927974951441
70	0xc01694136819b99b	-5.644605280466204
71	0x3fc6f75c576209ba	0.17942384974237574
72	0x3fb49ddfbcf3eded	0.08053396571261091
73	0x3fe01e0e72bd1840	0.5036689988126071
74	0x3fd0832ac80f5b3a	0.2580058053694533
75	0xbfa079eef616ef42	-0.03218027833960814
76	0xbfa18d67f1f7ed1c	-0.03428196743694853
77	0xbffb9331559bbdbc	-1.7234357208325113
78	0xbfe2c2bee2e10e40	-0.5862726622803578
79	0x3f9362571f4a7ff0	0.018929826054431886
80	0x3fc648be2c3e4372	0.17409493599236786
81	0xbfa36967c0000000	-0.03791355341672897
82	0x3ff9ff8e822c9874	1.6248917660646187
83	0xbfc64cbae0000000	-0.1742166131734848
84	0x3fa2c345b15e65b4	0.036646058942277376
85	0x3fe63f62b75fd19c	0.6952375012902396
86	0xc007ac376af6f51b	-2.9590900761237555
87	0xbfbd8d63b5ea4bff	-0.11543868247308352
88	0xbfa20ec1d3b2332a	-0.035268838016327145
89	0x3fc405d106861132	0.1564275056699756
90	0x3ff516bced909636	1.3180512695192994
91	0x3fb359daacc6525f	0.07558981626636684
92	0xbfdceec38b259b58	-0.45207298840107546
93	0x3fc6a8cc31a054b8	0.1770262949291117
94	0x3fe20cd91f9c130d	0.5640683762909205
95	0x3fc870e8bc5f02dd	0.19094571302232213
96	0xbfe6e4ebb51e196d	-0.7154444253399511
97	0x3fe5cc4102f8a94a	0.6811833436998225
98	0x3fd8634b9c658d5c	0.38106050751794895
99	0xbfc64d3b770f7d94	-0.1742319423055788
100	0x3f8dbbfc4061b040	0.014518709864397406
101	0xbfe6d7e8dc9024da	-0.7138561542389212
102	0xc014f3b56d5dafb9	-5.237996777384915
103	0x3fbbb9e75c5b3ecf	0.10830541615291199
104	0x3fd13f96e7924eca	0.26950619329839454
105	0x3fc6e76670ece7b6	0.17893677247940126
106	0x3fd58bf2fc497862	0.3366668189754646
107	0x3fc1e98aefa6e98a	0.1399396581817423
108	0x3fc53e3b51f5e9df	0.16596166135771193
109	0xc00043cc922d4cd9	-2.03310503197427
110	0xbfe20fb5974778a3	-0.564417643992574
111	0x3fb126fe78baca43	0.06700125167370978
112	0xbf8a00ae2586d9db	-0.012696609993196375
113	0x3fc2758240000000	0.144211083650589
114	0x3ffacfaefc29999a	1.6757039880845697
115	0xbfc1477880000000	-0.13499361276626587
116	0xbfc0686ac2b00685	-0.12818655496817058
117	0x3fe8e65ad427e564	0.7781194823902919
118	0xc00a1d00e37f3d7d	-3.2641618512349724
119	0x3fc7ac738293a14a	0.18495029331030316
120	0x3fc2ca5efc1dbf80	0.14680087385522356
121	0x3f96011fe50ac72b	0.021488664965267617
122	0x3ff4198c7bf63264	1.256237491822639
123	0x3fa0b5afcaf07654	0.03263615944181866
124	0xbfd3dee13f2101ad	-0.31047850766119717
125	0x3f8afc3c7280fcf5	0.013176414722805488
126	0x3fe0dff732f6807c	0.527339553391371
127	0x3fc84ef840f444c3	0.18990996524420298
128	0xbfe77d4d3f3af7d0	-0.7340456232993748
129	0x3fec909ff39ac21d	0.8926543958569401
130	0x3fb86d8f71ddd1a2	0.09542175798362121
131	0xbfbdc58e1f669b9a	-0.11629570261594183
132	0x3fa854c5977efaef	0.047521757834592886
133	0xbfd7c53c2ed1b51d	-0.37141327449974587
134	0xc01743ab68ddb2d6	-5.816083563357742
135	0x3fc66759d43d698d	0.17502901900554627
136	0xbfb99f9f621b509f	-0.10009189744170265
137	0x3fd747de24eb9f84	0.3637614594031151
138	0x3fcfca90154413b7	0.2483692268216637
139	0xbfb8a71c6a11ea38	-0.09629991139983296
140	0x3fc57278e078d462	0.16755591354891225
141	0xbffcbd2eb406bd27	-1.796187117793872
142	0xbfd420c061a88171	-0.31449899231849715
143	0x3f625631bfec2cb2	0.002238366286638171
144	0xbfa77dabef0466d7	-0.04588067333879813
145	0x3fbb17ce40000000	0.10583199560642242
146	0x3ffdb73fb44abd88	1.8572384874968026
147	0xbfc1d5c7e0000000	-0.13933657109737396
148	0xbfb7bfe8f1bcb1f0	-0.09277206327232768
149	0x3fe407f525bad872	0.6259713875686101
150	0xc00622726865e144	-2.7668197780696193
151	0x3fc3b4f4e2b63ea8	0.1539598567001026
152	0x3fd02433652a4e6a	0.25220951919002366
153	0x3fa414df6aebd9f5	0.03922174625579437
154	0x3ff299e1080198ba	1.1625681221717472
155	0xbf8be1a3902d94fe	-0.01361396583315377
156	0xbfd9765f45e06ab5	-0.39784986328019595
157	0x3fc9937e48e3e49e	0.1998136382970061
158	0x3fd7ce80f7727a19	0.3719789902187656
159	0x3fc1c23cd985f22e	0.13874016400576877
160	0x3f86e6017d16355f	0.011180888776631091
161	0xbfccc1d6a1584afa	-0.22466547849815993
162	0xbf86bbba1ac99867	-0.011100248281945292
163	0x3fa5139f3662e274	0.041165328396748274
164	0xbfc3eb382cf78849	-0.15561582751894523
165	0xbf738fa13749c3b0	-0.004775647878532505
166	0xbfb4ef6d00000000	-0.08177834749221802
167	0xbfb19fe617772b9c	-0.06884611199272545
168	0x3f8271bc8f721e15	0.009005997779481448
169	0x3fbbc8c7e3a3db5d	0.10853242213839338
170	0xbfcc65d5070cf5bf	-0.22185767025250233
171	0xbfc360fa21ecb6d5	-0.15139700561979078
172	0xbfc93ef33ef64a78	-0.19723358702011118
173	0xbf7c795e7489a985	-0.0069516839654205674
174	0xbfa73eb9ab2003ab	-0.04540043081215769
175	0xbfa14a8a9b0c38eb	-0.03377183096573496
176	0xbfba33d37b8f20ca	-0.10235330359057851
177	0x3fba0dd260000000	0.10177340358495712
178	0x3fa0e69ecaa39bbe	0.03300949309942024
179	0x3fc0009c00000000	0.12501859664916992
180	0xbf904d96c55b607e	-0.01592097835131811
181	0xbfcbae45b522d6df	-0.2162558683827944
182	0x3fbd9d84a4c3c299	0.11568478605819123
183	0x3fac455440000000	0.05521643906831741
184	0xbfcce065a18c4c18	-0.22559805286491108
185	0xbf6312cbdfa3e01c	-0.002328298750509118
186	0x3f812fadc90e868d	0.008391721437706745
187	0x3fb73287c804d931	0.090614782650708
188	0xbfc7eafa2a3d2a08	-0.18685843527266877
189	0x3fbbd906882f65a9	0.10878029656250611
190	0xbfb58730862f67a9	-0.0840940787888075
191	0xbfb470e9fa9342f8	-0.07984793059882722
192	0xbfe88b6dd22a4b8b	-0.7670201401509628
193	0x3fe4f9f778c8a643	0.655513511567911
194	0x3fb8e6c41d1d08be	0.09727121077324605
195	0x3f89bc47475eceeb	0.012566143861341547
196	0xbf9c211b40cf99f5	-0.02747004111361125
197	0xbfdb56f82b1fdac7	-0.42718319140787425
198	0xc0164dca20de6919	-5.575966371130812
199	0xbfa040901ec9c263	-0.031742576368633
200	0x3faec4b1198073fa	0.060094389307984344
201	0x3fd3a2c9ac89dee6	0.3068107781359529
202	0x3fd2caaea85eb6bc	0.293620743202023
203	0xbfc10a5cb5ffe477	-0.1331287277860473
204	0x3fa2f01b80c61d3a	0.036988124341457554
205	0xc000ac7a8bc3d331	-2.0842181128631627
206	0xbfe41b22d5e40b7c	-0.6283125093035404
207	0x3fab61ab35538cc6	0.0534795286746657
208	0x3fcfaad974b8712c	0.24740141104929003
209	0x3fa073a640000000	0.032132335007190704
210	0x3ff7fcf1c1b6edeb	1.4992539946532542
211	0xbfb3cc4660000000	-0.07733573764562607
212	0xbfaed05eb22bb881	-0.06018348622261361
213	0x3fea9b0bdd7ea802	0.8314265562123639
214	0xc00720c432785ccf	-2.890999216364072
215	0x3f691155698f35c7	0.003060023137072962
216	0x3faefaeb19bfd109	0.06050810517618472
217	0x3fc492ec534f2eda	0.1607337385925039
218	0x3ff418939beeab49	1.2560001460176002
219	0xbfc7834bbfc9d9cd	-0.18369433273956162
220	0xbfd6cd4abf3d2efa	-0.35628002811129955
221	0xbf968823e58d82f8	-0.022003708730497146
222	0x3fdd65846bd2f37a	0.45932112245264245
223	0x3fd4699c02583506	0.31894588688813064
224	0xbfe54fe7ea1b3ef4	-0.6660041401282499
225	0x3fe2b78ef7ed406f	0.58490703986355
226	0x3fd5d6125c46ccbf	0.3411909009111688
227	0xbfc4d4e82e2ffa04	-0.16274740462536397
228	0x3fcd99bac012b598	0.23125395182198072
229	0xbfe42303c8f598f6	-0.6292742657649615
230	0xc0147cd3b2c729d4	-5.1219013151225745
231	0xbf9cf86f0e7dafae	-0.028291449794252514
232	0x3fbea6e330fb30bc	0.11973400064306622
233	0x3fc99770c4fac0af	0.19993409746303345
234	0x3fdd85c8c74a7256	0.4612905451010979
235	0x3fc80fec65d4dc6d	0.18798594448319098
236	0xbfbffa3ecfc02a4b	-0.12491219112431755
237	0xc00141fcd81d6136	-2.1572205432859404
238	0xbfe4b57197422323	-0.6471488909020063
239	0xbfb60d162ea8297a	-0.08613718642314963
240	0x3fa81b356ecb351a	0.04708258607352374
241	0xbfbc0a5be0000000	-0.10953306406736374
242	0x3ff9468906bcf91d	1.57972052223301
243	0x3f831807c0000000	0.009323177859187126
244	0xbfac51d8d8631240	-0.05531194344942891
245	0x3fe54b001f450dbc	0.6654053316819311
246	0xc009b825350adda4	-3.2149147170964216
247	0xbfb1fc858e97cbb3	-0.07025942546151391
248	0x3fd1d7cb1811c26c	0.27879597998165795
249	0x3fc6ecf96aa58863	0.17910688121179694
250	0x3ff2bdf3de8dba35	1.1713751500607377
251	0xbfd0b93ab4e965c3	-0.2613055006709965
252	0xbfe0ee82c25394bd	-0.5291150851668572
253	0x3f85616d270df801	0.01043973231730533
254	0x3fdcd271bfe2219d	0.4503445028172111
255	0x3fcead263cc8deaa	0.23965909927368517

gnn.conv_layers.1.conv.lin_l.bias f8 [128]
0	0x3f8c6eedd730bac1	0.013883455400074298
1	0x3fa8e7fff946a3de	0.04864501874846615
2	0xbf942c882acd0928	-0.019701125728951357
3	0x3fc7579f941379d6	0.1823615525272106
4	0xbfb6ea7e569ad5ef	-0.08951558699012428
5	0xbfbaa2be70e7d2fd	-0.10404577499850727
6	0x3fbae8b2d6b80eef	0.10511319868242784
7	0x3fd136b15987e049	0.26896318190802454
8	0xbfb842217fad6ff9	-0.09475907675863472
9	0x3fcf6e0f572ce268	0.2455462623272695
10	0x3fc3db68c857bc95	0.15513334066733778
11	0x3fcc3addca221111	0.22054645890978766
12	0xbfbd98fa00000000	-0.11561548709869385
13	0x3fcc60fff4b30c43	0.22171019981587578
14	0x3fc530115c6049d2	0.1655294133239083
15	0xbfc6645ec0000000	-0.17493805289268494
16	0x3fba87ecaf93bce5	0.10363654409933394
17	0x3fc67294fb40fb17	0.17537176388028605
18	0x3fd1c00458155f79	0.2773447857084573
19	0x3fcd5af591619850	0.22933835600560082
20	0xbfc21ab9fc37b3c4	-0.14144062819778302
21	0xbf5dcd4af69a2b5a	-0.0018189651549700065
22	0x3fae574bd98fc23d	0.05925976782589657
23	0x3fbab01ef3e4334b	0.10424989179973669
24	0x3fd1b24f0bf34f50	0.2765081040099533
25	0xbf9bfbd39010f63d	-0.02732782904444363
26	0xbf765d072922e1e6	-0.005459812137069231
27	0xbfbd84a785fca035	-0.11530539532816493
28	0x3fc5b3e52583debb	0.16955246288101997
29	0x3fc1ab5f56601df5	0.13804237096358887
30	0x3fc1f51aed3559d0	0.140292516540923
31	0x3fac5bd6aeb3ebf5	0.055388172937419634
32	0x3fcb21db95211b77	0.21197075635629023
33	0xbfa589dc4f5466c1	-0.04206741779689827
34	0xbf9ec1e0e9fdbd92	-0.030036463052451952
35	0x3faa0ab7d29360b9	0.050863022284546706
36	0x3fd135f553804292	0.2689183535995109
37	0x3fd06959ba911a82	0.25643008441367254
38	0x3fa45fa3494b8435	0.039792158791677336
39	0xbfb999f334021e3d	-0.10000534076436281
40	0x3fc97887f8ad8a55	0.19899081842875668
41	0xbfcf9b7f8ee2d7ee	-0.24693293072567662
42	0x3fc974179348c05b	0.1988553494607029
43	0xbfaea1e5d9c6e8cc	-0.059828932603936374
44	0xbf8118a61976477a	-0.00834779515460914
45	0x3fd2ae62a097c125	0.29189363177194344
46	0x3fbe588187f3052e	0.11853799408983853
47	0x3fc101646fffa5f3	0.1328549906605044
48	0x3f94e390e1a3bdce	0.020399345180462984
49	0xbfae39367e74bc13	-0.059030249535105515
50	0x3fce2e34b361effc	0.23578509100832423
51	0x3f7cef0e69885719	0.007063919351386416
52	0x3fcf017f5705b847	0.24223319768083426
53	0x3fbdf86c4d6a7cd4	0.11707188501394522
54	0x3fcc57610a943735	0.221416597524177
55	0x3fc69a28d776de79	0.17657957573623032
56	0x3fce9ee12a8e5cc3	0.2392236192506286
57	0xbfbc4a8426ff8d68	-0.11051202728372334
58	0xbfaaef2ed97ebc95	-0.052606071519556576
59	0xbfcb6ef867038abb	-0.2143240454671139
60	0x3fd0b636ee6f71d2	0.2611214951009774
61	0x3fcd7cf6d147eb58	0.230376102626759
62	0xbfc829e26feec8f4	-0.1887782141253137
63	0xbfb1c39c9edb89a7	-0.06939104917868254
64	0xbf6b3211183ec143	-0.0033197721367842783
65	0x3fbe81bab81fa79d	0.11916701312261897
66	0x3fb7a1c1d53838c7	0.09231196837956467
67	0xbfba22529644267f	-0.10208622139557554
68	0xbfc59d6f3c88be1e	-0.1688670201851758
69	0x3fb41b098765ff72	0.07853755527139386
70	0x3fb10f51a0b1fa60	0.06663999722693736
71	0xbfb999f5a672db06	-0.10000548661887984
72	0x3fb03a02cb5c4b1a	0.06338517632347554
73	0x3f99088a2029517f	0.024446638310409604
74	0xbfcc5703684ca882	-0.22140543549295805
75	0xbfa026f2fdfdda96	-0.03154715872272111
76	0x3fbad60408002638	0.10482812114073503
77	0xbfb1c6221c1bb6af	-0.06942952333676077
78	0xbfc98cdd7cbffeef	-0.19961136428172874
79	0x3fca800481eae05a	0.2070317873347019
80	0x3fcb69d072200917	0.21416669437901056
81	0xbf9e482b1022dd85	-0.029572174892306364
82	0x3fd02dda8ff6040f	0.2527986913556228
83	0xbf9b09ec7d5f906a	-0.026405043747118752
84	0xbfc4aa4ed3548bf1	-0.16144738501415604
85	0xbfbe32d920000000	-0.11796338111162186
86	0xbf9d13a54b075f76	-0.02839525480689483
87	0x3fad4a1819e490ab	0.05720591846537223
88	0x3fc071dae8f50208	0.12847458243233256
89	0xbfcb82a29381582a	-0.21492416574864254
90	0x3fa115334b8c774b	0.033364870998623695
91	0x3f868caae3ab842d	0.011010489533363888
92	0xbfa2d72f42380f68	-0.03679797824227543
93	0x3fcb41b8e8156dae	0.2129431851597991
94	0xbfc17810ea4e6ad3	-0.13647662583101425
95	0xbf619db0613aa21a	-0.0021503872793185
96	0xbfbef4ac1f8c7c7d	-0.12092090387567285
97	0x3fbaa0ada619d7de	0.10401425652693727
98	0x3fbadcecb630aca7	0.10493354270936327
99	0x3fd2258c12c8c1dd	0.2835416968764813
100	0x3f9338c12e90fa02	0.018771189181501675
101	0x3fbe7760f7c771f1	0.11900907563489917
102	0x3fcec2cd6ff01a1c	0.24031990018575378
103	0xbfa889c0c31cf6c4	-0.04792597181083871
104	0x3fb97be1f56471cf	0.09954654923462346
105	0x3f8e764a1c4aa08b	0.014874056805027422
106	0x3f9d95978820d66e	0.02889096039162669
107	0x3fcc845fdb43435b	0.22278974729718012
108	0x3fca465da45f42ff	0.20527239347440937
109	0x3fce1704b39a78c3	0.23507746476838606
110	0xbfc9a95509933ee9	-0.20048010795152685
111	0xbf9f42153786a3ea	-0.03052552367595133
112	0xbfc45c018e33951f	-0.15905780261452038
113	0x3fbeedbcd0bc7238	0.12081508728119494
114	0x3f93ab236f9fd6d3	0.019207528770457238
115	0x3fcf4874d99b5800	0.24439869523365587
116	0x3fd2a0b06f946cdf	0.29105769058669567
117	0x3fc4fec4be0f28fa	0.16402491836772254
118	0xbfaf23e58de3fbbb	-0.06082074505865572
119	0x3fcb9f4f1c85609a	0.21579922573687754
120	0xbfb9df07a3cb83f2	-0.10105941532994203
121	0xbf9f825c2dcc3638	-0.03077072171713821
122	0xbfbbf084ad618afd	-0.10913876755652648
123	0x3fc4bfa4d88b7438	0.1620985085818647
124	0x3fd265b34784ae15	0.28745729431349903
125	0xbfcbdd64924f2558	-0.21769387382509353
126	0x3fbfbe49f78f6a45	0.12399732870054787
127	0x3fc87ceffc9d3b04	0.1913127883403477

gnn.conv_layers.1.conv.lin_r.weight f8 [128, 32]
0	0xbfd35d44d011b9b3	-0.302567675774209
1	0x3fc41bb220000000	0.15709520876407623
2	0xbfd0e12cb33f3d55	-0.26374356751053557
3	0xbfbdb93a5c8ea257	-0.11610760459610368
4	0xbfd2a5ea5ba39997	-0.29137667607428724
5	0x3fcbe9e58177103b	0.21807545491731326
6	0xbfae1dc5783ac63e	-0.05882088749548274
7	0xbfc95abac19871bf	-0.1980813451090295
8	0xbfc58858c97b7c5e	-0.1682234748650186
9	0xbfa75ad4f26cac74	-0.045614866822085626
10	0xbfc742a5dfc57850	-0.18172143389068873
11	0xbfc47589d7df497b	-0.15983698883662698
12	0xbfb7270b35583a5a	-0.09043951084479698
13	0xbfd09990de1183eb	-0.2593729179989725
14	0xbfbfb7db8b1f61ae	-0.12389919420764414
15	0xbfd3b0a3387dc497	-0.3076561023399988
16	0xbfbf5b90af356be8	-0.12249092366748437
17	0x3fc1f42ba0000000	0.14026398956775665
18	0xbfbcfb5486f43e62	-0.11320999426629322
19	0x3fba166fe0000000	0.10190486162900925
20	0xbfc8b3f2fb615ec8	-0.19299161219054484
21	0xbfc24298d77f4113	-0.14265738031691252
22	0xbfd0a3f9608e341d	-0.260008186619247
23	0xbf7f5198a0000000	-0.007646175567060709
24	0xbfc0c8cbc41d86a3	-0.13112780643409847
25	0xbfc50aca689620f9	-0.16439180475959583
26	0xbfc1d7f06083cf6a	-0.13940243446961215
27	0xbfd1965e80279e6e	-0.2748028041373577
28	0xbfc83e1cea44d4a2	-0.18939553679380078
29	0xbfc7255ac08bc6ca	-0.18082746888790374
30	0xbfc0be27b2526838	-0.13080307204364927
31	0xbfc09093b20c9144	-0.12941213792613315
32	0xbfcbed6037a7d7d9	-0.2181816360240976
33	0x3ff77ded7d4843a8	1.4682440656508593
34	0x3fd0d296747707b8	0.26285325406581306
35	0x3fc09ad0bea349e6	0.1297245913361415
36	0xbf96386be91f2b34	-0.02169960604059469
37	0x3fcdb88c1eaabe42	0.2321944379559558
38	0xc000f46d62d60780	-2.1193492623869474
39	0x3f8839d59811d4ed	0.011829060271546921
40	0xbf5c1ba95b91176c	-0.0017155794032687978
41	0x3fd3557d4e3bec52	0.3020928634647976
42	0x3fcc80439838872b	0.2226643079057394
43	0xbfc51f9a0d8833e3	-0.1650269094538138
44	0x3fc9ae4effe34de7	0.20063197607542735
45	0x3fc408ba878bf091	0.15651637667167909
46	0xbf9ed74c17b2ff9d	-0.030118168779835853
47	0xbfb164ad8b415b90	-0.06794247293269806
48	0x3fcc8f15292aae62	0.22311653623670497
49	0xbf4b37a740000000	-0.0008306090021505952
50	0xbfd824c8ba8845f7	-0.37724512306257857
51	0xbf8f536e40000000	-0.015295850113034248
52	0x3fd9829abd3e6ed7	0.39859646302077806
53	0x3ffb16cbf2df03d0	1.6930655944017765
54	0x3fd4c71ff6bab90a	0.3246536168543491
55	0x3fa0c6e76e3911c7	0.032767517285296636
56	0x3fb6da1c743355f8	0.08926561200072303
57	0xbfc0ec364a49086c	-0.13220862033091707
58	0x3fe5cb7365938bde	0.6810852989113945
59	0x3fbfdc28ba63bfc6	0.12445311117676203
60	0x3fce95d3ffbbd96e	0.23894739138604443
61	0xbfe084e3857229dc	-0.5162217718473658
62	0x3fcd7afa8372dd4f	0.23031550806420362
63	0x3fb83f2dca13dace	0.09471403296980016
64	0xbfc226ca5a4344de	-0.14180879027711674
65	0x3ff93430816b98dd	1.5752415709953802
66	0x3fd1d8846431d280	0.2788401583159512
67	0x3fc06d7f935a36fd	0.12834162421170695
68	0xbf7421a74af1ce42	-0.004914906966508039
69	0x3fd4985713ed65e4	0.3217981047251597
70	0xc000781315d98edf	-2.0586301524179897
71	0x3fb6a18e08260718	0.08840263079585176
72	0x3fc81e0007447c09	0.1884155307279516
73	0x3fcb062527361524	0.21112503447162922
74	0x3fc8cf5d541b9d05	0.19382826430157976
75	0xbfbf0fd1f049e0a1	-0.12133514515324119
76	0x3fcbfce86090fd2c	0.21865563120989273
77	0x3fc49970f4d2c9a6	0.16093265489832936
78	0x3fc9d197fab53199	0.2017087911757585
79	0x3fb9bc6495239674	0.10053089753236027
80	0xbf846ba495d21d0f	-0.009970937559286712
81	0xbfb9745f20000000	-0.09943193942308426
82	0xbfd918855bb89087	-0.39212163884281676
83	0xbfc51fda00000000	-0.16503453254699707
84	0x3fe4ba49fb90fe90	0.6477403558164543
85	0x3ffe1a90b06dad49	1.881485642598664
86	0x3fd426bb893d793c	0.31486404802662427
87	0xbfb5c083adc3a5d5	-0.08496878616610755
88	0x3fa1edd064401b13	0.035017502057647
89	0xbf83b72fddbc9efc	-0.009626745180483003
90	0x3feb6169cbb329d1	0.8556412676346615
91	0x3fbc2154ef5a31fa	0.10988360255777954
92	0x3fdcbccb277226c7	0.44902304508341867
93	0xbfd6933265a36c10	-0.3527341835558113
94	0xbfb629264bfcd9d8	-0.08656539302032884
95	0x3fc1370ecc7374f7	0.1344927309318462
96	0xbfcde27ec9e8a043	-0.23347458704779642
97	0x3ff692a7a22b52fe	1.410804398988318
98	0xbfa625f7d515635c	-0.04325842357747575
99	0x3fd2674a2b348aac	0.28755430430661977
100	0x3fb03905d4593d4c	0.06337009844104563
101	0x3fd60f1f7ecf013b	0.34467303641942565
102	0xc00436a87671bd6e	-2.5266885045490914
103	0x3fc58cd9cc6c1e1c	0.16836092454489993
104	0x3fc32faf5eab4636	0.14989273188125346
105	0x3fc579a4cf24b1ad	0.16777477373524388
106	0x3fd42e415c36f3a1	0.3153232002767315
107	0xbfbf54a077e9109b	-0.12238505294323192
108	0xbfa6c9bab06b16b2	-0.044507822070540284
109	0x3fd3ad9e3d411460	0.30747180921418327
110	0xbfb10e8298899599	-0.06662765716608589
111	0x3fb5d60b4a1cd1d0	0.08529730376614642
112	0x3fc6a7cc496c55ff	0.17699578843227923
113	0xbfb7541320000000	-0.09112662822008133
114	0xbfd8017d8394e27d	-0.3750909600235344
115	0x3fbf0a8d20000000	0.12125474959611893
116	0x3fde7c45d7c2dc15	0.476335011200207
117	0x3ffce68909210434	1.8062830311394125
118	0x3fcebb9596e48862	0.2400996195584098
119	0xbf9109260c806ffd	-0.016636461747211218
120	0x3fc7a9146547df98	0.184847402051443
121	0x3fb3c7def9e00835	0.07726853943316388
122	0x3fed63ff26ee92c8	0.9184566269292072
123	0x3fcb256e53d92788	0.21207980245736402
124	0x3fdb7cfcb4cc5908	0.4295036092384099
125	0xbfe08956404296b8	-0.5167647605018919
126	0x3fcdecaf88a07868	0.2337855736850003
127	0xbfc04715520adfe0	-0.12716928964596175
128	0x3fc4a91d972bc37f	0.16141099816698198
129	0x3ff8403d5aea01f5	1.515683512814687
130	0x3fc3f7e3f1b8c3c8	0.15600251486605843
131	0x3fc9c881eab5473a	0.20143150291783646
132	0xbfc1329616443d27	-0.13435627066835673
133	0x3fd224927ad4a2bf	0.2834821891324672
134	0xbffaab5886984f7b	-1.6668324716201528
135	0x3fa03469935a77ee	0.031649874913668316
136	0x3fb2570ba98e1b44	0.07164070977715392
137	0xbf98ce6b498575c7	-0.024224926340471045
138	0x3fd216a839bd3db7	0.28263288153263083
139	0xbfb15d7b37c0ca9a	-0.06783266173514804
140	0xbfa607883b3986ba	-0.043026215772227386
141	0x3fd96b850a595466	0.39718748102797574
142	0x3fc7173e5a6e46aa	0.18039683738293394
143	0xbfc7bbedcf75470d	-0.18542263631621161
144	0xbfbb54b810b498c4	-0.10676145942543075
145	0xbfc18a4f20000000	-0.1370333582162857
146	0xbfd513874db2047e	-0.329316926836391
147	0x3fc65af900000000	0.17465126514434814
148	0x3fd46f4d4d97e4fa	0.3192933328387678
149	0x3ffecb4e41634152	1.9246351770599017
150	0x3fd905cce5985b9e	0.39097902699853104
151	0x3fc53f4ebcf3644e	0.1659944937335091
152	0xbfa84c1b7caa3703	-0.047455653159984144
153	0x3fb38af65cd6175a	0.07633914724837379
154	0x3fe4c27937639f73	0.6487394410914774
155	0xbfb3a130e502a467	-0.07667832938263218
156	0x3fda759a9cb0824d	0.41342797567088924
157	0xbfdbf032571f8e81	-0.4365354395688215
158	0xbfc32efa9647843e	-0.14987118089541868
159	0xbfaa03336c729081	-0.05080567072698817
160	0x3fa75db6cf4c1dad	0.04563685684666594
161	0x3fb06872557ca68c	0.06409372889597814
162	0xbfc042cef37015af	-0.12703883062947116
163	0x3f9259fa460495d7	0.01792136242251793
164	0x3fac2e71a0de741b	0.05504183853847896
165	0x3fb2415125042b5e	0.07130915788381517
166	0xbfc1da9de0000000	-0.13948415219783783
167	0x3fb8c593c6fee507	0.09676478966038725
168	0xbfcd83812572418f	-0.2305756981700253
169	0x3fb7588674640cbb	0.09119453755924926
170	0xbfcb720da3358326	-0.2144181296271423
171	0xbfc62f7ef79725e3	-0.17332446183563296
172	0x3f88c114483071f0	0.01208701939872811
173	0x3faea7875fe4b374	0.05987189336369783
174	0xbfc403b1497d47f6	-0.15636268699978445
175	0xbfc84fe5fee16d88	-0.1899383062872
176	0xbfca3bb356862229	-0.2049469158630626
177	0xbfbd198200000000	-0.1136704683303833
178	0xbf8818474e43608c	-0.01176505763616855
179	0x3fafe23540000000	0.062272705137729645
180	0xbfce165ea1a647a2	-0.23505766766589625
181	0x3fa396b763887ab1	0.03825924959186489
182	0xbfbef6a46eb44e88	-0.12095096304647701
183	0x3fa556bf80000000	0.041677460074424744
184	0x3fa3c1447bf35572	0.038583889132193586
185	0xbfcb4fc93c59bbf2	-0.21337237784197743
186	0xbfc786eb8d0fb819	-0.18380493533862888
187	0xbfa0b3a83bfce2e5	-0.03262067539475825
188	0xbfc1f95705220dab	-0.1404217505515651
189	0x3fbca15be621277c	0.1118371426429387
190	0x3fa985108a8c0fd1	0.04984332743882159
191	0xbfc84eb285af0da0	-0.1899016525986612
192	0xbfd7b56c4583d963	-0.3704481772287151
193	0x3ff48d32a4dc2cd1	1.2844721259923981
194	0x3fc028fb493510fa	0.12625065874647828
195	0x3fd07dbfb17d715a	0.2576750977803123
196	0x3fcc42b3a2385b9d	0.2207855741587225
197	0x3fccca1227bcb190	0.22491671505248378
198	0xc002335a1ca8caaa	-2.2750742186556936
199	0x3fa078cf2c67d6cd	0.03217170159397895
200	0x3fbdf997384e5890	0.11708970188769485
201	0x3fcb3dab9ba02057	0.2128195295229058
202	0x3fdaa757a51730e5	0.416463767262725
203	0xbfbc97faece0b280	-0.11169403346202422
204	0x3fb17d8dacc8988a	0.0683220431170374
205	0x3fd5c52652ad43dd	0.3401580626860417
206	0xbfb04b46476552cb	-0.06364859812795058
207	0x3fc3f0bb6d01239a	0.15578406164629827
208	0xbfab6d472d5dbd0a	-0.05356810025011256
209	0xbfbde7a780000000	-0.11681601405143738
210	0xbfdf98ce351997b9	-0.49370150743049696
211	0x3fafaa9200000000	0.061848223209381104
212	0x3fdf774671c66894	0.491654978855544
213	0x3ffdd6a600f965a8	1.8649044073157288
214	0x3fd2e958a9a5a2db	0.29549233023730687
215	0x3fc5a816375797b3	0.16919210150007089
216	0x3fc0e3e49fac42af	0.13195474430587725
217	0x3fb5cd438b012302	0.08516332763350579
218	0x3fe644dcd6e514b9	0.6959060856976499
219	0xbfa006470d5b4a0f	-0.031297893886989774
220	0x3fd49391131de71c	0.3215067564666343
221	0xbfc8be4c2dd296cf	-0.19330742108757312
222	0xbfb88b6cffb53595	-0.09587746851794628
223	0xbf6e1bbc2a5864cd	-0.003675334463662061
224	0xbfd9f08840b29d71	-0.4053059226812002
225	0x3ff4ce0e200dbb60	1.3003064395995452
226	0x3fd2a6505514f293	0.29140098866245373
227	0x3fd912f79ed5bcf3	0.3917826701280795
228	0x3fa95ac1258bae0d	0.04952052672691929
229	0x3fd741f50138930c	0.36340069884526893
230	0xc006bdadf82387d0	-2.8426169763415388
231	0x3f8b0da35fd65f8b	0.013209606516099167
232	0x3fbf1adcd7a4b2e6	0.12150364174585668
233	0x3fd2b865317713a0	0.2925045950944938
234	0x3fd6e7fb77845ded	0.35790907546603884
235	0xbf65e8d1907fb18a	-0.0026744931274064786
236	0x3fd04578341d473e	0.25424008454602987
237	0x3fd319c2ed7a0169	0.29844735327789934
238	0x3fcf4ebec00764e0	0.2445906102791815
239	0x3f979d33f6333a01	0.02306061926065617
240	0xbfb83584df8a52bb	-0.09456663568046057
241	0x3fc23c3000000000	0.14246177673339844
242	0xbfceed5303e57a65	-0.24161756220105982
243	0x3fb5933b00000000	0.08427780866622925
244	0x3fe051cd2de2fb1e	0.509985532400467
245	0x3ffbc36460217925	1.7352031474216087
246	0x3fdf6f79d8b3e030	0.4911789528118815
247	0xbfb4eaa739f84173	-0.08170552411343639
248	0x3fa9ece6ae7d37d8	0.050635536956732785
249	0x3fb0f6bbfbc6f52d	0.06626486679939055
250	0x3fec74a85a8a3604	0.8892404335362589
251	0x3f98d9b84cde840a	0.024268035594676753
252	0x3fd890c25292e3e0	0.38383539260718
253	0xbfd5d71dfdbfe527	-0.3412547090552657
254	0x3fc2bad3fe64c9d8	0.14632654115264532
255	0x3fc2f668714d00e4	0.14814477474465726

gnn.conv_layers.2.conv.lin_l.weight f8 [64, 128]
0	0xbfaa7bf480000000	-0.05172695219516754
1	0xbf88dd1c20000000	-0.012140483595430851
2	0x3fb496aa80000000	0.0804239809513092
3	0x3f6907c780000000	0.0030554672703146935
4	0x3f9d0a75c0000000	0.028360214084386826
5	0x3f653c58e0000000	0.0025922523345798254
6	0xbf9ec53d00000000	-0.03004927933216095
7	0xbf577e62a0000000	-0.0014339411864057183
8	0xbf9f2b0ae0000000	-0.030437631532549858
9	0x3fa04bd9e0000000	0.03182869777083397
10	0xbf8005cca0000000	-0.007823561318218708
11	0xbf73b0ee60000000	-0.004807406570762396
12	0xbfb0f0e980000000	-0.06617602705955505
13	0x3fa1b72fc0000000	0.03460072726011276
14	0xbfaf9ac280000000	-0.06172759830951691
15	0x3fab6d1f60000000	0.053566914051771164
16	0xbfa63e6f80000000	-0.04344509541988373
17	0xbfb29c0100000000	-0.07269293069839478
18	0x3f7fe846c0000000	0.007789875380694866
19	0xbf7c136020000000	-0.006854415405541658
20	0x3fb2b3cec0000000	0.07305614650249481
21	0xbf8789b720000000	-0.011493139900267124
22	0xbfb42709c0000000	-0.07872067391872406
23	0x3fb3553220000000	0.07551873475313187
24	0xbfa429f380000000	-0.039382562041282654
25	0x3fa6b89f80000000	0.04437731206417084
26	0xbfa2abe420000000	-0.03646767511963844
27	0xbfa69d9220000000	-0.04417091980576515
28	0xbfb39cfc00000000	-0.0766141414642334
29	0x3fb3f5dd20000000	0.07797033339738846
30	0xbfb2829ae0000000	-0.07230537384748459
31	0x3f80ada1e0000000	0.00814367737621069
32	0x3fb5b496a0000000	0.0847868099808693
33	0xbfa4f70ec0000000	-0.04094740003347397
34	0xbfa90aa740000000	-0.04890940338373184
35	0x3f5dc636a0000000	0.0018172772834077477
36	0x3fb24dcc40000000	0.07149960100650787
37	0x3fa62d5be0000000	0.04331481084227562
38	0x3f7177be40000000	0.004264586605131626
39	0x3f9656f1c0000000	0.021816041320562363
40	0x3fa458a1a0000000	0.03973870351910591
41	0x3f90adfd00000000	0.01628871262073517
42	0x3fb6377380000000	0.08678361773490906
43	0xbfb2c35a20000000	-0.07329333573579788
44	0xbf9625d340000000	-0.021628666669130325
45	0xbf923edce0000000	-0.01781792752444744
46	0x3fa71fd600000000	0.04516476392745972
47	0x3fb57e1b60000000	0.08395548909902573
48	0x3f89f3da80000000	0.012672144919633865
49	0xbf84613b80000000	-0.00995108112692833
50	0x3fad6196a0000000	0.0573851652443409
51	0xbf90e3dde0000000	-0.01649424247443676
52	0xbfa6fad5e0000000	-0.04488247260451317
53	0x3fa3e8e3a0000000	0.0388861782848835
54	0x3f937ac400000000	0.019023001194000244
55	0xbfb56947c0000000	-0.08363769948482513
56	0x3fb1028780000000	0.06644484400749207
57	0x3fad06b460000000	0.05669177696108818
58	0xbfb6904840000000	-0.08813907206058502
59	0xbfa2482080000000	-0.0357065349817276
60	0x3f9f88b0a0000000	0.030794868245720863
61	0xbfadb47540000000	-0.05801741033792496
62	0xbfa7ddd600000000	-0.04661434888839722
63	0x3fa7df0e40000000	0.046623654663562775
64	0xbfa8c32bc0000000	-0.04836403578519821
65	0x3f5ff88a40000000	0.001951346406713128
66	0x3fa6f87780000000	0.04486440122127533
67	0x3fa1e0f340000000	0.03491935878992081
68	0x3fb606d2a0000000	0.08604160696268082
69	0x3facd1ed00000000	0.056289106607437134
70	0xbfaa0efb00000000	-0.05089554190635681
71	0x3fac4c2d80000000	0.05526868999004364
72	0xbf9ad17a00000000	-0.026189714670181274
73	0xbf71d0df20000000	-0.004349586088210344
74	0x3f99e21aa0000000	0.025276580825448036
75	0x3f8c69b860000000	0.01387352030724287
76	0x3faeb3c880000000	0.05996538698673248
77	0xbfa3c17340000000	-0.03858528286218643
78	0x3fa550cec0000000	0.041632138192653656
79	0xbfa5def560000000	-0.04271666333079338
80	0x3fb210c400000000	0.07056832313537598
81	0x3f9ba366c0000000	0.026990514248609543
82	0xbfa2830da0000000	-0.03615610674023628
83	0x3f9b1d1420000000	0.02647811360657215
84	0xbfa3ef3080000000	-0.03893424570560455
85	0xbfb4bbc7a0000000	-0.08099029213190079
86	0xbfb3683fe0000000	-0.07580947130918503
87	0xbfad58d580000000	-0.05731837451457977
88	0x3f80dd1600000000	0.008234187960624695
89	0x3f9c0cb260000000	0.027392184361815453
90	0xbfb48e3260000000	-0.08029475063085556
91	0xbfb6449de0000000	-0.08698450773954391
92	0x3fac7af2e0000000	0.05562552437186241
93	0xbf9c869380000000	-0.027857117354869843
94	0x3fa97b2aa0000000	0.049767810851335526
95	0x3faa36f940000000	0.05120066553354263
96	0xbfb207c5a0000000	-0.07043109089136124
97	0x3fb5cf1a00000000	0.08519136905670166
98	0xbfa7f3e840000000	-0.04678273946046829
99	0xbfb01fb220000000	-0.06298363953828812
100	0x3fa4524860000000	0.03969026729464531
101	0xbf8c6fbde0000000	-0.013885005377233028
102	0x3fb00b5340000000	0.06267280876636505
103	0x3fa261ae00000000	0.03590148687362671
104	0x3f9ac535c0000000	0.026142921298742294
105	0x3f66503520000000	0.002723792800679803
106	0xbfb049fa20000000	-0.06362880021333694
107	0x3f922f2bc0000000	0.017758067697286606
108	0xbf94ce3460000000	-0.020317858085036278
109	0x3fb6a07180000000	0.088385671377182
110	0xbfa5e4ba20000000	-0.04276067391037941
111	0x3faf7d6820000000	0.06150365248322487
112	0x3fb0636e20000000	0.06401718407869339
113	0xbfa3f32360000000	-0.038964372128248215
114	0x3f858d9220000000	0.010523931123316288
115	0xbfa012f4a0000000	-0.03139461949467659
116	0xbfa9e32540000000	-0.05056110769510269
117	0x3f98ca2a20000000	0.02420869655907154
118	0x3fa11ba7a0000000	0.03341411426663399
119	0xbf9aaaaea0000000	-0.026041725650429726
120	0xbfaff20da0000000	-0.06239359453320503
121	0xbfb338e000000000	-0.07508659362792969
122	0x3fb20fc260000000	0.07055296748876572
123	0xbf812ba840000000	-0.00838405080139637
124	0x3f7ee47840000000	0.007542104460299015
125	0xbf9ac2f560000000	-0.02613433264195919
126	0xbf98a0d940000000	-0.024051088839769363
127	0xbfa264b280000000	-0.035924509167671204
128	0x3f8945a1502d7160	0.01233984018261286
129	0xbfc0b97cda6b8ea6	-0.13066063561483537
130	0xbfca353cebd7ea31	-0.20474969402114732
131	0xbfb17ca3b6e67882	-0.06830809798563744
132	0xbfba6eb7eeaf7d5c	-0.10325193002016902
133	0xbfb11df900000000	-0.06686359643936157
134	0xbfbf8a236fb61507	-0.12320157506299632
135	0xbfc09f981b918710	-0.12987042757145462
136	0x3f710e17cbe81a1e	0.004163830714338816
137	0xbfcf36747b5adfa3	-0.2438493349379743
138	0xbfbab29a6a99b2f7	-0.10428776838825714
139	0xbfca44c43afa938b	-0.20522358779740232
140	0xbf925a7160000000	-0.017923137173056602
141	0xbfcc8128b02e7e96	-0.22269161799066656
142	0xbfc7aa62f1375b51	-0.18488728311668948
143	0xbfabae34a0000000	-0.05406345799565315
144	0xbfb7d0f56cb1a60c	-0.09303220657024996
145	0xbfb9d3dc5548da5c	-0.10088898737090218
146	0xbfc0b1cc5a25d9af	-0.13042597200155856
147	0xbfb70b388d433891	-0.09001496743005279
148	0x3fb3cf3800000000	0.07738065719604492
149	0xbfcd18c5e3bc2056	-0.2273185121523535
150	0xbfb068e3112a2dcb	-0.06410044831334642
151	0xbfc060d65dcb5f9a	-0.12795524196439773
152	0xbfb32dd593291a5e	-0.07491812556063723
153	0xbfcba26126476c38	-0.21589292878238253
154	0xbfb6a75acbf218ac	-0.08849112967627332
155	0xbfb632b260000000	-0.08671107143163681
156	0xbfc4a68d84b552bc	-0.16133278827569153
157	0xbfb1daa15dea2a63	-0.06974228422965605
158	0xbfcac5060c649d69	-0.20913768391731516
159	0xbfb2c7d5c6aedb09	-0.07336174107227235
160	0xbfb57d642885b141	-0.08394456853210831
161	0xbfb724d800a398d2	-0.09040594115831205
162	0xbfc1171d9fe2608e	-0.13351793581819432
163	0xbfc6eb25c67740e0	-0.17905113402094397
164	0xbfc18c31460771f3	-0.13709083480252068
165	0xbfcbf8f42b6e41aa	-0.21853496666564115
166	0xbfcab28841fdf50e	-0.20857337209955812
167	0xbfa829fca00e3c1b	-0.04719533399394767
168	0xbfc2d10ee52f3c00	-0.14700494948053233
169	0xbfa9d5908e90f21f	-0.05045749416646949
170	0xbfca4024ef80a1da	-0.20508252806145216
171	0x3fa63990d00c47e1	0.04340794124267667
172	0xbfc2c67df925ad20	-0.14668249764813712
173	0xbfc28189955c3777	-0.1445781688020664
174	0xbfc20dc2d1d232f5	-0.14104495282335675
175	0xbfcb22b9ac09f05f	-0.21199723148663716
176	0xbfb8a6ba2dc73301	-0.09629405610685284
177	0xbfab7138222af558	-0.05359816948974111
178	0xbfc3a0fba85eb70d	-0.15335031243505917
179	0xbfc734bde355cabd	-0.18129705047939196
180	0xbfc6c66ec4af5854	-0.17793068507916365
181	0xbfce212bb7938c42	-0.2353872915619793
182	0xbfb8cca853be963c	-0.09687282604735342
183	0xbfb877b5981059fd	-0.0955766197442713
184	0xbfbe5cff40b98ae8	-0.11860652284807893
185	0x3fb3a44e20000000	0.07672584801912308
186	0x3f9fbfe65460cdcb	0.03100547685626313
187	0xbfae7dcd4600e692	-0.05955354194197783
188	0xbfcabe7da237c117	-0.2089383165434888
189	0xbfc7594cb954c945	-0.18241271066069423
190	0x3f975c1880000000	0.02281225472688675
191	0xbfcd314a7023b9f9	-0.22806673503460198
192	0xbfc5beda3f8e25ee	-0.16988685706409917
193	0xbfca391858059a24	-0.20486740396445768
194	0xbfca375fcf105afc	-0.2048148881010191
195	0xbfb3ea4900000000	-0.0777936577796936
196	0xbfb4a17780000000	-0.08058878779411316
197	0xbfcac1856f3d8952	-0.20903079921397222
198	0xbfbe80f8082b86d4	-0.11915540885413672
199	0xbfb4c83d00000000	-0.0811803936958313
200	0xbfb5159edd62ef94	-0.08236115364974089
201	0xbfca43ccff56da25	-0.20519411533105472
202	0x3f8cca60423fdd40	0.014057876607678765
203	0xbfb69ec81123505e	-0.08836031359106886
204	0xbfb167ecdaf7ca76	-0.06799202295204929
205	0xbfc853fa8cd02475	-0.19006282687795176
206	0x3f9c0f6e60000000	0.027402615174651146
207	0xbfb83bb761635538	-0.09466119887959656
208	0xbfb7caca7057586a	-0.09293809168534187
209	0xbfb305e53c0066c7	-0.07430870737916982
210	0xbfceab5bde61557e	-0.23960445745857933
211	0x3f94293a40000000	0.019688520580530167
212	0x3f8bf1ad80000000	0.013644557446241379
213	0xbfb5d40120000000	-0.08526618033647537
214	0xbfc28212b89d5019	-0.14459451689128924
215	0xbfc49ccb17ca7b93	-0.16103495275180232
216	0xbfc6ad08f8549154	-0.1771556103277684
217	0x3fa95bab60000000	0.04952750727534294
218	0xbfc23a5ee0c7ec80	-0.14240632987625546
219	0xbfca90cf093dcebd	-0.20754421187631591
220	0x3f96512580000000	0.021793924272060394
221	0xbfc840edc526537e	-0.18948146940661198
222	0xbf9efc2700000000	-0.03025875985622406
223	0x3f92eb4949d83a9c	0.018475670940513042
224	0x3fb31d94a1c83703	0.07467011403806727
225	0xbfc55742b57f3b24	-0.16672548162611023
226	0xbfcbf17e0b7f4a66	-0.21830726205242285
227	0xbfb51ee062b55ce3	-0.0825023880946563
228	0x3fb5d6d4e1735c71	0.08530931953588251
229	0xbfb70dbcf3ebb72b	-0.09005337672325868
230	0xbfcdbefd264b1b53	-0.23239101762575362
231	0xbfcd047c825feb81	-0.226699412974849
232	0xbfcb6d0b511c1fe3	-0.2142652650875326
233	0x3fb294b6188060c9	0.07258165453129374
234	0xbfce0d69ec2f523e	-0.2347843554731685
235	0xbfb1473905707aa0	-0.06749302275464197
236	0xbfc353c3c8918f9c	-0.15099379819286873
237	0xbfc1e947bd13eee3	-0.1399316476089246
238	0x3fb1929480000000	0.06864288449287415
239	0xbfb6dc291cd454fa	-0.08929688409655859
240	0x3f9a4ba34faae3bd	0.02567916082145748
241	0xbfc69763aec6f7ff	-0.17649503740352654
242	0xbfccee7020bca209	-0.22602655027846222
243	0xbfc0bcb660f94e7f	-0.13075904593516793
244	0xbfce6aad86186d8b	-0.23763054893138888
245	0xbfc2343524366a51	-0.14221824901763339
246	0xbfc65228f0801243	-0.17438232176950139
247	0xbfb66a1818ae2e53	-0.08755636789845171
248	0xbf94432460000000	-0.0197873767465353
249	0xbfc70ea8930540d9	-0.18013484171615948
250	0xbfad56a740000000	-0.05730173736810684
251	0xbfc155e932a8a36e	-0.13543429349490615
252	0xbfc748c16a71a20d	-0.181907822584677
253	0xbf8ce623b681a476	-0.014110831267503548
254	0xbfc8fb1b6e8e922e	-0.19516318224226964
255	0xbfc7799b704c4c63	-0.1833986566858555
