runs/sex_prediction_5k/model_best.ckpt (torch, 374059 bytes, 68 tensors)

input_encoder.0.weight f8 [16, 3]
000000 1c 1e 28 4e fa 24 c5 bf b5 c5 83 b7 d3 a0 cb 3f
       -0.16519097152944162 0.2158455511158032
000010 b0 1d 46 aa b4 c3 d3 3f 75 72 27 b2 9f 38 cf 3f
       0.30881992939290637 0.24391552161150157
000020 12 4e 01 71 fe 2f a7 3f 1b fb f6 f3 8e 68 d4 bf
       0.04528803948838002 -0.31888173889812926
000030 cd a6 67 4d 00 33 ca bf ce d5 61 a6 2c ef d7 3f
       -0.20468143252883522 0.37397304771670015
000040 08 0b 43 99 87 3b d0 3f 9a 34 4f e6 5d bd dc bf
       0.25363340346318397 -0.44905803195144645
000050 e3 3f 8f d9 45 d7 d6 3f 0b 95 9a 09 e5 80 d1 3f
       0.35688921209384555 0.2734921067988842
000060 42 10 50 03 82 11 cc 3f 16 51 2d a8 5f 83 db 3f
       0.21928429757838513 0.42989341186081853
000070 e3 3e af 2f ff 2e d8 3f 60 51 47 93 10 6b cd 3f
       0.37786845833487187 0.2298298567899435
000080 c5 68 59 74 4b 85 b2 3f be 3d db 0c 26 af db 3f
       0.07234641638334256 0.4325652242232215
000090 6f 15 64 83 16 46 d9 bf 9f 68 de 99 98 2b c0 3f
       -0.3949028285136 0.1263304473221227
0000a0 a0 73 f7 60 3f 3a df bf 95 6e e1 03 e3 59 e2 bf
       -0.48793014974017446 -0.573472507075581
0000b0 52 4c c2 c1 99 21 d9 3f c1 27 ac 09 b4 8c c2 3f
       0.3926758186509619 0.14491892311371937
0000c0 62 a6 97 cf c9 a3 80 bf 14 15 88 e7 5d bd e6 3f
       -0.008124901435581925 0.7106160661793717
0000d0 a6 a5 c4 2f da 57 e0 bf 41 7e f0 bc 5e a5 aa 3f
       -0.510724156663106 0.05204292351140483
0000e0 bb c1 28 c3 0b 4a d7 3f 11 d6 84 2c d1 ea d8 bf
       0.3638944059230444 -0.3893320975069808
0000f0 cd b4 35 0c 73 94 c4 3f 67 e7 13 4d 67 cd e1 3f
       0.1607803163164249 0.5563236718582915
000100 ae f2 d1 06 ee 00 c1 3f a1 40 34 2f 48 66 dd bf
       0.13284087498677394 -0.45936779603744965
000110 6b 66 ce 7b e8 1d e6 bf 5f dd f4 08 4b b3 b7 3f
       -0.6911508958903146 0.09257954567589398
000120 07 79 48 0e f1 67 b1 3f 44 e5 db 57 52 8f c9 3f
       0.06799227331837097 0.19968632974613787
000130 1a c3 67 64 db 3b 72 3f 75 48 b1 5e 82 6a da bf
       0.004451615334333048 -0.41275080916705714
000140 1c 59 73 4f e4 4f da 3f f7 69 8e a0 30 2b c9 bf
       0.41112621077390243 -0.19663055267012883
000150 20 fe 03 b7 ba 5d 8f 3f ee f6 81 ac cd cb d2 3f
       0.015315493307297479 0.293689173187757
000160 40 07 1f fa d7 41 dc 3f 60 7a 76 25 9c eb 80 3f
       0.44151877809428086 0.008261890309595177
000170 27 48 f8 c3 4b b2 db bf 6e df 76 21 e2 7a c2 3f
       -0.43275732171707876 0.14437510141373927

input_encoder.0.bias f8 [16]
000000 ac 4c 3d e6 c7 23 d4 bf 29 83 73 06 e8 f8 b0 3f
       -0.31468389019318965 0.06629800946712962
000010 13 32 8d 75 8e 47 d0 bf e4 6d 7b b6 34 f2 ab bf
       -0.25436746101039026 -0.05458225944104436
000020 18 2b bf 81 90 26 dc bf a4 29 ca 7e b7 d9 d0 bf
       -0.4398537890489691 -0.26328837758833346
000030 0a e0 71 75 2b 25 b6 3f 64 70 a8 a2 a9 95 d0 bf
       0.086504665539792 -0.25913468250815286
000040 c1 de da 98 06 4d d8 3f 59 63 a1 e0 79 52 b7 bf
       0.37970127990000085 -0.0911022351659886
000050 4d bf 8e dc db 52 ad 3f 9f 9a 7b d5 6f a9 b3 bf
       0.05727278773645015 -0.07680415117247684
000060 5d 1e e1 66 5e 98 75 3f 97 36 b2 64 2c 42 a5 3f
       0.00527226329547367 0.04152048806382174
000070 3f 8f d1 94 19 13 d2 3f 9b ff eb b5 ba 77 96 3f
       0.2824157670313418 0.021941106179837893

conv_layers.0.bias f8 [64]
000000 24 5f 27 a5 a2 4b 72 bd 89 38 70 40 11 90 75 bd
       -1.0399759570283003e-12 -1.2257011826613836e-12
000010 c9 df 23 b6 9b b7 86 bd d4 5a ff 02 10 6f 2d bd
       -2.582648871646443e-12 -5.2284999564180466e-14
000020 b7 a9 8a 20 b8 8f 61 bd ad 20 1a 6e b8 3c 65 bd
       -4.991251019766058e-13 -6.035972199862766e-13
000030 88 b3 38 00 1d 54 51 bd 0d 22 1d 93 5b 99 77 3d
       -2.46253755422069e-13 1.3414508867112163e-12
000040 41 0e 7e 09 aa ac 84 bd 35 e2 02 09 ce 52 7b bd
       -2.3504150658404857e-12 -1.553158673895045e-12
000050 33 ec f6 b1 f8 6d 5f bd b0 f0 60 de 9a 39 84 bd
       -4.466411388250547e-13 -2.2993184937055743e-12
000060 34 04 7a ea 05 1c 20 bd ef c9 00 61 31 88 63 3d
       -2.8616158811163486e-14 5.551329270047706e-13
000070 67 6d 91 b7 ca 72 52 3d af cd 53 63 11 1e 69 3d
       2.6216761336997597e-13 7.138809456758368e-13
000080 10 f4 a9 17 b7 99 60 3d 75 0a 2e 08 23 ea 4b 3d
       4.718131668504276e-13 1.983451415211879e-13
000090 d2 99 55 33 0a 4b 69 3d f0 a7 03 a3 0a 3c 3e 3d
       7.188738322172984e-13 1.0741465425318692e-13
0000a0 96 a2 5a 0d d2 4d 64 3d 2a 6a a1 5c 89 ac 80 3d
       5.770740015028121e-13 1.895611032445137e-12
0000b0 78 d1 47 fe bf 9a a6 bd 9e 42 49 af 79 18 2b bd
       -1.0279332893793342e-11 -4.8131466388217744e-14
0000c0 1c cd ec e5 bc 6a 23 bd 8f 2b 1b fc 91 70 51 3d
       -3.4491422796886406e-14 2.478334345015382e-13
0000d0 10 05 83 34 8b fe 86 bd 4c 9a e8 ed 96 c8 36 3d
       -2.6141505715744e-12 8.094344039057414e-14
0000e0 0c ee 10 f8 26 b3 73 3d 86 e4 3d ad d1 a1 7e 3d
       1.119804742863725e-12 1.7412336127863522e-12
0000f0 20 08 2a a8 69 05 41 bd 84 71 b1 c6 6a c6 5a 3d
       -1.2094249830040952e-13 3.804965839247324e-13
000100 15 e6 41 47 00 6d 69 bd 72 42 72 e1 bf 7a 44 3d
       -7.226442874432743e-13 1.4551553111885438e-13
000110 01 62 7a 1d a4 df 6e 3d ea 0c 9f 03 d6 2e b3 bd
       8.774804299615488e-13 -1.74467942058119e-11
000120 43 ea 77 87 f6 45 9b bd e0 a6 75 87 65 4a 7d 3d
       -6.201228867816173e-12 1.6649785102183224e-12
000130 b3 ba 27 87 dd 2a 42 3d 47 3e 37 b4 aa 3e bb bd
       1.2908744472113692e-13 -2.4778994189399792e-11
000140 00 d3 49 82 73 e0 7f 3d 29 e8 2b cc e2 61 56 3d
       1.8119841642223121e-12 3.1807256428206934e-13
000150 33 5e 05 85 ca e3 62 3d 43 08 e5 fd 63 2c 72 bd
       5.368806612880862e-13 -1.033038231151866e-12
000160 f6 26 58 92 76 7c c6 3d 3b 16 15 ca 4c 15 2b 3e
       4.0902130894959634e-11 3.1528997890437786e-09
000170 a2 0d dd f9 6f b4 95 bd 5c e2 ae 2c 13 7f 72 bd
       -4.935107794747286e-12 -1.051397835585417e-12
000180 e5 10 60 63 68 19 70 3d e9 a6 4f 37 0f 5e 68 3d
       9.151363592132748e-13 6.925637216749244e-13
000190 b2 12 e9 6a 64 3f c1 3d 20 16 0e 8e 00 fc bf bd
       3.137324893262328e-11 -2.9089627302836843e-11
0001a0 9a b0 69 a5 d6 74 34 3d bd 14 49 9f 79 e5 6c bd
       7.267573295249576e-14 -8.212847165404634e-13
0001b0 4c a5 b0 db 80 2b 74 bd db f1 3f 77 83 d1 a4 3d
       -1.1465280618691472e-12 9.467117824537223e-12
0001c0 8d 20 77 47 3f 05 37 3d a2 62 ae 33 0a 32 63 bd
       8.178523392166841e-14 -5.455680186608375e-13
0001d0 d2 ee 80 8a 4a 89 59 3d 88 73 70 54 e6 ce 48 bd
       3.628925591080351e-13 -1.762728775706296e-13
0001e0 4d ce 30 7e 48 88 79 3d 9f 53 79 8e 42 08 43 3d
       1.4513464153856854e-12 1.3523238047373982e-13
0001f0 40 79 06 a3 ea 0e 5b bd 48 59 2d 8a 8b ac 56 3d
       -3.845211121771539e-13 3.222169796072087e-13

conv_layers.0.lin.weight f8 [64, 16]
000000 da 4b ff 83 79 e0 b6 bf 7e 59 b7 86 4a 01 c8 3f
       -0.08936271164502277 0.1875394017976752
000010 fd 4c ac c5 91 fb be 3f 77 06 58 f3 81 1b cf 3f
       0.12102614475252334 0.24302696592353687
000020 d1 9b 49 2a 24 61 ca 3f 40 cc 42 2d e8 68 b6 3f
       0.20608951630421626 0.08753825287821915
000030 02 0d 85 dc 7d af ce 3f e8 da 26 b7 c4 c3 d0 3f
       0.23973058002057007 0.2619487560836391
000040 9b 29 2d a9 7b 90 cb 3f fd 62 ea 42 75 b6 cb 3f
       0.21534677277152245 0.21650567786561928
000050 9f aa 2a 60 21 7a b4 3f 1a 9f c1 3f 36 c6 cb bf
       0.07998856160944932 -0.21698644745924228
000060 30 c6 6b 7e 51 14 aa 3f 44 18 dc bf 28 ba d3 3f
       0.05093626659607897 0.308237254488976
000070 df de cd 3a 95 d3 c1 bf b4 b4 3d ba 58 7a 81 3f
       -0.13926949855134915 0.008534138854623265
000080 c4 88 86 28 7a 9b b2 bf 5f b5 e0 01 d6 f9 c4 3f
       -0.07268489350693402 0.1638743886154925
000090 2e 9d 0a 17 e3 14 d4 bf d9 1b c8 11 94 b5 b6 bf
       -0.3137748456014887 -0.08870816644785808
0000a0 f2 b8 87 e9 04 df ae bf 04 11 b0 29 74 f5 cf bf
       -0.06029525137624771 -0.2496781543305887
0000b0 00 43 3e a7 e8 16 d8 3f 8d 0b cb 8d ef 8f b7 bf
       0.37639824230522834 -0.09204003535982803
0000c0 19 56 71 95 d3 50 c5 3f 70 1b 6e f3 52 a9 a3 3f
       0.1665291289997846 0.03840121480521119
0000d0 1c d6 c0 85 09 50 a4 bf ca 1e a0 25 f4 67 b1 3f
       -0.03967313535433112 0.06799245756712505
0000e0 df 19 75 62 b9 2c b6 3f cf 1e 04 ff 85 7a b9 bf
       0.08661993650193932 -0.09952580905894169
0000f0 22 5a c3 43 c8 a5 d0 bf fc 8c a6 05 80 04 b3 bf
       -0.26011854760636954 -0.07428741586641147
000100 79 96 15 a1 7a e6 c8 bf e5 d8 09 79 c5 b0 c1 bf
       -0.1945336615128104 -0.1382071343429693
000110 26 52 b7 10 70 52 a6 3f f8 d9 b8 f1 5e b6 c7 bf
       0.04359770015767976 -0.18525301745258083
000120 9b 89 b1 7f 68 d1 b6 bf 3d f7 bf 39 68 de c5 bf
       -0.08913281552808032 -0.17084982700174037
000130 f4 0a 98 c9 e9 6d d3 bf c1 8c 4e 54 f2 94 d1 bf
       -0.3035835713091466 -0.2747159789380014
000140 d4 63 16 99 35 b8 d4 bf 23 45 d5 8e 9b 97 cf bf
       -0.3237432475085005 -0.24681419824859416
000150 c0 c2 0a 3c 45 b3 71 bf 31 99 f4 e9 01 cf d0 3f
       -0.004321356246393904 0.2626347336503328
000160 4f 2f f5 9a 13 e3 c5 bf af b4 0a 5c 6f 9f c4 bf
       -0.17099232736870326 -0.1611155700133273
000170 41 f1 7f 39 80 e0 be 3f b5 c8 f1 93 59 3d c1 3f
       0.12061311153224087 0.1346847507844068
000180 72 32 a1 83 4b 63 a5 3f 34 f0 e8 a5 05 56 83 bf
       0.04177318555648392 -0.009441417813938903
000190 ac fc ed 8f 4f 8e 2a bf cb c3 55 28 34 be 84 bf
       -0.00020260544985359807 -0.010128409844328964
0001a0 95 c9 97 7a e0 c9 b1 bf ef 00 10 36 05 4e a6 3f
       -0.06948664658538058 0.04356399807875443
0001b0 9a f5 7a 2e 08 09 a1 bf 5f b3 ba b3 61 de b0 3f
       -0.03327203338038061 0.0658932746689067
0001c0 a5 15 13 56 84 f2 c4 3f cd 9f d2 c6 29 0b 7b bf
       0.163651029614056 -0.006602442922634522
0001d0 31 63 44 2d 43 b4 b1 3f 9f 5e d3 0d 0a 10 bb bf
       0.06915683608202695 -0.10571348989048567
0001e0 b1 e4 a1 0e 6e c0 8a 3f 96 c8 94 b6 2c 5c a6 3f
       0.013062343427224428 0.04367198685430755
0001f0 98 39 ee 8e ec 80 ba 3f 0c 7d da e1 0a d1 72 bf
       0.10352972497478274 -0.0045938897216324485
000200 50 9c 4e ee a3 9f d7 bf 68 80 90 ee 62 7c ca 3f
       -0.3691186740129 0.2069209732881092
000210 17 20 e3 ea 3d 62 d5 bf b7 f0 43 d6 67 02 cb bf
       -0.33412120760158487 -0.2110109134881719
000220 51 2a a0 0b 28 86 7b 3f 1b 2a a9 85 b2 b3 77 bf
       0.006719738414185787 -0.005786607124330457
000230 8f bd d8 44 58 b4 bb 3f 42 bd bf 00 69 33 cc bf
       0.1082205932695983 -0.22031891380854957
000240 b5 de 97 4d 38 f0 a7 3f 42 8f e6 89 33 af b3 3f
       0.04675460765059595 0.07689211003031196
000250 b0 77 ef 8f e7 5e b0 bf 79 39 84 9b 4a e5 b1 3f
       -0.0639481283573946 0.06990495964803313
000260 e8 73 6b fa aa 12 b6 3f 70 c3 0b 77 55 2f c0 3f
       0.08622234929812544 0.12644451439657756
000270 0c 49 70 c2 1a f6 b2 bf ef 0b 89 7e 34 ae d0 3f
       -0.07406775710140695 0.26063263279883037
000280 ce f3 21 fd b9 92 b4 bf 54 92 c0 94 72 d6 91 3f
       -0.08036386899944079 0.017419615105739375
000290 a5 f9 63 e6 cb ba 8b 3f 57 9a db ae 4f 29 bc bf
       0.013539879768811167 -0.11000535983075942
0002a0 86 a8 97 76 34 cb 99 bf 1c ec 98 f9 5b 31 50 3f
       -0.025189227808291047 0.0009883306687601462
0002b0 02 16 c0 2c f6 74 9b 3f b9 97 d5 74 d2 50 c7 bf
       0.02681336067327856 -0.1821539946060378
0002c0 a3 89 33 2a 46 82 c2 3f f3 44 a1 78 e6 de 93 3f
       0.14460064945803905 0.019404984581631046
0002d0 26 64 15 96 85 f8 d0 3f 7e 19 4e 37 f7 62 db bf
       0.26516856819722745 -0.4279153862084043
0002e0 07 88 09 6b 16 e3 a2 bf 14 ef 45 d9 19 a8 96 3f
       -0.036888790670460074 0.022125629316618392
0002f0 2e d2 3b a0 7a e4 b0 bf 54 b3 1f 13 25 c3 cd bf
       -0.06598631298022248 -0.2325178473833157
000300 5a 87 b9 1e 9d 17 3b 3f 40 2b 24 6e bb b0 af bf
       0.0004133947938723591 -0.06189523429391963
000310 71 7f 44 97 c1 ad c1 bf 89 75 c4 d3 3d 4c b8 bf
       -0.1381151188479595 -0.09491335315802564
000320 23 94 e0 a0 91 be b7 3f 97 86 95 9d 80 5f 72 3f
       0.09275160005252352 0.004485609440367042
000330 5f f9 98 b7 90 26 b1 bf 74 3f 97 0e 2e 34 cf bf
       -0.06699470980035958 -0.24377990448419562
000340 ab d0 29 4a ac 7d bd 3f dd a7 e5 44 b0 98 ca bf
       0.11519886789921212 -0.2077846847926698
000350 3d de c7 d7 67 d9 b6 3f 58 10 e2 93 1f ea c5 3f
       0.08925484674534175 0.17120737763264304
000360 34 81 79 1e 4a 67 8d 3f 0e 38 18 4d 43 eb a0 bf
       0.014357165389072259 -0.033044913445437016
000370 5f 2c 50 7b 7c 71 d1 3f 64 29 28 f7 90 fc ab 3f
       0.2725516514044041 0.05466130272914674
000380 3a 28 db c4 fc ce b2 bf e4 c2 d3 98 6b 5e c3 3f
       -0.07347087675148681 0.15131897890343915
000390 48 65 d1 b5 ae fb c3 bf 17 d4 29 9d 19 2f d0 bf
       -0.15611823919133827 -0.25287475917804286
0003a0 3c 20 39 47 fc 0c d2 bf c4 40 d8 31 22 d6 90 bf
       -0.28204256968865926 -0.016441854755669963
0003b0 8a 3d 12 31 54 4a b0 bf 11 3f 9b 5c f4 39 8f 3f
       -0.06363416860607721 0.015247258258937831
0003c0 d2 b7 f1 52 b3 ff c1 bf 2d 93 74 f2 a8 85 aa 3f
       -0.14061585950861272 0.051800994488337394
0003d0 c4 1f 8e c3 0d 9b d2 bf 20 53 49 59 f9 a5 ce 3f
       -0.2907137307852248 0.23944012508095458
0003e0 d6 5b af 6f f4 31 c3 bf ef c2 19 c6 ca 68 ba 3f
       -0.14996200040215396 0.10316150032464198
0003f0 60 99 9e a3 4b 91 c3 bf 7e 71 79 fc 73 2b b1 bf
       -0.15287156571612126 -0.06706929124761093
000400 e2 e1 02 29 41 ca ca bf 32 17 a4 86 32 74 a2 3f
       -0.20929731848242655 0.03604276555601728
000410 5a d6 b8 de b0 f6 c1 3f 57 4c fa 4a 5f 19 c5 bf
       0.14034090876673383 -0.16483679924985736
000420 38 82 02 b6 62 ca bb bf 69 e7 5e 53 44 b7 d5 bf
       -0.10855690902327175 -0.33931072370216114
000430 8b 96 09 f8 f7 e7 d7 3f 3f e4 e7 62 75 27 79 3f
       0.37353324148566774 0.006141146221573967
000440 a2 e1 da f0 e7 49 c0 3f 89 28 76 03 d7 6f d0 3f
       0.1272554327058631 0.2568261655620821
000450 e1 59 5c e5 bd f4 c3 3f 3b 9a b0 e4 09 2c b5 bf
       0.15590642642264554 -0.08270322640655874
000460 2c 55 52 87 08 9e b9 bf 4c 2c c9 fa d9 a2 cf 3f
       -0.10006764701605125 0.24715733285333596
000470 bf 0c a5 0e 32 6e c3 bf aa c9 e0 fe 92 2f 73 bf
       -0.15180040087770938 -0.0046840421692188414
000480 2f 7c d1 35 c3 e2 a6 3f ea 77 0a 54 cb 38 d0 bf
       0.04469881088220295 -0.25346644599073775
000490 24 e4 7f 3c 96 70 b8 bf 7a 0f fd 48 70 ec b9 3f
       -0.09546793915787127 0.10126401693292833
0004a0 2e 37 c9 21 1c 2e c6 bf e2 bd d0 6b 64 a9 b9 3f
       -0.17328216218668885 0.10024097091876841
0004b0 81 74 c4 01 a3 5a c4 bf 5c 63 33 9e 80 f2 be 3f
       -0.1590160139684578 0.12088779318163517
0004c0 39 1a 18 2e 0e 6c a1 3f c1 2d d7 7e a0 9a cc bf
       0.03402752220795375 -0.22346883958230815
0004d0 50 af 83 a1 12 76 c6 bf 50 1b 01 8e f2 94 d8 3f
       -0.17547829519696245 0.3840910326729743
0004e0 1e 0e ed a8 91 87 c2 bf dd 01 c3 e1 a6 98 bc 3f
       -0.14476223705615693 0.11170428287278562
0004f0 99 99 23 9f 42 3d 82 bf af 38 34 be 8b 1e ca 3f
       -0.008905907136477252 0.20405718600563236
000500 5e 5b 13 3f aa 3a b6 3f 64 16 fd 7e 11 4f 96 bf
       0.08683265724117237 -0.021785996795435372
000510 7a 94 1b 7c fd ec c6 3f 5a b7 50 16 c6 de c1 3f
       0.17910736617992368 0.13961101617445132
000520 f1 bc 27 d0 a2 14 be 3f 1e 88 50 67 8f 6b 8a 3f
       0.11750238019861904 0.01290046724358623
000530 46 cb b9 24 bf e8 c6 bf 0e 6f c5 94 c8 d5 b6 3f
       -0.17897786420106793 0.08919957763776784
000540 d6 18 09 17 50 e4 bd bf 4c df 8e 1d ae 56 cc bf
       -0.11676502764121052 -0.22139526789919228
000550 05 6e 24 08 d6 aa c4 3f e6 da d7 67 f6 fd d1 bf
       0.16146350286076952 -0.28112564221321035
000560 f0 47 0c dd 59 e6 c2 3f 79 9e 6e 3a 34 89 c6 3f
       0.14765475552900353 0.17606213429575115
000570 88 f7 c7 a3 da ba a3 3f 9a 74 96 8b ca 8c c7 bf
       0.0385349583557249 -0.1839841062145851
000580 de 07 b4 0e b0 7c 84 bf 39 fa e4 bf 4f ed c3 bf
       -0.01000344796057456 -0.1556796729073129
000590 ae 2e 96 e6 6e 4e bf bf 87 ff 46 3e f7 75 cb 3f
       -0.12229054574543838 0.21453753033528875
0005a0 1b 6b 27 cc 9c 58 c0 3f a6 68 72 57 e2 51 c4 bf
       0.12770423859077415 -0.15874890584820384
0005b0 68 f8 3b a2 b3 df d2 3f 86 af e2 06 fb 1e d5 3f
       0.2949036678618371 0.3300159041634675
0005c0 fb 86 0a 57 50 aa be 3f 3e 17 c1 d3 1e e4 c4 3f
       0.11978628277804752 0.16321168269694825
0005d0 34 4f f7 7a 87 4a a0 bf bb f0 13 d7 14 e7 be 3f
       -0.03181861282396739 0.12071352244305704
0005e0 e8 e2 1a 2c 0a f2 b7 bf 25 fc 9b e7 14 0b db 3f
       -0.09353698326857407 0.42255137079331667
0005f0 d1 25 07 7a dd f1 c3 3f 2f 9b 1c 18 52 ae c2 3f
       0.1558186384047944 0.1459448449833984
000600 29 a3 92 21 66 d2 b1 bf 22 54 1c 9b 41 08 9b 3f
       -0.06961668319366922 0.02639868268223123
000610 e1 47 16 d9 bd b8 91 3f b4 58 17 be ce 23 a1 3f
       0.017306295752469118 0.03347631521653352
000620 98 85 63 2a 00 fc a9 bf 7b b9 3a d2 60 38 48 bf
       -0.050750737356575815 -0.0007391426811034629
000630 1d 19 82 21 6d ec a1 bf be 0a 34 a2 48 09 b0 bf
       -0.035006914463382645 -0.06264165840188249
000640 f4 70 43 2f 31 10 c8 3f d3 cb 3c 66 ee 3a a4 bf
       0.18799414451394336 -0.0395121097375505
000650 ee 7c a0 28 96 0e a6 3f cc 12 e2 07 9b 3e 94 bf
       0.04308003660139002 -0.01977007136931057
000660 e0 29 35 da dc c9 99 3f 3f 6e b9 31 35 d0 af 3f
       0.025184107607211348 0.062135374374261414
000670 51 2f 8b f2 b6 c3 b8 3f d7 f6 46 17 c3 0d 95 bf
       0.09673636838414025 -0.02056031064579752
000680 a3 00 e0 e5 d9 79 a2 bf 16 93 43 03 da b4 9d bf
       -0.036085900603212616 -0.029010206650940416
000690 46 4b 81 4e a1 ae bc 3f 5a ed ab ed 21 45 c5 3f
       0.11203964392306628 0.16617225747163894
0006a0 57 b6 93 59 19 69 b7 bf 1d 71 3a c0 66 c8 be bf
       -0.09144743382395269 -0.12024538224290322
0006b0 aa 79 01 26 91 7e b0 bf 35 1d 51 85 00 5e c3 3f
       -0.06443125894427362 0.15130621442424688
0006c0 33 90 35 3a 8e 37 d6 3f eb 0b 56 ab 7e cb b8 bf
       0.3471408432435538 -0.09685508425722815
0006d0 52 26 89 50 a4 06 b5 3f 08 d9 6c cc d6 34 90 3f
       0.08213259664730657 0.01582656500541993
0006e0 48 c6 05 26 52 70 c0 3f 95 f4 03 4a 44 75 b5 3f
       0.1284277616173759 0.08382059866922227
0006f0 7f 8f 8d 38 82 8f cf 3f 41 bd 98 cb d7 16 b5 bf
       0.2465670372140458 -0.08237980576153793
000700 c2 ee ce a5 53 bc 9e bf 64 f5 b3 a4 a3 d5 b7 bf
       -0.030015284533631677 -0.0931036259753078
000710 14 da 32 6d 1c 4c c1 bf 63 0c 07 35 0b d9 b9 3f
       -0.13513522464718675 0.10096807522408961
000720 b3 64 38 28 9c a7 c3 3f b3 36 ba 56 33 a1 a9 bf
       0.15355255092507533 -0.05005798753437087
000730 e9 b9 a8 16 dc c5 aa bf d2 f5 e9 c2 d4 2c 62 3f
       -0.05229079987144642 0.0022186427589179014
000740 61 ea 8f c7 be ee d3 bf 0f 3e 3b 30 27 b6 ca bf
       -0.31144685257428334 -0.2086838708405456
000750 3c 55 0c 32 a4 54 d3 bf 47 b5 da 2c ac b7 7a 3f
       -0.3020411003829684 0.006522820052550066
000760 bf bc ce f7 c9 cf a5 3f 61 7c 4a d3 7e 38 aa bf
       0.0426009287833664 -0.051212275783876
000770 29 23 89 1a 91 9a ca bf d4 37 39 3a 46 e3 c6 3f
       -0.2078420047348797 0.1788108619970773
000780 db 2e a2 87 4a ca af bf 56 2e fc a4 8f b0 cb bf
       -0.06209023385698994 -0.21632571750557145
000790 82 3b 7c 2b 59 e5 be bf e4 fe d0 a7 d7 1b c3 3f
       -0.12068707763340394 0.1492871827522243
0007a0 21 82 60 04 8a fc c0 bf 2e 08 39 95 59 8e 98 3f
       -0.13270688260765076 0.023980521900974043
0007b0 82 ff fd 2a 41 30 cd bf 6c 5f 46 a2 b4 62 c1 bf
       -0.22803511237361468 -0.13582475589350496
0007c0 67 18 38 00 17 fa cd bf 29 95 98 c1 64 1d d2 bf
       -0.23419463644694646 -0.28304404168950953
0007d0 ec 00 c0 ee eb aa c5 3f d9 c6 27 c3 c1 69 c4 bf
       0.16927861364093333 -0.1594774439723128
0007e0 de 76 87 9c 3d e9 90 bf 84 0d e4 db 8c 87 c9 bf
       -0.016514742544919574 -0.19944916474205965
0007f0 00 eb fb 7d 16 26 ad bf ab 3e 54 aa 42 fd b8 3f
       -0.05693121230975429 0.0976144471971973

conv_layers.1.bias f8 [64]
000000 80 f1 93 76 98 a1 2f bd 90 0f 52 16 72 00 19 bd
       -5.6188356463116184e-14 -2.2206006662239e-14
000010 65 b9 c8 ce b3 e9 3c bd 88 1d 1f b1 f2 f5 07 3d
       -1.0271925496331049e-13 1.0640703622319884e-14
000020 ae 25 fc 84 e8 f4 0c 3d 02 e7 fb 63 da 08 df bc
       1.2859346017172514e-14 -1.7227653956467553e-15
000030 44 ef 70 5a 70 3a 17 bd 4f 9e de 9d 02 2e 30 3d
       -2.0630854247272332e-14 5.748193895037353e-14
000040 a9 2d 32 12 83 9f 32 bd a1 f0 53 06 f9 a4 42 bd
       -6.616251985723612e-14 -1.3247660615184192e-13
000050 30 6e cc 4d 59 ca 82 bd 0d bc 6a db 86 0d 3c bd
       -2.1362240169516868e-12 -9.96637048658139e-14
000060 4c 73 b5 65 01 69 f9 3c b2 2e bc 1e 96 df 34 3e
       5.642192839850989e-15 4.8599635251595984e-09
000070 8b 9e e8 9c 16 2b 09 3d 97 6f 98 b4 cb dc 18 3d
       1.1176976586855175e-14 2.2082321125889144e-14
000080 08 ff ea bc c3 d8 15 bd c4 0c 4f 88 41 41 34 3d
       -1.9403800099353253e-14 7.195988230508726e-14
000090 7b 49 fd 25 49 63 39 bd be d2 6c 16 f6 7b 33 3d
       -9.019570834548461e-14 6.922186823298993e-14
0000a0 01 de 97 6b 8c 54 49 3d 36 41 ca 9e 6e 89 15 3d
       1.7998237668965856e-13 1.9128560230383095e-14
0000b0 34 98 72 18 63 ce 4c 3d 5d 67 f7 e8 d9 70 0a 3d
       2.0468035854513135e-13 1.1742085101177281e-14
0000c0 5c 56 de 0d 13 b8 4a 3d ff c5 27 db 1a 15 45 bd
       1.8985020306856992e-13 -1.4979975333910504e-13
0000d0 35 77 0b c0 99 e9 09 3d cf bd c3 1f f1 74 15 bd
       1.1507462667864805e-14 -1.9057470500778578e-14
0000e0 7e 97 af 76 5a 42 0b 3d a5 e6 0f 34 a6 c3 03 3d
       1.2105513420677939e-14 8.77709230279328e-15
0000f0 be 6e 8f 37 2a 7f b3 bc b3 5b ac 37 f6 73 f5 bc
       -2.7057159194809318e-16 -4.763517520544071e-15
000100 c4 75 94 ed 4c d6 42 bd 73 f6 49 2c 8e 34 43 bd
       -1.3384572617408426e-13 -1.3646182415436688e-13
000110 8a ee 0c 23 6d f8 9e 3d 51 4c be 63 d2 82 42 bd
       7.04185715612341e-12 -1.315287277554247e-13
000120 e1 dc 36 0f 80 5d 55 bd c0 af b9 42 1a a9 cf bc
       -3.036182545463847e-13 -8.787569826156275e-16
000130 47 8d 1b 3c 23 8c ff 3c c2 41 b3 cf 70 46 f6 bc
       7.004932776124749e-15 -4.9460788496597985e-15
000140 63 bd 1f ff f1 cd 28 bd 7a 50 5e a9 24 cb 4d 3d
       -4.406159672629868e-14 2.1169575007853674e-13
000150 28 d3 68 c5 8d 09 39 bd 23 c5 55 4f c1 f9 38 be
       -8.89504274886806e-14 -5.81508640316918e-09
000160 24 ac b7 22 f1 5e 58 3d a0 ca 9e 55 9e a6 f9 3c
       3.463308493321414e-13 5.695633629629484e-15
000170 6d f0 ee 37 bc b3 43 bd 80 69 b2 d0 2d dd b1 3d
       -1.3999177451915707e-13 1.624719546708887e-11
000180 d5 c7 bf 02 25 e5 30 3d 8b 4a 7f 38 9e 3f ae 3d
       6.002343862497029e-14 1.3755428884073476e-11
000190 0b 48 53 1a 1b bc 25 3d cd 7d f4 a8 97 99 1a 3d
       3.860874030510771e-14 2.362551967185831e-14
0001a0 80 bf 7a ed eb 4d 4e bd 8a f8 ef 1e 0b cd ff bc
       -2.1532557937796075e-13 -7.061229587866169e-15
0001b0 3f 5a 59 c8 02 dd 40 3d d2 b7 be b3 b1 fb 18 bd
       1.198211216242206e-13 -2.2189521570670652e-14
0001c0 f9 bb fe 88 0a 0d 48 3d a6 7f 9c 45 24 c8 3b bd
       1.7089222128726262e-13 -9.870079319385786e-14
0001d0 32 bc 6c 60 26 26 58 bd f0 df ca 4d c8 5c 02 3d
       -3.431782585230841e-13 8.154557648956388e-15
0001e0 0b 17 e6 30 64 a8 cc bc 9d 19 99 dc fb 77 1f 3d
       -7.954131462789894e-16 2.794980856066591e-14
0001f0 3d 5d 3a 3a 2b 90 24 3d 82 3a c8 7f e3 cc 23 bd
       3.652750919263081e-14 -3.517248068179131e-14

conv_layers.1.lin.weight f8 [64, 64]
000000 4b e1 85 c0 40 b6 d1 3f ec 75 d1 06 80 5e b4 3f
       0.2767488365275496 0.07956695715389345
000010 6a 24 ce 8d 56 08 a0 bf 84 0c 0b 3e 09 06 56 bf
       -0.03131361466427836 -0.0013442125565894811
000020 7b 84 75 72 90 21 93 3f 49 bb 40 36 a6 71 a9 3f
       0.01868272493937127 0.0496952000834115
000030 66 99 ed 7a 50 86 71 bf 5a 6b 69 2e 48 84 c6 bf
       -0.004278482795461924 -0.17591192499352354
000040 ec 39 9e 24 54 4e c5 3f 18 5e b9 fb c9 0f b0 bf
       0.1664529017256905 -0.06274092097861972
000050 63 e9 31 38 e2 58 b1 bf aa fc be d3 d2 3a a8 bf
       -0.06776250717112968 -0.04732378802099764
000060 f9 82 3f 4f c2 35 90 bf 10 47 85 cb a3 cd 9f bf
       -0.015830074393195812 -0.031057891175186703
000070 e8 d8 e0 41 f6 28 c4 bf ff 93 1f 9f 03 65 a4 bf
       -0.157500059287208 -0.039833176779019645
000080 d2 eb 7f 2f d6 34 84 3f b9 ef df 75 6a e1 a8 bf
       0.009866402935576977 -0.04859478653813149
000090 f2 b1 87 d0 96 6c bc 3f a1 d5 93 18 3e 15 b7 3f
       0.11103193846765416 0.0901678857806787
0000a0 87 82 a3 f9 a8 96 ac bf e1 40 52 dc e4 ca b1 bf
       -0.05583694503161945 -0.06950216654718445
0000b0 33 d1 d5 d9 58 b8 93 bf a3 28 16 90 96 7a b5 bf
       -0.019257915778738876 -0.08390179651010725
0000c0 3b 5d 2a e9 42 c9 80 bf 88 ef 16 84 00 ac ad 3f
       -0.008196375599523456 0.057952896236627416
0000d0 cd b2 3f 36 3b f4 9e bf 61 01 06 7c 59 c0 51 bf
       -0.030228543459019975 -0.0010834573623413545
0000e0 c5 97 a3 2f bc 49 b3 bf db e2 fd 40 ab 8f bf bf
       -0.07534385836660736 -0.1232859643622634
0000f0 aa fe aa 48 06 ed 93 bf aa b5 4a 22 2d bf a1 3f
       -0.019458864388751586 0.03466168445207114
000100 10 19 42 a5 7a f3 88 3f 00 a1 2d 5e 24 46 a4 3f
       0.012183149498252749 0.03959764146458333
000110 cb 3a ef 27 87 6d b2 bf d5 1f 6c d0 04 b2 87 3f
       -0.07198376393283039 0.011570012674852062
000120 ee da 54 e8 45 7c b9 bf 00 3c 08 16 bd 76 c7 3f
       -0.09955250665812418 0.18331111503400166
000130 de 33 d1 e2 f5 c5 b1 bf 4b ac 73 43 6b 4a b4 bf
       -0.0694268873932766 -0.07926054379247309
000140 45 4c 5b 88 7f 8b c0 bf 5e fb 42 f1 08 88 a4 bf
       -0.129257146435153 -0.040100364161381505
000150 e2 13 f8 04 ec b1 a1 bf da 42 e6 29 04 d8 9d 3f
       -0.034560561758588695 0.029144349152889194
000160 aa 47 2a 67 02 5b a5 3f 57 b9 e7 7f b6 c2 be bf
       0.04170997151699336 -0.1201585829037176
000170 b8 ae be 9c b6 4a a8 bf d5 e3 0a ab 28 32 5b 3f
       -0.047445017465489625 0.0016599080228571945
000180 ab ab 54 b0 f3 a0 a7 3f ff da c2 16 65 e2 9f bf
       0.04614984061694057 -0.03113706542418537
000190 92 72 45 67 72 9b b6 3f fc 8a 08 ac a8 a0 c4 bf
       0.08830943127891036 -0.1611529197699254
0001a0 41 c0 10 20 4e cd b1 bf 4e b0 80 13 ea 76 c1 3f
       -0.06953895838592052 0.1364414782741527
0001b0 8d 41 62 98 b4 4f a1 3f 6f 56 44 33 4c 6c 9a bf
       0.033811229325809135 -0.025803747777067117
0001c0 7d 90 7a ac 30 84 a9 bf a3 30 e0 98 7c ed ab bf
       -0.0498366556687708 -0.054546254788961045
0001d0 93 6a 4a 9d 37 73 a0 bf bd d2 51 d5 42 32 81 bf
       -0.03212903780987122 -0.00839664662837813
0001e0 02 94 70 73 f5 4c b3 bf 61 e4 e0 ae 25 78 b9 bf
       -0.07539304798463323 -0.09948955077642686
0001f0 e3 98 30 39 df 62 ab bf dc d7 97 10 4a b0 aa bf
       -0.053488708239727754 -0.05212623074105213
000200 d4 ff 08 0d 8f 05 d2 bf 5e c2 b8 dd 6e 49 ba 3f
       -0.28158928177799436 0.1026829997360976
000210 20 37 67 6b b4 df a1 3f 16 46 32 57 c4 3e 93 3f
       0.03490985690187487 0.018794124433560176
000220 12 c6 be 16 e5 b6 c0 3f 47 9f 1d f6 f6 7d c1 bf
       0.1305815087376208 -0.1366566373574136
000230 cf 1c d0 5b 2a 05 76 3f a3 80 c6 34 dd 95 b7 3f
       0.00537601991982868 0.09213049448453829
000240 db d3 40 d5 0d c5 c0 3f 98 11 f7 ff 7e 36 bd bf
       0.131013611915164 -0.11411279439113853
000250 28 55 c8 ee e7 c2 a7 3f 85 39 b7 2c f2 e4 cb bf
       0.04640888967348139 -0.2179243772829517
000260 ac 34 11 fb d7 44 8b bf 67 19 28 c7 04 08 98 3f
       -0.0133149026388771 0.023468088775211806
000270 7d 9c e1 f1 7b 3a 7b 3f dc 8f b2 1a 35 a4 94 bf
       0.00664757171589436 -0.020157651667105245
000280 7f 4a b1 d2 60 0c b2 bf f9 91 56 40 8a f5 ae 3f
       -0.07050137657032883 0.06046707187059392
000290 cf 70 78 06 ca a5 68 bf 01 08 fe 5a 89 e8 61 3f
       -0.0030087419325025354 0.0021860773776447577
0002a0 a2 ef 75 e4 08 a9 be bf f3 9f 68 8a ed b7 c3 3f
       -0.11976676538136968 0.1540505338500676
0002b0 84 f9 9b 35 f9 e6 af 3f fb ab cc 34 ed 3f ab bf
       0.06230906276140316 -0.05322209615254533
0002c0 ed 79 50 90 02 3d be 3f 92 6a 18 10 57 37 6d bf
       0.11811843894290748 -0.0035664272734384295
0002d0 8f f1 37 bf 5e b4 b4 bf 90 a4 6b 96 34 df a4 3f
       -0.08087722938939222 0.04076542221248147
0002e0 37 41 0f ad d3 d5 83 bf a9 ab f5 8a 11 80 ba 3f
       -0.009685186117991946 0.10351667063302607
0002f0 1a d0 f5 fe f4 c8 a2 bf 61 91 6f c0 8b 04 c1 bf
       -0.036689430354187105 -0.13295123001365552
000300 6a 83 5d 56 6c b3 c2 3f 85 82 2a 64 51 74 c7 bf
       0.14610056130461696 -0.1832372416584073
000310 dc 0a d9 71 da 6a b6 3f d3 b2 e0 b5 1f ef 79 bf
       0.0875679519604477 -0.006331561917289635
000320 fd 5a ee 99 b5 ff ae 3f c8 42 f8 50 f3 1e 4c 3f
       0.06054465774575666 0.000858181769162491
000330 59 0e d0 8c d3 16 8c 3f 69 fd 1f 8d 16 ce af 3f
       0.013715412840617324 0.06211920235363772
000340 34 40 bc 5b 39 cd aa bf 69 37 ae 56 18 4a ba 3f
       -0.052346985290683185 0.1026931010839839
000350 16 88 a1 b1 02 b1 aa bf 6d 84 d0 a0 5f 6b c1 bf
       -0.05213173311564405 -0.13608928062697903
000360 5d 50 a2 be 55 81 88 3f 96 01 66 d2 2b e3 b3 3f
       0.011965436821164294 0.0776851071041221
000370 14 fb 1a f6 c7 b6 9c bf b9 77 7c e3 95 97 7f 3f
       -0.028041004558640628 0.007712922575391739
000380 29 ea 78 2a 14 96 b5 3f 78 9b c2 4e e5 84 90 bf
       0.08432127034112881 -0.01613195698942202
000390 c2 b6 25 4f ce 13 bf bf f5 d1 71 04 ba 8e b2 3f
       -0.12139596397693267 0.07249033554564462
0003a0 59 1b da 7d b4 57 c7 3f ef b7 d4 2e 87 1d bc 3f
       0.18236404557338906 0.10982556241353313
0003b0 2f df cc 22 b8 a7 9f bf 2a f2 5d 2c b5 1f 6e 3f
       -0.03091323578266197 0.0036772287884885473
0003c0 d4 05 d7 32 62 52 9c 3f 67 7e be 08 4a 90 91 bf
       0.02765801844885181 -0.017151982101152898
0003d0 e9 05 01 85 4d d9 b0 3f a0 b8 75 01 40 d3 95 bf
       0.0658157777516163 -0.021313667382337642
0003e0 2a 32 f1 e5 62 17 b2 3f 60 80 74 ff 3f 74 b1 bf
       0.07066934694120933 -0.06818008410164245
0003f0 d4 c3 09 5c 8c 10 d1 3f 90 2f 6f 08 49 7f bd 3f
       0.2666350268182758 0.11522346931377414
000400 bd 09 67 c8 97 92 a4 3f 08 f2 01 11 0d ce c4 bf
       0.04018091508216368 -0.16253817873429477
000410 a3 0d 47 a6 2c 45 cc 3f 0d f5 b9 0f ca 0d 6e 3f
       0.22086103552838407 0.003668684626801372
000420 c0 61 96 ef d4 8d b5 3f c5 25 62 45 54 9a a7 bf
       0.0841954312258002 -0.046099313230182605
000430 10 c7 32 60 26 86 a0 3f 7b 2c 5f 9a d1 17 b3 3f
       0.0322734825544001 0.0745821954616747
000440 09 c8 16 c6 96 16 bf bf 0a a5 29 35 fc 3e a9 bf
       -0.1214384301772783 -0.049308663835129066
000450 8d ff 5e bb cf 0b 8c bf 9d 0a 70 3b c2 65 b6 bf
       -0.013694403558360846 -0.08749021483530801
000460 b7 0a 53 37 29 e1 9c 3f 74 52 3e e6 5e 09 a3 bf
       0.028202671052677455 -0.037180867772950515
000470 e9 cc d0 aa 96 a1 a8 3f c6 85 27 d8 f3 31 cc 3f
       0.04810782275344556 0.220274429840215
000480 22 65 8c 6e 8d 2e b0 bf cc 8a 31 ac 80 7c cc 3f
       -0.06321033429084769 0.2225495186604206
000490 55 8c fa 43 5f 12 b9 3f 8d 62 c6 09 81 bc bd bf
       0.09793658647190402 -0.11615759361883189
0004a0 17 03 90 c8 f6 26 95 3f 4f fd 7e 7f b4 f5 be bf
       0.020656448356024173 -0.12093666184136008
0004b0 76 00 74 2b 67 4d c8 bf fc a9 b1 63 6a 69 a8 bf
       -0.18986215230689013 -0.04767925707786344
0004c0 66 44 1f f6 bf ff be bf fd d4 9f d0 60 cf 93 3f
       -0.12108993300286527 0.01934577248899404
0004d0 c0 29 d1 46 2d 3e a1 3f 5a cc 29 bd 1c 66 c0 3f
       0.03367749680963383 0.1281162189148713
0004e0 08 42 71 db 88 a7 c8 3f d4 18 99 f2 ca 6b b9 bf
       0.1926127501960908 -0.09930103705218879
0004f0 b4 26 00 6e 0f f9 90 3f 0c 33 1e 91 87 01 a3 bf
       0.01657508953943561 -0.03712104460200835
000500 66 26 f9 74 af ac b6 3f ce 65 2a 21 a7 b9 a4 3f
       0.08857246976654096 0.040478918837105846
000510 ad a7 1e c6 d7 ba 81 3f 76 a4 b5 42 1a d7 c2 3f
       0.008657155736574962 0.14718940980245393
000520 e8 c0 08 a5 88 d5 a7 bf 86 e7 c2 bb de 79 a1 3f
       -0.04655100836350973 0.034132919712148754
000530 af 58 1a ea 6c d5 b6 bf 00 70 a9 6a d9 96 98 bf
       -0.08919411387828079 -0.0240129443503605
000540 76 e7 72 17 00 da b0 3f a7 7a 3d 55 d5 3f 9e 3f
       0.06582642147523451 0.029540379836698574
000550 f3 5a 92 19 fb 53 b9 3f fc 09 8b b7 93 02 96 3f
       0.09893769621190156 0.0214942055488425
000560 cb 87 e8 b3 24 95 9b 3f 20 3b 66 32 f3 a8 6f bf
       0.026936124306423708 -0.0038647413195528474
000570 23 41 b0 8f f8 e3 72 3f dd e3 c3 c3 86 ea ba 3f
       0.00461194128276102 0.10514108924316141
000580 3b 77 e6 70 a0 41 b1 bf 3d 1c 26 30 60 50 76 bf
       -0.06740763431886602 -0.005447746023839403
000590 ca 3f a9 e7 e3 48 b8 bf 3d e8 e9 2d 87 a0 a4 bf
       -0.09486221700467393 -0.04028723178358049
0005a0 f9 41 05 98 08 64 a8 3f 2f e8 25 d4 35 77 a9 bf
       0.04763819556922395 -0.04973762716959162
0005b0 33 4a c6 81 34 b7 a9 bf fb 28 ee 91 56 47 63 3f
       -0.050225869027731206 0.0023533526249980264
0005c0 e4 5c 2e 1d 92 6f 9a 3f db be d8 c8 1a 69 a0 3f
       0.025816233664582536 0.03205188466779215
0005d0 7b 18 ba 6b 98 5e c2 3f f9 6f ca ff 41 f7 80 3f
       0.14351182232002543 0.008284106844534721
0005e0 66 12 75 6a 74 05 97 3f 69 16 b6 ba b2 bf a5 bf
       0.02248174571765773 -0.042478165904907446
0005f0 e4 4e a1 ab 15 1d c5 bf 6a 5d 22 d8 0a 39 af bf
       -0.16495009308220354 -0.06098207367284199
000600 71 23 5b 09 46 ed b3 3f 82 bd 0e dc df 5c 3f bf
       0.0778392575113125 -0.0004785582096315731
000610 f7 f0 a4 32 89 48 b0 3f a4 89 5d 21 66 89 83 3f
       0.06360681044037962 0.009539411442976604
000620 97 11 b2 33 0b d2 a0 3f 25 2a 8b 75 01 6f 86 bf
       0.03285250669526645 -0.010953914069792134
000630 2f 50 42 a5 4a 89 93 3f 36 9a 2f 91 7e d7 8d 3f
       0.0190784133306609 0.014571179204677081
000640 c4 20 bc eb e9 3f 4b bf 96 15 2b cd d4 62 8d bf
       -0.0008315937224958815 -0.014348661910285537
000650 4f a3 81 46 91 e7 96 3f 41 8c fb de 2a 76 93 3f
       0.022367734840744998 0.019005460605409977
000660 bf 23 dd 4a 33 9b 91 3f 63 11 f3 2a 7d 11 9b 3f
       0.017193604893041 0.02643390249865386
000670 7e fa 3a 38 36 2c 83 3f e1 22 47 1b 8c c7 7a 3f
       0.009361671057715567 0.006537959376551967
000680 7d ff 73 ec f2 43 5a bf 51 c1 5c c5 d8 b7 97 3f
       -0.0016031143475742908 0.023162257238426524
000690 51 cc 25 4a 8e 0d 8b bf 98 00 d3 c2 83 06 72 3f
       -0.013209449422651927 0.0044007441439931835
0006a0 d4 8d 0b 41 40 63 85 bf 53 a4 74 99 4b 24 7a 3f
       -0.01044321249486916 0.0063822701552363635
0006b0 cd 9c 82 d3 c2 d0 89 bf 94 e5 aa 33 2d 36 4b bf
       -0.012605211334017952 -0.0008304329597514253
0006c0 b6 8f c0 29 6a e8 a2 bf a8 57 76 da a9 67 92 3f
       -0.036929433438018064 0.017973569830779162
0006d0 20 86 17 d3 d9 7d 89 3f 33 43 2a fc 8f f0 8c 3f
       0.012447072748673682 0.014130711443870325
0006e0 46 4e 7f 79 bb 8b 90 bf ab 87 67 11 a4 24 a4 bf
       -0.016158036509138073 -0.039342047810137025
0006f0 35 72 b2 27 3c 0e 97 3f 95 ef 69 1d cd 94 87 3f
       0.022515239642063107 0.011514284572733216
000700 27 69 59 fb 12 9e 3b 3f 4f 8a 5a 3b 99 b6 97 3f
       0.00042140925811441843 0.023157495734844876
000710 7e 64 12 e3 55 d8 9e 3f e1 f1 b6 c7 2b db 60 bf
       0.030122129425397486 -0.0020576338845030716
000720 cd 2d 10 4d 56 61 9d bf c0 1b 1c fa af e9 b3 3f
       -0.028691624120296844 0.07778453689762355
000730 5b 74 92 8b 87 02 87 3f bf 82 d3 7b 5b 94 6b 3f
       0.011235293337728594 0.0033666407385769255
000740 09 75 ca 3f 8f 48 53 3f ec 6a 6e ff bc 85 5b 3f
       0.0011769675176432368 0.0016798349076682607
000750 23 c0 69 88 ba 7f 91 3f f7 3c cd 57 db e7 3d 3f
       0.017088808609003203 0.00045632462552176685
000760 f2 87 b9 79 b8 d3 a2 3f 90 d0 83 30 45 6b a0 3f
       0.036771550044036774 0.03206840722296633
000770 99 6e 73 30 64 15 87 3f 37 65 25 6e 24 ad 98 3f
       0.011271269539455718 0.024097985480101527
000780 2a 7c 83 fe e1 0b a4 3f b2 c3 7c 85 aa 8c 61 bf
       0.03915315849166519 -0.002142270135572188
000790 a9 9b b9 64 9e 3f 81 3f 3e 54 1d c8 96 9c a1 3f
       0.008422124337085739 0.03439780419163484
0007a0 86 6a bf 0f 3e e7 a2 3f f6 86 02 ef 28 62 a1 3f
       0.03692048971398258 0.03395202558136916
0007b0 a0 1e f2 50 35 07 51 3f 98 01 82 69 18 3e 94 3f
       0.001039316240879197 0.01976812499970179
0007c0 a0 1e 1e c7 8c be b0 3f f4 32 79 3b d3 02 8b bf
       0.06540756093283528 -0.013188982250676308
0007d0 05 4b 25 f8 79 5e 92 3f 01 a6 25 91 a5 8e 93 3f
       0.01793852402745257 0.019098841651986834
0007e0 dd 9b f8 68 e3 55 99 3f 0b f6 50 3b fc bc 75 3f
       0.02474170044129297 0.005307183532804692
0007f0 50 f4 9e 7a de 41 98 bf d8 2b 39 52 50 30 94 3f
       -0.023688770517527324 0.019715552347672943

conv_layers.2.bias f8 [64]
000000 0e 36 9c e3 3a e7 13 3d 02 e7 0f 46 2f 73 d5 bc
       1.7677630316362364e-14 -1.1907108681882068e-15
000010 b7 5f 0e e2 75 07 37 bd 50 5b 5f e6 37 c4 cb bc
       -8.181594957902658e-14 -7.70674578728056e-16
000020 b9 ee 13 34 47 7c 1f 3d 5f ac 3a 71 75 88 19 bd
       2.7964707419153236e-14 -2.267789691794963e-14
000030 39 bf 57 11 74 2f 11 bd 84 6c 42 ce 7a 88 2d bd
       -1.5263670152912206e-14 -5.2461366568735396e-14
000040 b2 55 2e 2a 5d 18 db 3c be 07 5e e4 7f 39 0a 3d
       1.5040841673011919e-15 1.1646065324538965e-14
000050 81 ec 79 3c b0 a2 03 bd 0d e3 5e 4a 47 eb 13 bd
       -8.719914413442573e-15 -1.7691676174589095e-14
000060 82 75 5b 89 c3 ab 21 bd b1 3f 69 07 14 a5 62 bd
       -3.1389917156229044e-14 -5.299181358259065e-13
000070 e8 42 dc 20 ec c7 10 3d 99 d0 d4 88 54 11 07 bd
       1.490447479466448e-14 -1.0244114953678165e-14
000080 15 cc 62 2a de 04 12 bd e7 3e a7 70 bf 66 f8 3c
       -1.6004100247330984e-14 5.418190039601329e-15
000090 b1 db 02 5e e2 5a 15 bd 6c c4 01 76 56 ba 16 3d
       -1.8967064887425347e-14 2.0186414131035e-14
0000a0 85 18 80 77 0d 0f 2c 3d ec c8 f0 6f 8c e0 c0 bc
       4.984243993006594e-14 -4.684348160101773e-16
0000b0 48 19 70 22 db 73 2e 3d cc bb 16 04 cb 37 fb bc
       5.409461763410419e-14 -6.043597073433236e-15
0000c0 2b 4b d6 02 2e 53 0c 3d b5 20 ae a4 5f 0a 40 bd
       1.2578791707529419e-14 -1.1397476314318282e-13
0000d0 15 0d 38 3a 2b ff 1f 3d 1f 1d 74 a3 e2 a5 d5 3c
       2.8418825824205295e-14 1.20170481781701e-15
0000e0 f4 73 c1 aa 0c ee 34 3d c7 e1 0f 18 d9 3d 07 3d
       7.435787375449413e-14 1.0321341044699324e-14
0000f0 69 a1 52 b5 46 1b f3 3c 21 21 b2 0e 18 2a 1e 3d
       4.242505829513464e-15 2.6791395401627682e-14
000100 47 84 26 8d 54 93 46 bd 92 7e ec 52 18 b6 51 3d
       -1.604086385605117e-13 2.5169283409214697e-13
000110 98 fe de 02 5a 63 12 3d eb 71 f4 68 e9 bb 31 3d
       1.633190668228301e-14 6.300393204003606e-14
000120 db e9 eb 57 47 1e 22 bd 45 74 99 0d 83 e1 c9 bc
       -3.2184523694232724e-14 -7.183394424280622e-16
000130 38 14 88 9d 0b 02 9b 3c 36 1b 76 7f 84 8d 06 3d
       9.370278766897372e-17 1.0015456467480322e-14
000140 58 a4 fc a3 2a 84 e9 bc 6d 00 68 ae e8 26 23 bd
       -2.832875672211856e-15 -3.402076475553433e-14
000150 f6 13 55 9c 49 54 22 3d ec 01 29 39 3e 92 11 bd
       3.25592854184274e-14 -1.560641567260606e-14
000160 d6 b0 48 e9 10 8f f4 3d 6a e7 42 08 ce ea 0b be
       2.9917066851968223e-10 -8.124976390670439e-10
000170 b7 53 67 fe a7 23 6c be 39 9c 00 90 cb 5f 2b bd
       -5.241349736491387e-08 -4.8626347157548755e-14
000180 7c 5d 41 77 cf 9c bc bd 31 12 bc 6d bd ad 78 be
       -2.6022954150455627e-11 -9.193521626974567e-08
000190 14 c5 84 71 38 60 46 3d e8 21 91 eb 26 56 c8 bc
       1.5899005673549912e-13 -6.754744367972514e-16
0001a0 ab 11 10 9e e9 63 d4 3d 6b 31 92 1b 7f f8 3a 3e
       7.417941913127578e-11 6.2796029983029156e-09
0001b0 3f 2a 4c 93 78 95 21 bd 8f f5 9e 64 ab 39 18 3d
       -3.123522966373541e-14 2.1516363358035965e-14
0001c0 86 7f 1c 58 76 96 33 3d ab 2f 4d bb 4f 59 3c 3d
       6.95896435194973e-14 1.0071542838252805e-13
0001d0 00 1d 60 29 5b dc 15 bd 6d 37 aa 39 f8 49 6b bd
       -1.9416260613501315e-14 -7.755984332443367e-13
0001e0 0c 9e 6f 5f e1 a0 55 3d ad cb 13 69 96 23 17 3d
       3.0735860315144607e-13 2.055157273824202e-14
0001f0 d9 c3 dd 70 59 6e 41 3d 5b cb 0b 26 7a 78 26 bd
       1.2385507559699585e-13 -3.991582858018499e-14
