runs/sex_prediction_5k/model_best.ckpt (torch, 329771 bytes, 18 tensors)

input_encoder.0.weight f8 [16, 3]
00000000: 3810 5a79 b870 b93f 8dc8 1cdf 9503 de3f
00000010: 3063 6278 6c45 b53f 136c 4707 e7fd be3f
00000020: f7ab d597 fb1b d4bf 2c2f 4b06 f7cd babf
00000030: 9d2f 20aa 6985 d83f f293 de80 4cbe be3f
00000040: 5670 0bce eb0c d83f a59e 130d eafb d4bf
00000050: ea5e b867 7ba4 c8bf b7f0 6660 00a1 da3f
00000060: 006e 596d 5bab f7bf 6be7 a5bd 6712 d2bf
00000070: 754a 79ab 37a5 d5bf 7d75 0895 0e71 d73f
00000080: 58a6 c1b8 242d 8cbf 7672 21a1 8f12 cebf
00000090: 284d 012a 11ec dabf 1aba 7bb8 f33b c3bf
000000a0: 2020 98da f8e0 b53f 9b62 4cc7 48d5 de3f
000000b0: 9e84 206b 0360 efbf 9132 c41f 0e99 e53f
000000c0: 77c3 f0e1 8554 e0bf 1065 51dc 0058 eb3f
000000d0: 6116 c7fd 0806 d3bf 24d6 4934 04f5 d7bf
000000e0: c9d7 9641 1c04 c8bf bece 474a ac49 cb3f
000000f0: 5893 0871 cb3c b23f c55c df42 d612 d23f
00000100: 5dbb cc6e 365c b7bf e93e 65eb 1ee9 e43f
00000110: 1f0d ab79 59ad d53f 575c 4807 0479 d9bf
00000120: 5e11 734e 537c d7bf ea28 a053 b786 e0bf
00000130: 7121 d87e 5dd4 e43f 4840 8e42 a6c5 80bf
00000140: fda4 6271 3249 d4bf 59b8 9b73 676e e03f
00000150: 1026 333b e29a c0bf 8741 2b11 7699 e43f
00000160: 6dd9 346b 3fc3 d43f 1f37 c19a febe a93f
00000170: e0da 0476 f655 e2bf d898 05d7 94fa 763f
0.0993762298840587 0.4689688376266837 0.08309057177610835 0.1210617440005282 -0.3142079336891465 -0.10470527557043557 0.3831428681739853 0.12009122987963375
0.3757886421351534 -0.3278756263448293 -0.1925195938535958 0.41607674993771177 -1.4793352385958087 -0.2823733665496692 -0.3382090735005144 0.3662754493141945
-0.013757979286498287 -0.23494143836696296 -0.4206583891111273 -0.15026709087347073 0.08546405159734194 0.4817678400300253 -0.9804703800511054 0.6749334927022393
-0.5103177464389849 0.8544925978741578 -0.29724335463502 -0.37432961565295586 -0.18762543871497275 0.21318582179048023 0.07124015340430156 0.28239971666830527
-0.09125080304214124 0.6534571263855159 0.3387054145971024 -0.39801121436307113 -0.3669632211788406 -0.5164448388398146 0.650923488371559 -0.00818948641406804
-0.31696759293352256 0.5134770639395 -0.12972667589774334 0.6437330565768641 0.3244169756830136 0.05028529776664769 -0.5729934983308702 0.005610066801045664

input_encoder.0.bias f8 [16]
00000000: b9f1 3a0d 8eb1 c73f 91db 3b4b 5657 b9bf
00000010: c2a2 2a86 3d9d babf b76c 9beb bf7b bbbf
00000020: 8817 6ae8 fe78 e13f bd5e ecf6 6bf7 b0bf
00000030: 17fe 8bd1 979a acbf 5c31 e2b4 e167 acbf
00000040: a56f 67f8 4d5f bf3f 8d9e b2f5 9e95 ca3f
00000050: efe5 2bdc 9d29 ca3f bc62 1194 2b21 d1bf
00000060: 64bd 9040 1e89 a7bf c349 1146 02a8 b03f
00000070: 7e76 dbae 2c38 ac3f 5552 6fc3 0098 d43f
0.18510604520805687 -0.0989889081646267 -0.10396179700422706 -0.10735702039839877 0.5460199870437785 -0.06627535608674413 -0.05586695130295654 -0.05548005421687449
0.12254798235465943 0.2076910686202961 0.204395039086918 -0.26764955005414115 -0.04596800363685352 0.06506361208565807 0.05511607775200121 0.3217775257628877

gnn.conv_layers.0.conv.lin_l.weight f8 [32, 16]
00000000: 0000 0080 8766 b93f 0000 0000 7770 a6bf
00000010: 0000 0000 e410 cebf 0000 0080 be41 bdbf
00000020: 0000 0080 70db bdbf 0000 0040 753c c33f
00000030: 0000 0080 b917 bebf 0000 0080 bcf2 b7bf
00000040: 0000 0000 8aa1 9c3f 0000 0000 1151 bc3f
00000050: 0000 00c0 ed1d c2bf 0000 0000 3087 7e3f
00000060: 0000 0080 b70e b63f 0000 0000 801d 65bf
00000070: 0000 0080 54f3 b73f 0000 00c0 9b90 ccbf
00000080: b6df a193 ae96 a5bf 1e1c 1aa1 a8a9 c3bf
00000090: d949 5bd8 ae01 c5bf 4e1f 02a9 365b c03f
000000a0: 3997 9293 c765 e93f 5a18 dc47 d406 ddbf
000000b0: c149 5e06 58fe d43f 3e8d 6e25 fcd7 c83f
000000c0: ff50 1cf9 b809 c83f b4ac f0b4 d3d9 cf3f
000000d0: 6720 3643 95fc c8bf 63b4 8041 7a7f dabf
000000e0: 0837 e434 13b8 d63f e8bf 346b 431c 833f
000000f0: b3f1 5c30 14ab bbbf 6358 50b5 2293 b9bf
00000100: 0249 949a 06a1 b83f 9cc8 a55a 0627 c33f
00000110: cdcf 731f a35d d4bf aecc 65d6 1653 b83f
00000120: d056 eebf fdf4 f13f 379a 0349 3b83 d1bf
00000130: 3a25 6584 3382 6abf 5284 b808 c738 b3bf
00000140: 33c3 f324 3f9e 71bf 5b54 9959 3f1a a4bf
00000150: ddc5 bb34 3984 64bf 8483 1b5a 0c4d e0bf
00000160: 0253 d0e0 82aa d63f a63a f625 fa82 bd3f
00000170: ac9e 6972 c8c3 c1bf 5bc0 c375 7c8d d53f
00000180: cf4f 87c2 5361 abbf 9651 bec8 cd09 ca3f
00000190: 2036 e3b5 1618 d0bf 447c bc1a 5682 babf
000001a0: 51c3 98b8 829a e83f bccb fdf7 f83f c5bf
000001b0: f7c3 d807 e3fe b43f 44f2 7e05 08e3 c1bf
000001c0: 6e16 7b50 a167 c23f 517e 6841 2a3f 78bf
000001d0: d586 9793 6475 c53f 5be4 9af3 1c0d b0bf
000001e0: 58d8 646d 9931 e23f 2571 2534 98d5 aebf
000001f0: 1004 ae41 2812 d23f 8d92 72c9 29e9 cfbf
00000200: a9dc ef7b ce6c ac3f e6b3 0e6e 98ed b6bf
00000210: d39d 9172 de2a 9c3f bafb 12ee ec50 ce3f
00000220: 2758 0e2d 1dc9 e33f 3f82 a9c1 40a3 d7bf
00000230: a07a c34c 9815 c23f 5c22 95a7 e963 aa3f
00000240: d199 4601 601c a0bf 1e39 67b4 db36 bd3f
00000250: ea43 b992 6c8b c6bf 75fb 0e8a 641a c5bf
00000260: c124 b795 ff1c ea3f 5bcb 271e 1041 babf
00000270: 308a c70f 373b c8bf 34d0 9c66 3b5a b4bf
00000280: 0000 0080 fae4 cfbf 0000 0040 0df2 ca3f
00000290: 0000 0080 5175 b6bf 0000 0000 7ff0 a23f
000002a0: 0000 00c0 377d ca3f 0000 0040 1ab3 cdbf
000002b0: 0000 0000 6b4f a6bf 0000 00c0 31a5 c8bf
000002c0: 0000 0000 ca0a b93f 0000 0000 c775 b93f
000002d0: 0000 0040 f9e9 c8bf 0000 0080 b755 c43f
000002e0: 0000 0080 d589 c2bf 0000 0040 48d2 c7bf
000002f0: 0000 0000 95f5 c4bf 0000 0000 d3b5 b0bf
00000300: 2c9b 33c7 1ae9 a1bf 35c8 949c 58a5 c3bf
00000310: c581 02ca eeac c93f 5285 38fc 021c ce3f
00000320: 272a a2d6 4dc6 e13f fb25 71be cdf1 c2bf
00000330: 86e2 208c 2e9d d33f ce8c 6f5a 1bdb c33f
00000340: f650 9592 8826 d23f d67b 3730 5501 aabf
00000350: 9d8a 662b 01ac c9bf 4fe6 cbf3 8e51 dbbf
00000360: 7d57 b283 7697 c53f 0f81 a9ff 8d3a b23f
00000370: 0324 36ce a210 b0bf 0358 5751 446e bb3f
00000380: 0000 0040 b643 c03f 0000 0000 0348 c43f
00000390: 0000 0000 22f2 c03f 0000 0000 ccb0 9d3f
000003a0: 0000 0000 bbd8 a13f 0000 0000 b05d 6d3f
000003b0: 0000 0000 0f4a c83f 0000 0040 dc34 c3bf
000003c0: 0000 00c0 2afc c23f 0000 00c0 c362 cfbf
000003d0: 0000 0000 7134 a43f 0000 0000 9098 a5bf
000003e0: 0000 0080 9427 c83f 0000 0000 f279 c33f
000003f0: 0000 0000 e4dc a73f 0000 0000 2ab8 953f
00000400: 2652 f1bd 3f2a be3f 1994 545b cf14 bebf
00000410: f322 1468 3e2d a73f 8a8a ae53 832e cf3f
00000420: 43c5 d116 5820 d93f fc22 d3d9 c551 babf
00000430: a55a d8e4 12d4 adbf 5faa f953 e9c3 b43f
00000440: 3f4b e1f7 96ce ca3f 9807 c08e 5893 b3bf
00000450: 8a3a 9de8 8225 92bf 916c 3ba4 2202 dcbf
00000460: 6a06 5731 4776 ba3f 8257 a1d2 ca01 a7bf
00000470: b837 5743 df3a a03f 6b00 803d f0f0 c63f
00000480: 867e e8d7 e605 c8bf f423 7a72 5ace d73f
00000490: 4b65 1739 dbc6 bfbf dd9c 859f 083a c63f
000004a0: d4d9 8e94 64b9 e1bf d915 c1e3 9a17 d63f
000004b0: 65a0 b621 1d32 b43f e84d a55c c33d cdbf
000004c0: 04ba 1f33 7f53 b0bf f139 4118 eef4 c0bf
000004d0: f98f 8b4c e67a d0bf 4dd2 b1ee 5fc3 bf3f
000004e0: 96ab ebfd 7755 bbbf 5b40 a7d0 bb91 c4bf
000004f0: 85fa 36e7 9473 c1bf 9e4d 11aa af3c d2bf
00000500: 3c55 db0d d8be b13f dc04 d776 28a8 d0bf
00000510: 65a7 9c68 7546 b2bf 0544 08c7 b7e4 d53f
00000520: 0d8c 97ab 3e69 eb3f 2fe0 da2b 1148 d4bf
00000530: 55a5 f788 6359 ca3f 13fe 2f14 bd68 ae3f
00000540: 482a 5988 64a5 b23f 7361 a7b2 35da b23f
00000550: 8e55 7039 eee5 b4bf 9dc9 0ae7 f761 8fbf
00000560: 79ac 6f94 7ee6 dd3f d07f 6d6a 1df7 afbf
00000570: 4106 12f9 ab83 b83f c975 53d4 9d77 b2bf
00000580: e225 7dd7 e87d cabf 8552 fcae 2ae4 c9bf
00000590: 35c3 30c0 e934 8a3f c3f8 6712 ee69 ce3f
000005a0: 4b76 a423 0f2b eb3f d494 a081 08e0 d5bf
000005b0: e5b6 e964 f613 d43f 3eb4 6879 dd3d bbbf
000005c0: 758f 9949 e5d7 d83f c7b3 9d43 2cc6 bfbf
000005d0: 2f4f b3f2 b014 bfbf 7d64 f614 e703 cbbf
000005e0: 125a 8e2d 2740 d23f 5a21 d263 b6f3 d13f
000005f0: 049b bbfc 620b b33f 8f3a c84c 1377 d1bf
00000600: 0000 0000 7699 a5bf 0000 0080 1df9 b23f
00000610: 0000 0080 1a75 bdbf 0000 0000 480d 943f
00000620: 0000 0000 c22d babf 0000 0000 961d c73f
00000630: 0000 0000 37fe a5bf 0000 0040 f622 c5bf
00000640: 0000 00c0 e0ff c4bf 0000 0000 7cef b2bf
00000650: 0000 0000 cc06 aa3f 0000 00c0 6637 c33f
00000660: 0000 0000 f0dd aa3f 0000 0000 9ea5 b0bf
00000670: 0000 0080 b151 cdbf 0000 0040 7cd3 c03f
00000680: db5d 14f2 965d c6bf a8df f927 ba14 c53f
00000690: 40ed 3919 48fa c8bf eb95 c73a c5db 97bf
000006a0: 5971 6105 c56e e93f 2358 ea37 dce5 dabf
000006b0: 6c4c 1948 14af b93f 84d1 a6c3 02b7 c2bf
000006c0: 64f2 39e5 264c c33f 5968 b2b6 d021 b4bf
000006d0: f900 b834 8e15 d13f 58fc 0a50 3036 d6bf
000006e0: e66e f241 c434 cc3f 0d7a 54df f946 813f
000006f0: ae55 21d2 631c c53f f570 0636 1d43 74bf
00000700: 1ca5 9d3e f1cc bc3f bd80 d3e4 df87 b63f
00000710: ff2f 2d5e f35a a9bf 4c49 5a2e e6dd b6bf
00000720: 2687 d014 7818 f03f e9f9 52ad 70c8 c9bf
00000730: ac1e 6967 a6ba c0bf b49b 91a9 e83d c8bf
00000740: 8291 1e5a 87cb ae3f 8331 0748 6c19 c5bf
00000750: 54db 96dd 3d99 bcbf b036 8c60 a63f d8bf
00000760: 5989 c4e3 bcb1 d63f 1f3c 24a6 3a45 cabf
00000770: 9da0 9af1 324a bd3f 9bc5 8f3c 8079 a8bf
00000780: e19c f166 703c babf a494 79cf 23b9 68bf
00000790: 67bc 2b80 6de3 b0bf 66ec b95c ecba abbf
000007a0: 6ed7 729e 085f dc3f b2c8 8bed b6d4 c1bf
000007b0: 28bd 9f69 fe10 b4bf 0141 a215 c152 c53f
000007c0: 421d 2db6 6624 b23f f710 8b96 2c1e d33f
000007d0: 2e61 1495 da87 cabf 2f7b 6b19 4ac5 d5bf
000007e0: 29a4 fadd 2b07 be3f 97df 516a 2d50 a1bf
000007f0: 1cb8 57e7 6fe5 b3bf 080b de70 f913 b3bf
0.09922072291374207 -0.043826788663864136 -0.23489046096801758 -0.11428442597389221 -0.11662963032722473 0.15028253197669983 -0.11754950881004333 -0.09354761242866516
0.027959972620010376 0.11061197519302368 -0.1415383517742157 0.00745314359664917 0.08616206049919128 -0.002577543258666992 0.09355667233467102 -0.22316309809684753
-0.04216523697044698 -0.1536150728827303 -0.16411386074339765 0.1277836156116287 0.7936742670324072 -0.4535418226008737 0.3280239164534145 0.19409133746840185
0.1877967087135701 0.24883505187003652 -0.19520822316940498 -0.4140306129145925 0.354985047962018 0.009331251820725542 -0.1080792062829861 -0.09990136076552995
0.09620705865771487 0.14962844301368683 -0.31821516105196396 0.09501784071271643 1.1223123071007883 -0.2736347401645704 -0.0032359129137701477 -0.07508510554227257
-0.0043013063980062325 -0.03926275223481276 -0.0025044553093429415 -0.5094053039466506 0.3541571803519191 0.11527980257799672 -0.13878732286979323 0.3367606306119392
-0.053476922508394524 0.20342418958592806 -0.2514702583547166 -0.1035512748025989 0.7688611607937706 -0.1660147868056735 0.08201426450320058 -0.1397409464679119
0.14378754071929073 -0.005919613895940382 0.16764504629741475 -0.06270008990658608 0.568554605159771 -0.06022334705878255 0.28235823072469746 -0.24930307709032143
0.05551762831594804 -0.08956291853856121 0.027507282011723987 0.2368446505042508 0.6183000450134885 -0.3693391696197387 0.1412840246984688 0.05154352350888722
-0.03146648421834509 0.11411832002997754 -0.17612988628619003 -0.1648679422487153 0.8160398410920139 -0.10255528198449097 -0.18930710096818038 -0.07950183158101326
-0.24917536973953247 0.21051183342933655 -0.0877276360988617 0.03699108958244324 0.20694634318351746 -0.2320282757282257 -0.04357466101646423 -0.19254133105278015
0.09782087802886963 0.0994533896446228 -0.19464030861854553 0.15886586904525757 -0.1448313593864441 -0.18610480427742004 -0.16374456882476807 -0.06527441740036011
-0.03498157197628013 -0.15348346372189928 0.20058998931655317 0.2352298480555342 0.5554570381221468 -0.14800426291394317 0.30646861729068353 0.15512411037261703
0.2836018973805631 -0.05079141820510073 -0.20056166285674673 -0.42685293014765063 0.16868478231907238 0.07120597354651557 -0.06275384458980686 0.10715128885144058
0.12706640362739563 0.15844762325286865 0.13238930702209473 0.028994739055633545 0.0348566472530365 0.0035847127437591553 0.18976008892059326 -0.15005066990852356
0.1483205258846283 -0.24520155787467957 0.03946259617805481 -0.04217958450317383 0.1887078881263733 0.1521589756011963 0.046607136726379395 0.02121034264564514
0.11783216845771757 -0.11750503520723078 0.045267057614244786 0.24360696397805653 0.3925991270871984 -0.1028102547453606 -0.0582586197235078 0.08111437130143305
0.20942961791532785 -0.0764670704375291 -0.017721219489710317 -0.43763032949727526 0.10336728052700442 -0.04493554898424092 0.031699158640193514 0.17922785761766433
-0.187680106567303 0.371969806474737 -0.12412805694420574 0.17364604748875126 -0.5538809682391794 0.34519073716759646 0.0788896758373326 -0.22844736121861264
-0.063774061185292 -0.13247467216793 -0.25750119662393406 0.12407493188386205 -0.10677289914353447 -0.16069743812704726 -0.13633977212699136 -0.2849539910141291
0.069318297751427 -0.26026355367146237 -0.07138761333467654 0.3420848315882384 0.8565972663312792 -0.31689862520898066 0.20585292995319074 0.05939284202031216
0.07283619240585282 0.07364211665788449 -0.08163346197428309 -0.01532357858500149 0.46719326492047447 -0.06243221210638661 0.09575915175266748 -0.07213770326367021
-0.2069674541656204 -0.2022755960866968 0.012796236207664438 0.23760772608506472 0.8490062423840724 -0.3417989030734365 0.3137184129217146 -0.10641273702704354
0.3881772249935616 -0.12411762858182761 -0.1214094727068271 -0.21105659984167238 0.2851655907519738 0.2805000281155309 0.07439249677882392 -0.27289278505569653
-0.042186439037323 0.07411369681358337 -0.11506810784339905 0.019581913948059082 -0.10226070880889893 0.18059039115905762 -0.04295513033866882 -0.16512945294380188
-0.16405877470970154 -0.07396674156188965 0.05083310604095459 0.15012821555137634 0.0524744987487793 -0.06502711772918701 -0.22905558347702026 0.13145402073860168
-0.17473112888613582 0.16469504310566419 -0.195137989346998 -0.02329929515135191 0.7947716813173812 -0.4202795549439335 0.10032774696564822 -0.14621004632284607
0.1507614726323424 -0.0786409803426137 0.2669406428176582 -0.34705741707506865 0.22036030979221904 0.008436157348623597 0.1649288917566713 -0.0049468174987874385
0.11250217226701803 0.08801078163696992 -0.04952202343574185 -0.08932341224343537 1.0059738934582554 -0.20142944777576524 -0.13069610642763985 -0.18938930778241814
0.06014655089464595 -0.1648383475970939 -0.11171328220266946 -0.3788848822449422 0.3545982574743412 -0.20523770439510344 0.11441343687568169 -0.047801978485846074
-0.10248472703243607 -0.0030179690764265566 -0.06597027186556802 -0.05416048652565379 0.4433003947591406 -0.1393040332691889 -0.07838430479727221 0.1665879588731585
0.07086793849622544 0.2987166853092868 -0.20727093009259917 -0.34016659243018216 0.11729692620669198 -0.03381483004426327 -0.07771968267454138 -0.07452353482771568

gnn.conv_layers.0.conv.lin_l.bias f8 [32]
00000000: 0000 0080 b802 c1bf 9456 53e4 24c9 5c3f
00000010: 11ba 98ca c82b 623f a9d5 be73 8201 b43f
00000020: 66c1 a816 85ee c3bf 7950 79c7 702c b03f
00000030: aabe e98e ca03 a43f 0000 00c0 d248 cdbf
00000040: 59fb 3bc6 d5e7 cbbf c04c 0f70 7696 d13f
00000050: fe53 78bf d6a6 b8bf f7ac 766b 09fe b73f
00000060: 0000 0000 9130 b1bf bd17 d1d9 e72c b03f
00000070: 1822 f112 3b2c c3bf 4cc4 ab96 9656 b7bf
00000080: 3116 9941 75bd c33f 0a64 5887 b146 c9bf
00000090: eac4 e55b 2338 c83f b292 ba2a 4cd0 b03f
000000a0: bada 38e1 8753 d0bf c279 188a fdf8 b9bf
000000b0: c328 7204 1d37 d03f 5d89 c375 6614 bcbf
000000c0: 8d01 9636 c325 9cbf d005 28b6 7ba0 cc3f
000000d0: a53f 9be8 367c 903f c641 3200 8545 c4bf
000000e0: 0000 0000 cc35 cebf 7862 2dff e44d c53f
000000f0: af6c 9235 4334 cbbf 4487 4c73 c948 b43f
-0.13289552927017212 0.0017569408676555752 0.002218143625916776 0.07814803434197039 -0.15571654898077297 0.06317810888259769 0.039091424889986584 -0.22878488898277283
-0.2180125444355905 0.2748085111936227 -0.09629575895844764 0.09372004388449172 -0.06714731454849243 0.06318520610611152 -0.14978731560610536 -0.09116498163690884
0.15421930029894917 -0.19746989353805616 0.18921319949325915 0.06567836802657714 -0.2550983142313431 -0.10145554181551744 0.2533638518731431 -0.10968628287404188
-0.027487802702582043 0.2236475600657699 0.016098840663118747 -0.15837156781755207 -0.23601675033569336 0.16643965205982503 -0.21253242603129283 0.07923564019122603

gnn.conv_layers.0.conv.lin_r.weight f8 [32, 16]
00000000: 0000 00c0 85ac cd3f 0000 0000 5ae8 9abf
00000010: 0000 0000 dcf7 8fbf 0000 0000 2da4 cc3f
00000020: 0000 0080 a24c bf3f 0000 0040 7483 c43f
00000030: 0000 00c0 4677 ca3f 0000 0040 0d30 c8bf
00000040: 0000 00c0 4990 cdbf 0000 0000 e804 893f
00000050: 0000 00c0 3a53 cebf 0000 00c0 a4ef cc3f
00000060: 0000 00c0 132f cf3f 0000 0000 500c c43f
00000070: 0000 0000 8d6c b4bf 0000 0000 a466 9c3f
00000080: d3a2 ba8f 6950 963f b32c 5eaf 6199 cebf
00000090: e7de f479 dd2f b63f 06e2 2d2b 72b8 c83f
000000a0: 2bf3 6a7c 43bf cebf b004 7539 0b27 c13f
000000b0: 8838 86fd 7922 d1bf 4709 38aa 1444 c13f
000000c0: ff19 bea8 7e1c bfbf 5aef 507d 28b4 b73f
000000d0: fd15 c233 e9a0 d03f fad0 1ec7 80cd c0bf
000000e0: 7e1e 1c58 c438 a53f ae92 2b51 bc8c bf3f
000000f0: 1187 c9da 3bca d23f 321f 01ad cf91 b9bf
00000100: 745b d22e f8b6 cebf 0dcc acb0 71b5 bfbf
00000110: d85c 88da 603f c53f a02f 07bf a429 c4bf
00000120: 7306 6acb 4e4d bebf a51e d47e ab5b a33f
00000130: d768 a6e9 1607 c33f adab a74b 9495 b1bf
00000140: 9246 21d7 0d29 d8bf 2138 c558 d927 923f
00000150: da1c ba2f ab32 c43f b0d6 7dec f5f6 d63f
00000160: 7b0c 17b6 a1af c6bf 381e 4d01 2347 ab3f
00000170: 46bd 3fdb 33d5 c0bf ea8c a9a4 18ee c03f
00000180: 78fe dbad a85f c03f 0078 3b64 2e2e c43f
00000190: fb29 33f7 29f5 b33f 7647 1609 c6d7 c1bf
000001a0: f8d5 f3a9 69be dcbf 3d4b 2a22 1195 a63f
000001b0: bcf8 9c03 9b40 c0bf aeb4 579f f288 cc3f
000001c0: 523f df73 116f cfbf c55d a109 33b4 80bf
000001d0: 0cf0 4974 c943 a43f 3dff 7e83 7aab aebf
000001e0: 18d7 22d4 2de7 9ebf fa5b a90e 72ce 8b3f
000001f0: 081c c18c eb35 ab3f 6784 6317 76d2 a03f
00000200: a4ab 0859 fe4b c43f 5cf4 cd05 81d9 bb3f
00000210: bb92 8ab8 d26d ab3f 9d74 4c86 e171 cabf
00000220: 5fd1 afef 0e1e a73f f553 e31a da1a d83f
00000230: d3db 3279 6751 bf3f 9c94 5993 b503 ebbf
00000240: e869 c47e c797 e33f ccfb 3893 91e8 dabf
00000250: cad9 4e53 f3cc c4bf a272 ca7f c35d e53f
00000260: cc57 bf8b 17f2 dcbf 6da7 5df3 9fde debf
00000270: 3a28 9916 dded c53f 2c79 3aad 5642 f1bf
00000280: e537 75cc 3d9c d5bf 43ab 05e5 9eb4 c23f
00000290: 6550 a90d 4866 b7bf 23f9 51fc bf20 b73f
000002a0: c80b 1344 5a43 a3bf 9d00 6f5e 9758 b83f
000002b0: 8d8a 36e2 662b b53f 58f3 c8cb b169 cebf
000002c0: 6769 86c7 0ef8 8bbf c25e 45b7 f161 c9bf
000002d0: e267 b5c4 2996 cdbf 0ed9 6134 15b2 903f
000002e0: 0107 c1f7 1485 b3bf 3362 530d 18cd c0bf
000002f0: b1d4 2ca1 bf62 c0bf 30b5 896e 3a45 c3bf
00000300: bc95 668d 839f c8bf 6f0e a259 9810 b43f
00000310: 4c5b 0cff af16 9c3f cd58 eec9 3be0 adbf
00000320: 8265 3f0b e2ca a4bf 98b4 e511 4a7d d3bf
00000330: b5c1 678d 1fb7 aabf d0ff f0de cba4 d03f
00000340: 705f a8f5 072a d13f c684 a100 8452 c33f
00000350: ab71 ed51 aefb 8c3f 6a52 dd88 8500 babf
00000360: 1fdc 1a2a 9eb7 d63f c1a4 76f8 d205 b8bf
00000370: 309e 4a1e 9390 cb3f 6ef7 3c7c b997 d2bf
00000380: 0000 0000 e9a3 babf 0000 0000 faed b0bf
00000390: 0000 0080 ea6b cbbf 0000 0000 5c9b cc3f
000003a0: 0000 0080 e450 c03f 0000 0080 9687 b4bf
000003b0: 0000 0040 0dce c63f 0000 0000 8772 ae3f
000003c0: 0000 0040 bec4 c8bf 0000 0080 1dfb b3bf
000003d0: 0000 0080 0c48 c93f 0000 0040 89c9 ca3f
000003e0: 0000 0080 f6b5 b03f 0000 0080 b21e c03f
000003f0: 0000 0080 160e c7bf 0000 0080 5a3a c9bf
00000400: b7d9 4921 9eff cf3f 9de6 1b86 4a07 c73f
00000410: 407b 122c ca15 c43f f254 4752 a770 c63f
00000420: 0f29 3301 d841 d6bf d1b4 5e57 fcd5 d0bf
00000430: 68ae 8bd0 f01d 953f 7af4 f941 3f1d be3f
00000440: 31a5 5df3 3be1 dfbf 0d78 699d 58ba ac3f
00000450: 4c35 073b 9606 c23f 94c2 9e83 40a8 c1bf
00000460: 855d 455a 9c4b e13f 7d7c 50aa 98ff d13f
00000470: a3a5 9dbb 7820 c13f b121 4601 bff6 c0bf
00000480: 11c8 9896 2eb2 c63f ba1f 1c51 8b2d b53f
00000490: 45df f033 c0b7 c2bf 82fa df27 6488 80bf
000004a0: 6cad 0344 c581 e53f 64a4 62d4 4a52 b2bf
000004b0: 5756 0cf0 46e3 ce3f f597 9f61 e365 c43f
000004c0: ada6 29b9 5df2 d4bf c971 0607 f658 cd3f
000004d0: d39b 166b 8af6 743f 71a1 33ec fa3a e1bf
000004e0: 81a9 8f2d d1a5 e83f a36e 09f7 5201 95bf
000004f0: 1f40 bf46 bf61 a7bf 983c 1fd8 a7e4 b73f
00000500: c2cc 6e8f b8b2 c03f 0fa7 e811 5927 cdbf
00000510: 8a26 e1e7 e81b c03f abbd 36a8 d7e3 cbbf
00000520: 9329 b050 4232 c6bf bed6 aa6c 7d05 afbf
00000530: 0c7b 4fec 48d0 c3bf 69fc 3e69 bc3d cc3f
00000540: 41f8 24be e8c2 dcbf 72fb ce15 9295 bbbf
00000550: 264e 2d70 3067 be3f d720 6e2d 6bb1 c43f
00000560: a251 96eb 2e75 30bf 0d8e 36c3 1020 cabf
00000570: 2b8e d860 57a9 a43f d967 3cd6 57ab ce3f
00000580: d32c 1482 5e3e d03f c3fd fc15 375c ccbf
00000590: 7f98 b111 b35a b53f ea01 f4e7 caee b53f
000005a0: 9a12 e972 57ce d4bf da7e 7569 015e bf3f
000005b0: 333f 8ffd c6fe cdbf ce1d f993 6189 c0bf
000005c0: 5816 00fa a613 e3bf a914 92ad f04c bcbf
000005d0: 9e2f 148a b09d a23f 0587 9b5b d435 a43f
000005e0: cd0e 1466 4043 cc3f f813 d3b2 4004 a6bf
000005f0: ef04 8c2d 20c8 50bf 9ee7 0fa8 09c7 d23f
00000600: 0000 0040 7a86 c8bf 0000 00c0 293e cc3f
00000610: 0000 00c0 67f1 cabf 0000 0000 bcd7 bd3f
00000620: 0000 0000 5f94 b3bf 0000 0000 e837 a3bf
00000630: 0000 00c0 ba5b cb3f 0000 0000 5f36 bb3f
00000640: 0000 0000 6607 9ebf 0000 00c0 fcde c93f
00000650: 0000 0000 c570 aabf 0000 00c0 9205 c5bf
00000660: 0000 0000 e8a6 aabf 0000 0000 8505 b13f
00000670: 0000 0000 3064 693f 0000 0080 7678 bdbf
00000680: adaa 75f9 8bb8 a4bf c3f1 9506 38fb c43f
00000690: af85 86b3 ea84 8bbf 1f78 7bd6 f2df c43f
000006a0: 5810 9a46 c52d cd3f c17a e00e ce08 b5bf
000006b0: 3f71 912e 7620 d0bf 3453 cc78 5d32 c33f
000006c0: f4ab e6c0 b0e9 9e3f dd56 9dba 676c a13f
000006d0: 51d8 3991 8103 a5bf 4798 91da 2da7 acbf
000006e0: fbb0 4c32 894e c9bf 1862 8f26 93eb c43f
000006f0: c907 653c 1a97 b43f 0988 1fe0 65a9 b63f
00000700: 9959 335a 0f6a bd3f 7e24 3991 62ed a63f
00000710: e635 b4c6 dc0b bebf 742f 238f 62d0 bcbf
00000720: b122 6fee 528f d2bf fb31 2fbc f0fc b73f
00000730: ee9e 7dbe ffc9 cbbf cd98 06ec 8a92 b0bf
00000740: 7aff 9ed0 395a e2bf 1313 5ed6 d4bb a0bf
00000750: 02d0 e198 f691 c13f ba50 0c94 10fd b83f
00000760: ba61 d510 dabb b6bf 6ed6 319f 98d5 a33f
00000770: 059b 7a84 f0d5 cbbf d0c9 eefb 3d68 b0bf
00000780: d290 0ab5 1632 b93f c9dc 1fd9 829e c5bf
00000790: deb6 0dae d06b b93f 0f7f 73ee ec0e c6bf
000007a0: 0432 739f c4ef b4bf 8d82 aaab 1d71 cb3f
000007b0: a2e4 b473 87c4 babf a851 871c d47b d43f
000007c0: c962 8cdd ea06 a03f a359 3668 a96e b03f
000007d0: a75a 8936 c685 c73f ee83 835e 88ce bcbf
000007e0: 6e6d 36b7 30c1 c2bf e4c0 45d9 4eb9 c73f
000007f0: 30d0 0510 d262 c5bf 8266 e0f1 ac91 cf3f
0.23182746767997742 -0.026276975870132446 -0.01560947299003601 0.22376024723052979 0.122263103723526 0.16026166081428528 0.20676502585411072 -0.18896642327308655
-0.23096582293510437 0.012216389179229736 -0.2369149625301361 0.2260633409023285 0.24362418055534363 0.15662574768066406 -0.07978135347366333 0.02773529291152954
0.021791123769306985 -0.23905583441623932 0.08666786410764936 0.19312884434090466 -0.24021190238081522 0.1340040236046085 -0.2677292800734752 0.13489015876263918
-0.12152854556743618 0.0925927453944814 0.25982122473246233 -0.13127145502733822 0.0414487226062734 0.12324120504087929 0.2935933720201414 -0.09988115285625268
-0.2399587849256154 -0.12386236728052342 0.16599665327587476 -0.15752085998098853 -0.11836712328115499 0.03780876086426347 0.14865385445302223 -0.06868864867253306
-0.377505741203188 0.017730136912455067 0.15779628591938072 0.35882328123930574 -0.1772348536597724 0.053277105244486866 -0.1315064259101552 0.1322661212935608
0.12791927804208902 0.1576593388953711 0.07795965466645065 -0.13939738696768317 -0.4491218719188903 0.04410604040199082 -0.12697160412239394 0.22292931347275186
-0.24557703168692996 -0.00815620301379639 0.039579673238193974 -0.05990202765633377 -0.03017875296855896 0.013577357361254972 0.053145752841878446 0.03285569224841183
0.15856913897854696 0.1087875975772063 0.05357225897504266 -0.2066003709559582 0.04515120197166555 0.37663891435414537 0.12233587941123795 -0.8442027929237557
0.612277743904369 -0.42044486405569326 -0.16250459258817634 0.6676957603372851 -0.45227612158975883 -0.4823379398936741 0.17132152179175525 -1.0786959425673315
-0.33766121832456825 0.14613710577699565 -0.09140444119958742 0.09034347448502848 -0.037623234567511654 0.09510179572589768 0.082693510272785 -0.23760054064214375
-0.013656726326008962 -0.19830151985910588 -0.2311451158992091 0.016304332086712718 -0.07624941872293435 -0.13125897074384482 -0.12801356668356825 -0.1505501785026495
-0.1923679771836485 0.07837822140032256 0.02743029588881578 -0.05835139121988817 -0.040610374329570056 -0.3045220541742508 -0.052178369532956216 0.2600583722269194
0.2681903742791212 0.1509556773262714 0.014151918292264328 -0.10157045928401379 0.35495714294251174 -0.09383886877062066 0.2153495691211318 -0.29051053173667796
-0.10406357049942017 -0.06613123416900635 -0.21423083543777466 0.22349119186401367 0.12746864557266235 -0.0801939070224762 0.17816320061683655 0.05946752429008484
-0.19350412487983704 -0.07805046439170837 0.19751125574111938 0.20927539467811584 0.06527653336524963 0.12593680620193481 -0.1801174283027649 -0.19709330797195435
0.2499883329907797 0.17991000698366558 0.15691496993982845 0.17531291501533236 -0.3477687846867789 -0.26306065113278715 0.020622027138342963 0.11763377533675792
-0.49812220350448216 0.05610920831234987 0.1408260143493102 -0.13794714380994277 0.5404798281769422 0.2812253630854185 0.13380345498016508 -0.13253009378628414
0.17731268266067038 0.08272619943829698 -0.14623262916733828 -0.008072645632634993 0.672091133919293 -0.07156818089664935 0.24131094666579386 0.15935938135879693
-0.3272928531865585 0.22927737563158093 0.00511793203023721 -0.5384497273744683 0.7702413453928757 -0.020512863471920394 -0.045667626749150474 0.09333275820175613
0.13045413020663515 -0.22776330351307947 0.1258517391418546 -0.21789069856229779 -0.17340878429270087 -0.06058875991349798 -0.15479384935948592 0.22063403262106654
-0.4493963105086359 -0.10775101692614245 0.11876204241462371 0.16166438787718704 -0.00025112529291362363 -0.2041035607518186 0.040354471752177844 0.23960397682895865
0.2538067121792668 -0.22156418393750074 0.08341521436668307 0.08567493594092182 -0.32509409162256875 0.1225281603305989 -0.23433768635595129 -0.1291925404095608
-0.5961489565676841 -0.11054901349605707 0.03635932622464043 0.03947318666702241 0.2208023546628425 -0.04300119574467226 -0.00102427618384154 0.2933982983810156
-0.19160392880439758 0.22064706683158875 -0.2104921042919159 0.11657309532165527 -0.07648271322250366 -0.037535905838012695 0.2137368619441986 0.10629838705062866
-0.029325097799301147 0.20211753249168396 -0.051641613245010376 -0.16423258185386658 -0.052054643630981445 0.06649047136306763 0.0030995309352874756 -0.11511936783790588
-0.040470480157485646 0.1639165908963048 -0.013437112430269986 0.16308436844605098 0.2279593081221971 -0.08216560233311566 -0.25198130176228867 0.14997452162119773
0.030188333295580308 0.03403019097338043 -0.04104237458970828 -0.05596297543597522 -0.19770922618898354 0.16343917258088037 0.0804306409309269 0.08852230760342662
0.1148995967117571 0.04477985403770733 -0.11736850596590606 -0.11255470270697093 -0.28999779972631773 0.09370331377358092 -0.21710202027610798 -0.06473606359813573
-0.573513896430071 -0.032683039825348946 0.13726694550462076 0.0976114617772649 -0.0888038912866084 0.038738984520858874 -0.2174664160604253 -0.06409060860349958
0.09842054290726601 -0.1688998756578484 0.09930137872080588 -0.17233049052355695 -0.0817835702211554 0.21438952333575792 -0.10456129622334001 0.32005789552683916
0.03130277590225245 0.06418856424566015 0.18376996672551124 -0.11252643878425747 -0.146520699939042 0.18534265145309015 -0.16707826406821047 0.24663316545847996

gnn.conv_layers.1.conv.lin_l.weight f8 [64, 32]
00000000: 0000 00e0 b180 c4bf fbfd ec27 d4bc cabf
00000010: 8b3a bc98 a3da ba3f a7d8 6c53 337d a5bf
00000020: 4eac 7915 9971 b7bf 0000 00a0 55d9 b43f
00000030: d195 10b2 df83 aebf 0000 0000 9e79 b1bf
00000040: 69b6 96ed b3a4 bcbf 12cf f543 c025 52bf
00000050: 7381 34b5 3b5a cebf fb00 a028 9965 ab3f
00000060: 0000 00a0 3481 a83f 0cbc 78ce c504 913f
00000070: 76ef 724f b174 cbbf 211d bb8f 81a7 ae3f
00000080: 33ef 98d7 42f5 b83f c902 1588 5a01 aebf
00000090: 0612 c87f 22b0 aa3f fd09 ac9f 22cc c7bf
000000a0: 355d 90b8 9fe7 ae3f 0000 0000 16b7 c1bf
000000b0: 6556 710c cd33 b2bf 726e 5c75 94b8 73bf
000000c0: 8ac1 63df 3277 cebf 588d 2c86 10da a6bf
000000d0: 511d b3bb 6166 9d3f 71c0 e2bb a633 c3bf
000000e0: 0000 00c0 63ae b3bf fd43 3cf3 44ab c4bf
000000f0: 0000 0080 f1a6 c4bf 0000 00e0 2a5a 853f
00000100: 0000 0020 98c8 b33f b5be fb20 0d4e 99bf
00000110: c120 b65f 176a ccbf 0eae c1aa abb6 c5bf
00000120: cbd9 f348 1113 d33f 0000 0040 2f02 c6bf
00000130: ed11 c179 f6c7 ad3f 0000 0040 2463 b63f
00000140: 4dfd cd52 6762 bd3f 5564 19fe 3823 b33f
00000150: cbfe 363e 5ab8 c5bf b318 cdf4 e441 923f
00000160: 0000 0060 ab00 78bf dfd9 82ce 185d ad3f
00000170: 2469 fac4 3bcb b3bf d8c8 4012 1eba c03f
00000180: 33d4 ba56 8256 9f3f b70f 839a 5c83 c1bf
00000190: 51a8 7b55 8cb5 af3f 42dc e9d0 c762 a93f
000001a0: fc4b a361 af94 bfbf 0000 0060 7439 c5bf
000001b0: 50ef 7ce5 9b06 c13f 8ae4 5fe0 4b33 c2bf
000001c0: efb5 0528 7089 c53f e8c1 3e0f 450b 97bf
000001d0: e145 b84e 1adf aebf 9d73 7e41 ee8a 933f
000001e0: 0000 00a0 df9b b6bf f4f2 d8ae f535 b3bf
000001f0: 7d13 e709 5ff6 9a3f aab8 8b58 6906 c1bf
00000200: 0000 0000 7c52 8a3f 88b9 1097 63d1 b2bf
00000210: ac7e a36d 0f6b a73f 9dbd daf6 3236 c9bf
00000220: bd11 4e26 90e9 39bf 0000 0000 0ed1 b8bf
00000230: fbc4 8cf8 3ca1 c4bf 0000 00a0 1c45 c0bf
00000240: 0672 f339 75d6 613f 2dec c88c d435 b4bf
00000250: c0ef 8efe dab8 b33f cfbe 45d6 558b ad3f
00000260: 0000 0080 54eb ab3f 5aee d235 acd3 bf3f
00000270: 9e66 a155 8c50 bf3f d804 1504 4428 77bf
00000280: 10e8 b310 1d2f c5bf cb4e 1b07 deef ccbf
00000290: ab25 02d1 91c6 a1bf 5824 1a35 f53a b73f
000002a0: 2c91 f713 d64f a9bf 0000 0020 5702 c3bf
000002b0: bf2c e038 fa2f b1bf 7ab2 aa76 8317 cabf
000002c0: b069 6d4c 2c45 af3f 8acf 95f6 8081 b0bf
000002d0: e581 64e8 6e84 953f 6480 6b6f e444 c0bf
000002e0: 0000 0000 2df6 a53f 99f0 ed54 6987 c6bf
000002f0: 0000 0020 200a 82bf e086 3f06 3f72 a63f
00000300: 0000 00e0 e95b c03f 6652 1e17 2c18 c23f
00000310: 2f85 c992 b600 77bf eb5a ca38 5aaf b3bf
00000320: 70e3 94f8 13dc d13f 0000 0020 c2c7 b1bf
00000330: 153e 3dc0 65a0 9c3f 0000 0060 4478 c3bf
00000340: 3026 f1ee a8f0 be3f 208c b2ff 1721 c93f
00000350: a87c 9f0e e44a c7bf 927d ea6c 03f2 c1bf
00000360: 0000 0020 2e10 c0bf 8eec f675 b09b 8e3f
00000370: f11c 21d7 8171 d1bf 3d09 7c86 37b1 bd3f
00000380: dac3 6fec a0f4 b93f 5948 2859 786a cebf
00000390: 01c9 7f61 0b7c b8bf 777d 692f e490 c73f
000003a0: ff08 6a89 922c 92bf 0000 0040 b167 ab3f
000003b0: 2cf2 feb1 04c7 ad3f 47b0 8cd0 787a c4bf
000003c0: 1731 9ccb 8978 d13f 7669 44d2 792c a2bf
000003d0: b193 a5bf b316 c1bf d579 7c2b ea9a a3bf
000003e0: 0000 0020 d7fa bdbf c8c8 401d e341 933f
000003f0: fd37 b3a9 6e46 963f 809b b05c 3b79 ce3f
00000400: 0000 0060 489b b33f e52f a8e5 e728 af3f
00000410: b01b 9432 5ffa 6bbf 3fe0 e12d 63eb be3f
00000420: 7623 bf8f 62de df3f 0000 0080 cdc7 98bf
00000430: ac93 54a8 33ee c33f 0000 0040 6a53 b43f
00000440: 6845 cb28 085e c93f afe0 870d e2bb d33f
00000450: 03d9 461c 6cbe c03f 6330 0b1a a625 b13f
00000460: 0000 00c0 ab94 ba3f 0ad0 1ab6 ab09 af3f
00000470: 0eac 5a28 9e22 b0bf e80b 23e4 9f20 b33f
00000480: 2a3c 5469 5b04 a73f cb40 6a33 8079 c4bf
00000490: 90be 63eb e38e 93bf 7def 2856 063d b4bf
000004a0: a7ac 3b96 e143 c7bf 0000 00c0 290e bf3f
000004b0: f80b 63f1 6dd2 c13f 4ca8 0ba9 6c0b bb3f
000004c0: 577c d581 2ce9 c53f 470d a007 7dcb 5fbf
000004d0: 0d68 17fd 1063 c73f b85c 4b03 9824 cbbf
000004e0: 0000 0000 77e2 b03f 825d 9f2a 90b7 c1bf
000004f0: 9a00 b219 3caf ae3f 18e5 ec77 dfbc b93f
00000500: 0000 0080 1a88 7c3f 0000 0060 c4e4 c03f
00000510: 0000 00a0 bf37 c1bf 0000 0040 5945 be3f
00000520: 0000 00c0 7068 babf 0000 00c0 a670 b03f
00000530: 0000 0000 e6b1 a63f 0000 00c0 6ca0 c2bf
00000540: 0000 0040 acbc aebf 0000 00e0 1be5 983f
00000550: 0000 0080 5dc9 c0bf 0000 0020 4903 c23f
00000560: 0000 0020 1019 82bf 0000 0040 940c b03f
00000570: 0000 00e0 0614 c0bf 0000 0020 90f2 c1bf
00000580: 0000 00e0 e6e6 b9bf 0000 0060 7a5b c03f
00000590: 0000 0000 ba7b ad3f 0000 0080 46d9 c2bf
000005a0: 0000 00c0 aa29 c33f 0000 00a0 6dfe 6d3f
000005b0: 0000 0040 191d 9dbf 0000 0040 7f2e 823f
000005c0: 0000 0020 9d7e bfbf 0000 0060 42ab aabf
000005d0: 0000 0020 3a7a b33f 0000 00a0 5c7d acbf
000005e0: 0000 00e0 d04b 87bf 0000 00a0 7648 aa3f
000005f0: 0000 0040 e7aa b13f 0000 0000 c403 b3bf
00000600: 0000 0060 f004 c23f 27bb 1306 1f7e cabf
00000610: 8f01 1ac4 96b2 b33f 6214 4ec1 f022 b1bf
00000620: 5566 8214 6e7e c8bf 0000 0040 019c 83bf
00000630: fe10 b627 3afd bbbf 0000 0040 b966 c63f
00000640: 61de 11ca 8e05 bfbf 0000 0000 06d7 c2bf
00000650: 5fe6 0794 86d9 c5bf 7cca dad9 8263 8c3f
00000660: 0000 0020 6062 a23f b0e0 ec40 0e41 cbbf
00000670: 8e86 13d7 4104 afbf 8de8 01b0 8643 903f
00000680: cae3 4dd8 d01d b73f c5be b5bd 38ea b9bf
00000690: 3ac9 3dbb ef6a 553f 79b9 0bd1 0e1d a6bf
000006a0: cb21 afe7 ba91 bebf 0000 0060 ead8 83bf
000006b0: b159 38e6 ba69 b9bf 0163 ff5d 0236 c2bf
000006c0: 0000 0040 025c b1bf db39 5b99 5032 b2bf
000006d0: 245f a220 7c28 c5bf fe55 238d 2e92 b23f
000006e0: 0000 00c0 e181 bc3f 19cd 7761 38e7 a83f
000006f0: 0000 00c0 8cb1 c33f 0000 0080 8953 bbbf
00000700: 0000 0060 bb23 c2bf bf60 20c4 477c a5bf
00000710: 80e6 2f07 cf32 94bf 3568 cd5f ab80 b4bf
00000720: f656 8d2b 365e dd3f 0000 0020 2634 c3bf
00000730: cfc2 b011 a394 b1bf 0000 0060 043e b03f
00000740: 3b28 3e98 2bde c0bf 425e 7b89 6c3a bb3f
00000750: 077f 553e 98b0 ba3f ec39 17d1 61f8 933f
00000760: 0000 0040 e858 83bf 2300 d72a d456 a5bf
00000770: 3eb8 9b06 e915 c8bf c628 b46c 0808 bebf
00000780: bf56 098d 9301 bebf 8841 85b0 7e9b a63f
00000790: d1aa e9f7 00f3 c63f 1b53 7ebd 6f23 bf3f
000007a0: 8e38 0df2 f25e c5bf 0000 00c0 5449 ac3f
000007b0: 6b33 8c28 6de8 c93f 89d0 b29f fa2c 95bf
000007c0: 15c1 6b04 1d95 d23f 4f36 9edc 6dbb c4bf
000007d0: b823 97af f26c a1bf ca46 9b68 217a c9bf
000007e0: 0000 0020 936c c13f 9dab e4b6 a979 c33f
000007f0: 33ad fb26 fcb1 adbf 237d be21 423c b93f
-0.16017745435237885 -0.2088875956487611 0.10489866713417421 -0.0419708289468173 -0.09157711767481766 0.08144126087427139 -0.059599867330955576 -0.06826198101043701
-0.1118881659555996 -0.0011076333610988182 -0.23712869975953374 0.05350950833235576 0.0478607602417469 0.016619768836047696 -0.21449867610305845 0.05987172011878728
0.09749238742454906 -0.05860407744558455 0.05212505159218854 -0.18591721340642656 0.0603609001920468 -0.13839983940124512 -0.07110292009141402 -0.004814701000011122
-0.23801265628527474 -0.04463245046488379 0.02871086795928807 -0.15001377271756014 -0.07687972486019135 -0.16147672535637972 -0.1613447070121765 0.010425887070596218
0.07727957516908646 -0.024711804521699594 -0.22198764966402076 -0.1696371635219837 0.298038789026944 -0.17194166779518127 0.058166220057078145 0.08745028078556061
0.11478276988599596 0.07475620463937223 -0.16968849218209522 0.017829492036320626 -0.005860013421624899 0.05735089798820402 -0.07731984671628261 0.1306798543096821
0.030603443664137763 -0.1368213419392512 0.0619319776868258 0.04958176064695198 -0.12336250432717571 -0.16581587493419647 0.13301418977232027 -0.14219044166364753
0.16825677828039384 -0.022503928237428555 -0.060295889005043575 0.019084666011270113 -0.0883159413933754 -0.07504210966812846 0.026330456714066742 -0.13300816367649776
0.012852638959884644 -0.07350752294653351 0.04573868001329848 -0.1969665246337912 -0.0003953911712460087 -0.09693992137908936 -0.16117059837555545 -0.1271091252565384
0.0021774568154866473 -0.078946384784033 0.07703942026904453 0.057703668981842086 0.05452980101108551 0.12432361902295366 0.12232281771266648 -0.005653634726798994
-0.16550029101910058 -0.22607016894345686 -0.034718090785712384 0.09074337526739507 -0.049437227189431304 -0.1485089212656021 -0.06713832748953318 -0.2038425759723344
0.06107462342216097 -0.06447607059618413 0.021013005193823892 -0.1271024269144646 0.042893797159194946 -0.176007429570636 -0.008808375336229801 0.043840379250253525
0.1278049796819687 0.141362677849105 -0.005615914513869043 -0.07689441572652427 0.2790574958376544 -0.06945431977510452 0.027955617769576408 -0.15210776031017303
0.12085967858833935 0.1963224409601887 -0.18197298730863065 -0.14019816225207343 -0.12549377977848053 0.014945391273491173 -0.2725529290077722 0.11598536523164156
0.10138898632409568 -0.2376242099131243 -0.0956427681956349 0.18410923304598345 -0.017748155247780947 0.05352548509836197 0.058159014442456275 -0.1599875467594549
0.27298207172204186 -0.03549557391871165 -0.13350531442406813 -0.03829128056371515 -0.1171087697148323 0.01880602708860904 0.021753052814169383 0.23807470346329396
0.07658817619085312 0.06085896185331289 -0.003415285046347326 0.12077922697233222 0.497948303582738 -0.02419968694448471 0.15570684165245774 0.07939781248569489
0.1981821250142659 0.3083424694191405 0.13081122761440875 0.0669807256301183 0.10383103787899017 0.0606206569476911 -0.06302822575769104 0.07471656150578065
0.04495511685137672 -0.1599579096841864 -0.019099770776789315 -0.07905616382134713 -0.18175906978226417 0.12130986154079437 0.13923429762334627 0.10564307334030437
0.17117840137049953 -0.0019406052583697696 0.18271076543788958 -0.2120542541585786 0.06595557928085327 -0.1384144027822281 0.059930685173641154 0.10053822210183616
0.006965735927224159 0.13198141753673553 -0.13451381027698517 0.1182456761598587 -0.10315613448619843 0.0642189234495163 0.04432600736618042 -0.14552077651023865
-0.06003320962190628 0.024311481043696404 -0.131145179271698 0.1407252699136734 -0.008836866356432438 0.06269194185733795 -0.12561117112636566 -0.1402149349451065
-0.10117953270673752 0.12779168784618378 0.05758458375930786 -0.14725571870803833 0.1497090756893158 0.003661359893158078 -0.02843131497502327 0.008877748623490334
-0.12302572280168533 -0.05208785459399223 0.07608378678560257 -0.05564393475651741 -0.01137507613748312 0.05133410170674324 0.06901402771472931 -0.07427620887756348
0.14077572524547577 -0.2069739131615844 0.07694380080829986 -0.06693939895019832 -0.19135833741602207 -0.009574899449944496 -0.10933268994819298 0.17500987648963928
-0.12117855485291208 -0.1471869945526123 -0.17070085743016514 0.013861677430530898 0.03590679541230202 -0.2129228417413791 -0.06057935476725361 0.01588259171737909
0.09029870301118517 -0.10123018867102036 0.001307233917910168 -0.043190444010053626 -0.11941116482115104 -0.009691077284514904 -0.09926956291778911 -0.14227323140837458
-0.06781019270420074 -0.07108024353076507 -0.1652980002734178 0.07254305787804324 0.11135683953762054 0.04863907041353794 0.15385589003562927 -0.10674342513084412
-0.14171545207500458 -0.041963808718891375 -0.01972506982199329 -0.08008833969998437 0.458875219851833 -0.15002895891666412 -0.0686742704572325 0.06344630569219589
-0.13178009923677955 0.10636022907726164 0.10425712129426411 0.019502190005192974 -0.009446920827031136 -0.04167807600924813 -0.18816864798231053 -0.11731007245922162
-0.11721155350945887 0.044155081794659046 0.17929088692775122 0.1216344678526408 -0.16696011370590153 0.05524697154760361 0.2024055908190364 -0.020679393765661778
0.29035115653734184 -0.16196988365520545 -0.03403433221280444 -0.1990396271490254 0.13612593710422516 0.15215035848936234 -0.05799854255550443 0.09857571910696498

gnn.conv_layers.1.conv.lin_l.bias f8 [64]
00000000: a813 9af5 28a5 c3bf ef1d 3810 4b0a ce3f
00000010: cc90 cc6d 2ddd 6d3f ad7b 1771 a016 c83f
00000020: 219d 3115 4afd c03f e237 e3c1 696f cfbf
00000030: 4b93 71ba f8f7 bebf 5ef1 73ba c241 b5bf
00000040: 9d83 aa69 0695 cf3f 0000 0080 6126 c1bf
00000050: 890e 1dcb 1eb2 973f d664 0cc9 e735 c23f
00000060: 7076 2896 01ce c3bf 9e0c cfa4 f972 c83f
00000070: dc27 c26c f092 913f b014 16ab 1bc4 c3bf
00000080: ebe8 d7de f850 843f 7b7f 9f29 5484 af3f
00000090: 7e48 357a 02d3 c53f aee7 20ac 54f4 c7bf
000000a0: beda 1e0f 5848 c8bf 2e30 cd24 2c75 ce3f
000000b0: 10c4 8de0 ba63 99bf cc69 28a2 6331 c73f
000000c0: dbfd 6009 6cdf b4bf c4f4 1dd5 8a7f c03f
000000d0: 752f d315 0002 c33f 57f3 dd99 8aee b0bf
000000e0: 5cee 8627 ffd6 9d3f 85e5 7462 978b 32bf
000000f0: b2ff 704d ab20 ba3f 8faa aeae 79ce cd3f
00000100: d769 d073 a007 c53f 28fd 736b 3967 cabf
00000110: 0000 00c0 7c6d 7a3f 7ddc 0b85 2fe6 cf3f
00000120: 41a7 d89a 5209 c4bf f988 06f2 0430 b43f
00000130: ac5b 5639 5b88 ab3f 1b58 e6fe 092a c7bf
00000140: 6472 b8f1 2fea 6f3f d555 bed8 8daa ca3f
00000150: 7821 6e8c 62e5 b63f 4368 8859 efe0 b03f
00000160: adec 36b6 31d7 cc3f ef41 837d 315f c2bf
00000170: ba5c bcdf a700 c93f 923e 0e08 3475 c03f
00000180: 2ec6 eea1 e8d9 d03f 412e 12ce 219b c53f
00000190: 735c 9ac7 d2e6 c8bf bbfc cb69 05ac c3bf
000001a0: fa91 ea8a 8460 a1bf 3c9f 86ae 525e be3f
000001b0: 02f9 bfaa 7cfe 9e3f dfe9 7472 6314 64bf
000001c0: b3d4 bdf6 6572 cf3f 899a e87c 257a a8bf
000001d0: 63ba e144 5054 c83f 4eb7 2b13 2fd0 c93f
000001e0: 12dd ab74 d107 bc3f 880e 5bcb 3dfe b8bf
000001f0: 0507 4e6c 379f a73f 311f fef3 9dbe c73f
-0.15347778312948646 0.234689124030623 0.0036455046923880904 0.18819051286751912 0.13272977862218574 -0.24558755843321395 -0.12097124626013771 -0.08303467800209804
0.24673538360096084 -0.1339837908744812 0.023140412470878977 0.14227006260697433 -0.15472431022583377 0.19100876376441972 0.017162090910041047 -0.15442224363156276
0.009920067120209505 0.06155646331876504 0.17050200431055268 -0.18714388279641753 -0.18970776308352372 0.23795081898640674 -0.024794502216028802 0.18119473855843038
-0.0815341494462624 0.12889228254417706 0.148498545319281 -0.06613985306280533 0.029140459811726735 -0.0002829784957217518 0.10206099167498797 0.23286362676056568
0.164295250463353 -0.2062751555131197 0.006452071480453014 0.24921220775988565 -0.15653450547079653 0.07885771664453846 0.05377469134253174 -0.18097042986181652
0.0038958488855896246 0.20832989772013258 0.08943763664695392 0.0659322351060903 0.2253172054023244 -0.14353006962348 0.19533251213645092 0.12857675927488238
0.26330009282819133 0.16879675447522582 -0.1945441698669331 -0.15368716874943353 -0.033939496953539774 0.11862675438771658 0.030267665788408678 -0.0024511282278158876
0.24567865894247162 -0.047806903360016646 0.19007304538122857 0.20166576801369235 0.10949429605885921 -0.0976294156526426 0.04613660046653759 0.18550466932014723
